lstm_model0.pt (torch, 929747 bytes, 9 tensors)

lstm.weight_ih_l0 f4 [512, 64]
00000000: 9f58 a8bc 2f92 58bc 8bae 58bb f8ff e4bb
00000010: 5a35 2fbc 5ada 2bbc 4980 55bc 7de8 a9bb
00000020: 1792 29ba 47bc afbb 6b5f 053a d039 e53a
00000030: 10e3 15b9 1b37 cebb cd56 05bc d4da e8bb
00000040: e7ec 1dbc ded5 3bbc 4aa5 25bc 0f6a e3bb
00000050: 46c8 cdb9 3529 853b 986b b2ba baaa 7cbb
00000060: 81e4 8cbc 74c6 06bc 063c 3bbc 580d 44bc
00000070: b3af a3bc 6f4f 98bc 7046 66bc ae0d 43bc
00000080: acae 1cbc 1d54 b9bb d2ac 5fbb eab3 9cbb
00000090: 2c02 d7bb 22b3 c9bb 786c 44bb 883f 0a3c
000000a0: 2d76 5e3c 32dd a83b 626f e2b9 f587 5cbc
000000b0: 5524 1abc e30e 2bbb 7e43 58ba 101b 89ba
000000c0: e807 f03b 1820 71bb d8f0 bd3a 395a 343c
000000d0: adb7 103c 87ca 703b 6182 ac3b 856f 673b
000000e0: cfd5 593b aff0 783b 6c55 c63b 3367 4c3b
000000f0: 4442 763b 901f 9dbb 0203 01bc d0f5 6db9
00000100: 4ec9 1cbd 2480 2bbd d03b 25bd fc92 28bd
00000110: a5bc 35bd 4b83 3ebd 8ffc 4ebd a9d3 53bd
00000120: 20ed 58bd 2c20 52bd 95d6 46bd 9409 47bd
00000130: b79e 4dbd 6903 51bd 6835 52bd 583b 53bd
00000140: 304e 44bd d8b7 37bd c5f5 1cbd 8c17 18bd
00000150: 7b18 17bd 7656 23bd b1f2 26bd ff19 20bd
00000160: 851a 22bd 243e 06bd 9fc8 04bd a742 febc
00000170: c63f 02bd 9116 f5bc 3b81 f5bc 2468 02bd
00000180: 3791 febc 60ff 02bd fdee e7bc 7d65 afbc
00000190: 0ef8 b0bc 67a9 aebc 1639 c1bc 2f11 b7bc
000001a0: d35b c6bc 8a4c cdbc 0a17 d4bc 10fa d5bc
000001b0: c3d2 e8bc 0594 eabc c76b c7bc e1da c9bc
000001c0: 18b5 d2bc f5d2 cebc b78d c5bc c6ff d2bc
000001d0: 69cb dbbc 97bc bcbc b3e6 b9bc 2b98 b4bc
000001e0: 80d2 acbc 9b69 a8bc be3d 9abc cd5b acbc
000001f0: 5da6 cabc 5fff b5bc 086d bbbc d5a2 debc
00000200: eac4 e0bc cf57 f0bc 2b3b d5bc 5f35 e3bc
00000210: f9cc ecbc 2091 ecbc d1ac f8bc 6c9a f9bc
00000220: e716 15bd 6c53 1bbd 54fc 3ebd f433 48bd
00000230: fdfe 45bd 9f4c 33bd 67ff 03bd da20 01bd
00000240: 96d7 eabc b615 ebbc 90d5 dabc a4f7 dabc
00000250: 4ca8 d7bc db80 f3bc 2b23 fcbc c589 e6bc
00000260: 90d9 f3bc a7b3 b4bc 42ee adbc bb56 84bc
00000270: 0247 9dbc 7651 9dbc 59e8 81bc efe6 80bc
00000280: 2856 5dbc 3e79 7fbc 5b33 66bc 760b 69bc
00000290: 4d83 7dbc 99d4 6bbc f04d 8bbc 7a0b 8cbc
000002a0: e51d 82bc 0baa 67bc 27f6 7ebc 81e9 8bbc
000002b0: 27aa 94bc 8dd0 88bc 64e5 82bc 218c 91bc
000002c0: 46d8 90bc fc7d 88bc 8ac8 79bc 72a8 7ebc
000002d0: 8830 82bc 00fc 5ebc 602a 57bc 1e94 4bbc
000002e0: ce3b 81bc cadd 8ebc 361c 85bc b075 83bc
000002f0: 8375 8bbc 02dd 99bc 5afe 94bc 6e42 83bc
00000300: 55a7 96bc 0921 bbbc 0f3a aabc 03e5 e4bc
00000310: e66c 15bd 7592 1cbd 1f91 28bd ca12 19bd
00000320: 4045 22bd 91ff 0fbd af30 2bbd af9b 35bd
00000330: b1bc 37bd 9a9a 2dbd bb08 0dbd b27c 10bd
00000340: 2f0b 03bd 5706 02bd 9095 f8bc fab9 01bd
00000350: 708e f5bc 4920 f5bc 9e17 02bd 76c4 f6bc
00000360: ed65 01bd b00d dbbc bbaa d6bc 1231 b5bc
00000370: b6a5 acbc 199b a2bc 3eb9 9fbc 144f aabc
00000380: 3f42 9bbc 8ea7 a4bc c824 9fbc 9005 8bbc
00000390: 6844 9abc 7f32 a1bc cc78 b0bc 2eb0 acbc
000003a0: 6df2 a9bc 5e0a abbc 5f27 b6bc 2135 b9bc
000003b0: 3aae b2bc 4302 a8bc 0de5 a6bc 4fae b0bc
000003c0: 123a b6bc 85db abbc f501 99bc e21a 8abc
000003d0: 5b28 8cbc 3161 99bc 8125 95bc 9869 8cbc
000003e0: 632e 8fbc 86a5 8fbc ef87 93bc c1fc 9fbc
000003f0: f439 99bc 28e4 8bbc c688 8cbc bf13 92bc
-0.02055007 -0.013218447 -0.003306302 -0.0069885217 -0.010693872 -0.010489071 -0.013031074 -0.0051851855
-0.00064686075 -0.0053630206 0.0005087766 0.0017488543 -0.00014294335 -0.00629319 -0.008138371 -0.0071061645
-0.009639001 -0.011464564 -0.010110209 -0.0069401334 -0.00039249862 0.00406375 -0.0013612388 -0.003855391
-0.017198803 -0.008226026 -0.011427885 -0.011966072 -0.01998124 -0.018592564 -0.01405488 -0.011905117
-0.009563129 -0.005655779 -0.0034130109 -0.0047821896 -0.006561538 -0.0061553875 -0.002997188 0.008437999
0.01357798 0.0051533217 -0.00043189066 -0.013460149 -0.009408076 -0.0026101402 -0.0008249803 -0.0010460336
0.0073251612 -0.003679281 0.0014491333 0.011007839 0.008832854 0.003674181 0.005264566 0.0035314274
0.0033239012 0.0037985255 0.0060526635 0.0031189441 0.0037576118 -0.0047950223 -0.007874252 -0.00022693654
-0.038277917 -0.04187025 -0.040340245 -0.0411558 -0.04436936 -0.04651193 -0.050533827 -0.051715527
-0.052960515 -0.051300213 -0.048544485 -0.04859312 -0.05020019 -0.051028643 -0.051320463 -0.051570266
-0.047926128 -0.04485306 -0.03832032 -0.03713183 -0.03688858 -0.039877377 -0.040758792 -0.03908729
-0.039576072 -0.032774106 -0.03241789 -0.031037642 -0.0317991 -0.029917987 -0.029968848 -0.031837597
-0.031075103 -0.031981826 -0.0283122 -0.021410698 -0.021602657 -0.021321012 -0.023586791 -0.022347061
-0.024213707 -0.02506091 -0.025889892 -0.026120216 -0.028420812 -0.028635034 -0.024343384 -0.024640502
-0.025721118 -0.025247077 -0.024115426 -0.025756728 -0.026830392 -0.023039145 -0.022693014 -0.022045216
-0.021096468 -0.02055817 -0.01882827 -0.021039868 -0.024737531 -0.022216497 -0.022879139 -0.027177254
-0.027437646 -0.029338745 -0.02602919 -0.02773541 -0.028906332 -0.028877795 -0.030355843 -0.030469142
-0.036398795 -0.037921354 -0.046627358 -0.04887767 -0.04833888 -0.043774243 -0.032225993 -0.03152547
-0.028667253 -0.028696876 -0.026713163 -0.026729412 -0.026325367 -0.029724529 -0.030778488 -0.028141866
-0.029766828 -0.022058321 -0.021231774 -0.016154638 -0.019198898 -0.019203883 -0.015857862 -0.015735118
-0.013509311 -0.015592871 -0.01405033 -0.014223924 -0.015473199 -0.014393949 -0.017004937 -0.017095316
-0.015883395 -0.0141396625 -0.015561617 -0.017079117 -0.018147541 -0.016701007 -0.015978523 -0.017767014
-0.017681252 -0.016661637 -0.015245566 -0.01554309 -0.015892282 -0.013609886 -0.013132662 -0.012425451
-0.015775587 -0.017439742 -0.016248804 -0.016047329 -0.017023807 -0.018782143 -0.01818769 -0.016022887
-0.018390337 -0.0228429 -0.020779638 -0.027941233 -0.036480807 -0.03822561 -0.041154023 -0.037371434
-0.039616823 -0.035155836 -0.041794475 -0.044337925 -0.044857685 -0.042383768 -0.034432154 -0.03527517
-0.031993087 -0.031744327 -0.030344754 -0.0316715 -0.029975146 -0.029922621 -0.031760804 -0.030122977
-0.031591345 -0.026739925 -0.026204458 -0.022118125 -0.02107511 -0.019849347 -0.01949751 -0.02078966
-0.018952487 -0.020099428 -0.019426718 -0.016970426 -0.018831447 -0.019677399 -0.021541975 -0.021080103
-0.02074548 -0.020878967 -0.02223557 -0.022608342 -0.021811593 -0.020508891 -0.020372892 -0.021567492
-0.022244487 -0.020978699 -0.018677691 -0.016858522 -0.017109087 -0.018723102 -0.01820636 -0.017140195
-0.017478174 -0.017534982 -0.018009154 -0.019529702 -0.018704392 -0.017076567 -0.017155062 -0.017831681

lstm.weight_hh_l0 f4 [512, 128]
00000000: a4f8 da3a 0eae 2cb9 3e74 1f3b 5cd2 e9bb
00000010: 8f8c 993b bb42 883b 21d6 deba e1db 3d3b
00000020: bc82 693b 538b fdba 9e47 7dbb ca00 a13b
00000030: f636 3dbb f7a4 013c 5628 8f3b d548 233b
00000040: eac3 403c a1ab 9bbb 3895 9bba 83b4 b2bb
00000050: d594 1d3b c21c 3bba d4ce cc3a 7d50 23bb
00000060: 7dec 07bb 024e e43b b508 f13b 403e d4bc
00000070: 1641 0fbb b2fb 11bb 1f36 56bb 6a38 febb
00000080: 2e4b 453b b7ef 92ba 3eee a13b 87de 693b
00000090: ee19 c0ba 2081 3e3b e65e 2e3b 9e2b b4bb
000000a0: 4e6c 2ebb 8ac0 d13b 6dc4 633b a20c aa3b
000000b0: 72da 9f3a 521a baba fcee 6a3c d949 733a
000000c0: e032 ab3b 3874 443c add6 c33b 6a32 ee3b
000000d0: 4416 ef3a 169a 4fba ec07 0abb 7013 4838
000000e0: 8a29 943b bc3b dcbb f771 2bbb 789e e839
000000f0: 6d3e 003c 33ff 01bb 18d9 443b 3cf0 c23a
00000100: df73 44ba 2d1b 2e3c aeda 9d39 2e5a e83c
00000110: 044d 803b d79e 7b3b 24c2 b4ba b10c 93bb
00000120: 6cfa 49bb eaf9 85bb b4e6 04bc 8d60 143c
00000130: 3f27 5ebb 42d5 103b c0c5 3a3b a79a 4fbc
00000140: 6988 28bb 7ad5 c33a 588e 15ba c733 893b
00000150: 8cb6 8c3b 0863 ccba 2c48 3a3a 9127 923a
00000160: bc7d a63a 2627 42bb b493 123c b52e d1ba
00000170: b5c2 893b a769 503b e2ad 1cbb 9330 dd39
00000180: b387 1cbb f759 38bb 5785 4cba 714b bdba
00000190: 55a9 2eba c1dc 57bb c5dc de39 04cf 7c3b
000001a0: d018 74ba a7fc f13a d479 68bb dd86 c1bb
000001b0: 6cb4 0d3c 995d 3ebb dc2d 8aba 798d 603c
000001c0: fe64 3fbb dfa2 ccba a511 eabb b3d0 d7ba
000001d0: e4bb e2bb a089 393a acb0 95ba e9b9 39bb
000001e0: a84c 383b 3071 25b9 ab89 c2bb 3fb5 8cbb
000001f0: 9318 3f3b 2c6d cf3b a8c5 12bb 6cde 183b
00000200: 9db0 e5ba 5a29 dcba a635 bd39 0142 7e3a
00000210: 9c58 f53c 81f1 daba 0174 f2b9 2ffd c4ba
00000220: 42bf 4aba 5d41 d039 c3eb a3b8 68bd 94b9
00000230: 8f46 8d3b 7b2b d93b f551 a6ba d782 1fbb
00000240: ceca 08bd 11c9 1a3d 3a32 3abc 99e7 a03a
00000250: c4c6 09ba 859b 51bc ede0 30b9 40ae 313b
00000260: 329d 8a38 6647 feba 85b5 1ebb 8f88 e9bb
00000270: 4ab8 d4b9 3292 453b e531 a9ba d1b3 3bbb
00000280: 8400 60bb 8b94 9939 d6df a8ba 108b b3ba
00000290: 5064 1638 7b7e 9ebb cfb0 633c 2d15 6dba
000002a0: 7f69 433b efbd ae3a 70f8 d6ba 1097 44bb
000002b0: 00a8 b439 ca5b 453a efd1 87bc 81b8 49ba
000002c0: 7192 9ab9 5be6 773a ed38 95ba df92 b7b8
000002d0: 970d b4ba 330f 843c 46b4 45b9 70e6 8c3b
000002e0: 840d 58b9 68ac a43a a975 5a3b 4a32 8a3b
000002f0: e4a4 7b3c 6606 22bd 4641 29bb 78ac c1b9
00000300: eddb e639 8a24 a73c 9d37 cd39 098b 43bc
00000310: 5f25 29b8 cd44 5539 755c 1c3b a020 483d
00000320: 2205 843b a0a2 d93a 002b 103b c772 5cbb
00000330: 4668 9139 3634 89bc 52a8 2abb 4018 afbb
00000340: fbd8 dc3b 5120 34b9 85c2 453a 3f82 963a
00000350: 3de5 f4ba eb46 adb8 cd6d 5bbc 2944 2fbc
00000360: c8cf 99ba 0072 973b 6333 0b3b d4c4 b438
00000370: eecd 92ba ae20 91bb 91b4 6a39 e818 97bb
00000380: 42d3 433b aa82 7e3b bfa1 e23b 7d2f 9639
00000390: ad0b d93a dd97 a9b9 d3e8 e7ba e461 b9b9
000003a0: 16c9 77b9 8639 273c 46a4 66ba 7ba2 92b9
000003b0: 6003 013d 17f5 403a ccfc 113a e1ed ce3c
000003c0: fe9d 3a3a 4a2f 8639 516a 8dbb 9ee1 b1bb
000003d0: ea86 993a f0da 0bba a067 1abb 0f37 8e3a
000003e0: 69a0 aabb 6253 a5ba 6b7c 9c39 90f2 263a
000003f0: 15b8 59ba 0861 f8ba 57c9 9b3a 6e84 cebb
0.0016706181 -0.00016468039 0.002433076 -0.0071356725 0.0046859453 0.0041583455 -0.0017001071 0.002897017
0.0035630902 -0.001934389 -0.0038647423 0.004913424 -0.002887187 0.007912866 0.004368822 0.0024915237
0.01176546 -0.0047506844 -0.0011870032 -0.0054536476 0.002404501 -0.0007137769 0.0015625604 -0.00249198
-0.0020740323 0.006967307 0.0073557743 -0.02590859 -0.0021858863 -0.0022275266 -0.0032686067 -0.00775819
0.0030104625 -0.0011210357 0.0049417308 0.0035685615 -0.0014656165 0.0029068664 0.0026606857 -0.0054983636
-0.0026614848 0.0064011263 0.003475453 0.005189494 0.0012195839 -0.0014198518 0.014339205 0.00092807185
0.0052245706 0.011990599 0.005976519 0.0072691934 0.0018240889 -0.0007919384 -0.002106185 4.770182e-05
0.0045215534 -0.006720988 -0.0026160458 0.00044368557 0.0078273835 -0.0019835948 0.0030036625 0.0014872621
-0.0007494073 0.010626596 0.00030108303 0.028363314 0.003915431 0.0038394236 -0.0013790769 -0.004487597
-0.003081943 -0.00408863 -0.008111645 0.009056223 -0.0033897904 0.0022099768 0.0028499216 -0.012671149
-0.0025716072 0.001494094 -0.000570511 0.0041870805 0.004294222 -0.0015593478 0.00071060914 0.0011150708
0.0012702267 -0.0029625385 0.008946348 -0.0015959354 0.004204119 0.0031801255 -0.0023907353 0.00042188595
-0.0023884594 -0.0028129795 -0.00078018516 -0.0014442039 -0.00066628057 -0.0032937976 0.00042507626 0.003857554
-0.00093115587 0.0018462137 -0.0035473006 -0.0059059695 0.008648973 -0.0029047488 -0.0010542232 0.013705605
-0.0029204483 -0.0015612504 -0.0071432167 -0.0016465395 -0.006919371 0.00070776977 -0.001142045 -0.002833957
0.0028121863 -0.00015777792 -0.0059368215 -0.004294067 0.0029158934 0.006330153 -0.0022395644 0.0023325933
-0.0017523948 -0.0016796992 0.0003608886 0.00096991664 0.029949479 -0.0016704054 -0.00046244267 -0.0015029068
-0.0007734188 0.0003972155 -7.81636e-05 -0.00028369878 0.0043113898 0.0066274977 -0.001268922 -0.0024339461
-0.033396535 0.037789408 -0.011364514 0.0012276053 -0.00052557536 -0.012793426 -0.0001686846 0.0027111918
6.609633e-05 -0.001939994 -0.002421708 -0.0071268748 -0.00040573097 0.0030146954 -0.0012908546 -0.0028641114
-0.0034179995 0.00029293107 -0.0012884091 -0.001369806 3.585621e-05 -0.004836855 0.013897135 -0.0009043988
0.002981752 0.0013331751 -0.0016400944 -0.0029997267 0.00034457445 0.0007528631 -0.016579596 -0.0007695035
-0.00029482276 0.0009456628 -0.0011384763 -8.753477e-05 -0.001373696 0.016120529 -0.00018854541 0.004299931
-0.000206044 0.0012563588 0.003333429 0.0042174207 0.015359137 -0.039556883 -0.002582626 -0.00036940328
0.00044032876 0.020403165 0.00039142082 -0.011935004 -4.0327544e-05 0.00020338893 0.002385882 0.04885924
0.004028932 0.0016604252 0.0021998286 -0.0033637749 0.00027734245 -0.016748529 -0.0026040268 -0.005343467
0.0067397333 -0.00017178176 0.0007543939 0.0011482908 -0.0018684041 -8.262492e-05 -0.013392878 -0.010697403
-0.0011734897 0.004621744 0.0021240346 8.619731e-05 -0.0011200288 -0.0044289446 0.00022383245 -0.0046111234
0.0029880558 0.0038835206 0.0069162543 0.0002864561 0.0016559266 -0.0003234734 -0.0017693288 -0.00035358884
-0.00023630666 0.010206586 -0.00087982824 -0.00027968347 0.03149736 0.000736074 0.00055689807 0.025259914
0.00071188796 0.00025593705 -0.0043156524 -0.005428507 0.0011713181 -0.00053350534 -0.00235603 0.0010850149
-0.0052071107 -0.0012613351 0.00029847337 0.0006368542 -0.00083053234 -0.0018949816 0.0011885565 -0.006302408

lstm.bias_ih_l0 f4 [512]
00000000: 694d f23b 0fe2 a0bd f566 8dbd 76d8 7ebd
00000010: 1c0b 3e3d 75e1 8bbd eff4 9cbd 22f4 89bd
00000020: 3adf bcbd a833 afbd f535 94bd d020 c5bd
00000030: aee6 6d3d 81f0 00bc e012 7cbd 83e0 f73c
00000040: aed2 1d3e 3fde 293e 03c8 893d 8094 60bd
00000050: 58f1 51bd a67b 63bc e0d6 9abd cfc8 d43c
00000060: 2c0d 8cbd 01fb 7fbd 4297 97bd 9631 2d3e
00000070: ada7 8ebd b39f 1d3d 8968 8abd ca20 85bd
00000080: 411f 743d 7cb3 98bd 8546 98bd 53fc 8fbd
00000090: 676c 94bd d7c2 943d fe8d dbbd 6804 7fbd
000000a0: f4cf 4f3d 1978 4fbd 1740 99bd a58f 90bd
000000b0: 7585 92bd 1cb1 97bd 10ed cf3d cff2 85bd
000000c0: 8941 70bd f32c 93bd 8524 95bd 1f40 8bbd
000000d0: ed20 08bc af32 943d 6899 b0bd 208a 013d
000000e0: d90b acbd 172d 99bd 5d86 523d b1ba 59bd
000000f0: 0792 debe f436 573e 2da6 90bd 561b cbbd
00000100: 73bd 74bd 70cb 8abe c59d 9bbd 3ccc 583e
00000110: 96db b5bd d2fe 82bd 7300 66bd ec1b 33bd
00000120: d845 913d 893c a9bd eb83 9ebd e912 433e
00000130: b908 a5bd 73c1 203e b38c 433d d71f 1dbd
00000140: 2b3e 963d 5425 90bd f291 88bd a104 8ebd
00000150: b201 80bd de41 a0bd f99c bc3d e695 cf3d
00000160: f908 93bc 7a76 983d d38b 8ebd df66 93bd
00000170: a435 87bd b158 973d 83ad 8fbd 2541 2c3d
00000180: 4fe1 243d cfc9 843d 38d9 8c3d 657c e1bd
00000190: 9b11 25bd 2473 93bd 5e32 88bd 6ca4 86bd
000001a0: 201c aabd 5824 9a3d 59ad 93bd d830 9ebd
000001b0: 64a6 d7bc 0ca3 99bd e81e a5bd 851d 1bbe
000001c0: f7f9 c8bd cdf1 79bd 58c4 92bd e5bc 2d3d
000001d0: b80c 78bd c469 60bd 1ca0 58bd 520b 43bd
000001e0: a476 8d3d 46b3 8ebd 961e a7bd 30b6 73bd
000001f0: 2386 1abd 8ba7 cfbd 3702 07bd 6c61 cc3d
00000200: 8e6a ac3b 2a26 0dbd e93c eebc 4fea b2bc
00000210: c3e2 6d3c f2d7 d2bc c97e 0fbd 28dc f1bc
00000220: 9eaf 38bd 10c1 c3bc ef9d ffbc 162f 4bbd
00000230: 25e5 a13d 3fc8 943d ad67 bbbc d061 043d
00000240: 6626 8c3d e31f 253c 7a9a c63d 857d bcbc
00000250: 1488 b6bc 209a 8a3d c245 e6bc 1cad 293d
00000260: 9a11 b8bc 7251 babc a609 ffbc 157e 4c3a
00000270: 4b5c 08bd 928d 453d 01e7 fcbc 7ef6 bdbc
00000280: ebee 983d 3182 0bbd eb06 0bbd 5b29 f1bc
00000290: 52a5 edbc 8fa0 bd3d 5c0e 2cbb 1135 dabc
000002a0: 98da 7f3d 3821 bcbc 3c7f 15bd d9db ccbc
000002b0: b065 08bd 4941 0cbd 8805 41bb a60b ddbc
000002c0: bfc0 cdbc ab15 13bd f8a8 0cbd 39d8 c6bc
000002d0: 3213 c8bb 99ee e73d ad08 25bd 0060 5a3d
000002e0: 957e 09bd 68cc 0abd 6391 833d c330 d9bc
000002f0: 378a 2d3e e97b 333d d18e ecbc eb0a 8ebd
00000300: 2363 a1bc 0662 8c3c 768c ffbc f2b0 fa3d
00000310: ba47 1fbd 767b efbc 7dee bebc 0d49 e73d
00000320: 5ad7 b23d 06c4 18bd 36a4 03bd b62a c43d
00000330: b6c1 07bd 0835 cc3c f6b2 633d 584d 0c3d
00000340: 4f9c c63d e4f6 f1bc eedb ecbc 5205 d4bc
00000350: 4c91 e2bc 9b02 0ebd 2134 e63d 5cc5 153e
00000360: 3423 48bc c7f1 bf3d 98b6 17bd 8ea5 dfbc
00000370: af56 d8bc d46b bd3d 037d e0bc 61db 693d
00000380: ca76 463d aabb a73d 88fe b63d c775 82bd
00000390: cf05 a13b ad99 d5bc a67f 02bd 97f9 cabc
000003a0: c5f5 28bd e067 c03d 5a3b d7bc 6037 02bd
000003b0: 472b aabd abdd e8bc 3d6c 11bd 66cd 623e
000003c0: 7a19 3fbd bf9b fbbc 44ef 23bd 5b4f 7c3d
000003d0: 9bc3 a7bc 04ae 0abd 453b c4bc 911c abbc
000003e0: b65d c03d e490 f6bc 1e22 48bd 0622 c8bc
000003f0: c85a bbbc 7cae 45bd bec3 2fbc ed95 013e
0.007394482 -0.07855617 -0.06904403 -0.062218152 0.046397313 -0.06830112 -0.07663905 -0.06736018
-0.092222646 -0.085547745 -0.07236854 -0.09625399 0.05808132 -0.007869841 -0.061541438 0.030258423
0.15412399 0.16588686 0.06727602 -0.05482912 -0.051255554 -0.013884461 -0.075605154 0.02597466
-0.0683845 -0.062495235 -0.07401897 0.16913447 -0.06965575 0.03848238 -0.0675822 -0.06500395
0.05960012 -0.07456109 -0.074353255 -0.07030549 -0.072472386 0.07263725 -0.10720442 -0.06226006
0.05073543 -0.050651643 -0.07482927 -0.07058648 -0.07154361 -0.07406828 0.10152638 -0.06540453
-0.05865625 -0.07186308 -0.07282356 -0.067993395 -0.008308631 0.0723623 -0.0862301 0.031625867
-0.08400697 -0.07479303 0.05139767 -0.05315656 -0.43470785 0.21017057 -0.070629455 -0.09917323
-0.059750985 -0.27108335 -0.075984515 0.21171659 -0.08879773 -0.06396259 -0.056152772 -0.0437278
0.070934 -0.08263499 -0.07740005 0.19050182 -0.08058304 0.15698795 0.047741603 -0.038360443
0.07336076 -0.0703837 -0.06668462 -0.06934477 -0.06250323 -0.07825063 0.09209628 0.10136013
-0.017948614 0.074444726 -0.06960263 -0.071973555 -0.06602028 0.073899634 -0.070155166 0.042054314
0.040253934 0.064838044 0.06877369 -0.110100545 -0.040299993 -0.07199696 -0.06650232 -0.0657433
-0.08306146 0.07526463 -0.07210798 -0.0772416 -0.026324458 -0.07501802 -0.080625355 -0.1514798
-0.09813302 -0.061021615 -0.07166356 0.042416472 -0.060559005 -0.054788366 -0.052887067 -0.047618218
0.069073945 -0.069677874 -0.08160131 -0.05949992 -0.03772558 -0.10139378 -0.032961097 0.09979519
0.0052617257 -0.034460224 -0.029081779 -0.021840243 0.014519396 -0.025737736 -0.03503302 -0.029523924
-0.045089357 -0.02389577 -0.031203238 -0.04960545 0.07905034 0.072647564 -0.022876585 0.032319844
0.068432614 0.010078403 0.09697433 -0.023009071 -0.022281684 0.06767678 -0.028109435 0.041424856
-0.02246933 -0.022743914 -0.03113253 0.000780077 -0.033291142 0.048230715 -0.03087187 -0.023188826
0.07467445 -0.034059707 -0.033942144 -0.029438665 -0.029009495 0.0925914 -0.0026253676 -0.026636632
0.062464327 -0.022965059 -0.036498293 -0.025007175 -0.0333001 -0.03424195 -0.002945276 -0.026983093
-0.025116323 -0.035909336 -0.03434083 -0.024273025 -0.006105804 0.11324806 -0.040291477 0.05331421
-0.033567984 -0.033886343 0.06424215 -0.02651251 0.16947256 0.04381934 -0.028876694 -0.06935676
-0.019700592 0.017136585 -0.031194907 0.12240781 -0.038886763 -0.029233675 -0.02330708 0.1129323
0.08732481 -0.037296318 -0.032139026 0.09578459 -0.03314372 0.024927631 0.055590592 0.03425345
0.09697782 -0.029536672 -0.028913464 -0.025881443 -0.027657174 -0.034670454 0.112404115 0.14626068
-0.012215424 0.09372287 -0.03703937 -0.027300622 -0.026408521 0.09249082 -0.02740336 0.05709398
0.04845313 0.08190091 0.08935267 -0.063701205 0.0049140225 -0.026074255 -0.031860016 -0.024777217
-0.04125001 0.093948126 -0.026273418 -0.03179109 -0.08309036 -0.028426012 -0.035503615 0.22148666
-0.046655156 -0.030713914 -0.040023103 0.061599117 -0.020479014 -0.03385736 -0.023954043 -0.020887645
0.09392874 -0.030098386 -0.04886066 -0.024430286 -0.022870436 -0.048262104 -0.010727821 0.12654848

lstm.bias_hh_l0 f4 [512]
00000000: 3f51 f23b 0fe2 a0bd f166 8dbd 9ed8 7ebd
00000010: 7d85 313d 73e1 8bbd 98f4 9cbd f7f3 89bd
00000020: dede bcbd a633 afbd fa35 94bd 9b20 c5bd
00000030: e643 6b3d c585 fbbb d312 7cbd e3df f73c
00000040: 4daf 1d3e 6e12 2a3e 2aea 863d bc94 60bd
00000050: 2ef2 51bd d118 46bc e0d6 9abd db8a d53c
00000060: 450d 8cbd 13fb 7fbd 4c97 97bd 7315 2d3e
00000070: cea7 8ebd e29f 1d3d 7167 8abd d420 85bd
00000080: f71d 743d b8b3 98bd 8746 98bd 4ffc 8fbd
00000090: 696c 94bd fcc2 943d d68a a1bd 6c04 7fbd
000000a0: 0bd0 4f3d ac77 4fbd 1640 99bd a58f 90bd
000000b0: 8f85 92bd 01b1 97bd 606a cd3d 32f4 85bd
000000c0: 8d41 70bd ed2c 93bd 8924 95bd 1440 8bbd
000000d0: 8623 08bc e69e 953d 6899 b0bd 0c7e 013d
000000e0: e40b acbd 5d2d 99bd 5b86 523d 66bb 59bd
000000f0: 6e53 dbbe be3a 573e 2ea6 90bd 6d1b cbbd
00000100: 6bbd 74bd a922 7ebe fc9d 9bbd 34ce 583e
00000110: 9ddb b5bd d2fe 82bd 9000 66bd 421d 15bd
00000120: c245 913d 803c a9bd ee83 9ebd e216 433e
00000130: c508 a5bd 9290 203e bd8c 433d eb6a 2dbd
00000140: e119 983d 4725 90bd fd91 88bd a504 8ebd
00000150: 5fb7 7fbd dc41 a0bd 8490 bc3d 1b9c cf3d
00000160: be09 93bc 8376 983d c98b 8ebd f566 93bd
00000170: a535 87bd b158 973d 83ad 8fbd cd2e 2c3d
00000180: 4ce1 243d cfc9 843d 09d7 8c3d 647c e1bd
00000190: 4a83 16bd 2773 93bd 6432 88bd 6ca4 86bd
000001a0: 071c aabd 799f 983d 5fad 93bd d030 9ebd
000001b0: 9595 b6bc 09a3 99bd e61e a5bd 2387 11be
000001c0: 30fa c8bd d0f1 79bd 58c4 92bd 3ab2 2d3d
000001d0: d70c 78bd 8168 60bd 57a0 58bd 63bf 42bd
000001e0: 45b6 8d3d 4ab3 8ebd 831e a7bd 11b7 73bd
000001f0: 6e83 1abd 70a7 cfbd f10a 07bd 2b61 cc3d
00000200: 136a ac3b 2426 0dbd e93c eebc a1e9 b2bc
00000210: 4791 b73c 5fd8 d2bc bf7e 0fbd 0add f1bc
00000220: ceae 38bd 82c1 c3bc 0b9e ffbc ad2f 4bbd
00000230: b27b a33d 64a2 953d b868 bbbc e961 043d
00000240: 4ea7 b23d a575 043d 3482 c63d 637a bcbc
00000250: d587 b6bc 74a6 643d b645 e6bc 2036 283d
00000260: 6e11 b8bc 8053 babc a909 ffbc c5b4 2d3b
00000270: 4c5c 08bd 6d8d 453d 9be7 fcbc 81f6 bdbc
00000280: e9ee 983d 2e82 0bbd 1907 0bbd 9829 f1bc
00000290: 55a5 edbc 90a0 bd3d 49c4 053c 2135 dabc
000002a0: 8eda 7f3d 2a21 bcbc 447f 15bd dfdb ccbc
000002b0: f965 08bd 2c41 0cbd 7735 fa3c c70b ddbc
000002c0: c4c0 cdbc ad15 13bd e7a8 0cbd f3d7 c6bc
000002d0: c515 c8bb 9fa2 e63d c308 25bd 4d78 5a3d
000002e0: 997e 09bd 77cc 0abd 9691 833d d62a d9bc
000002f0: 7107 2f3e a306 c03d d58d ecbc bd0a 8ebd
00000300: 9763 a1bc 15e3 fc3c 4f8c ffbc c29f e43d
00000310: b447 1fbd 777b efbc 7fee bebc 43d7 cd3d
00000320: 37d7 b23d e6c3 18bd 37a4 03bd b8fa a73d
00000330: b2c1 07bd 48b3 f63c e8b2 633d b3cf 0f3d
00000340: ff9f c63d 9ef6 f1bc 99d8 ecbc 3a05 d4bc
00000350: 319e e2bc b402 0ebd 1534 e63d 5fc5 153e
00000360: f822 48bc e7f1 bf3d 25b6 17bd 96a5 dfbc
00000370: bd56 d8bc cf6b bd3d 0a7d e0bc 23db 693d
00000380: c576 463d a8bb a73d a7fe b63d 9275 82bd
00000390: 168f a13a 9699 d5bc b97f 02bd 99f9 cabc
000003a0: c8f5 28bd 6655 c03d 4a3b d7bc 2737 02bd
000003b0: e12f b1bd 97dd e8bc 236c 11bd 5699 333e
000003c0: 5218 3fbd da9b fbbc 2eef 23bd 604f 7c3d
000003d0: 69c3 a7bc 7fae 0abd 353b c4bc d263 aabc
000003e0: 699c c03d a190 f6bc 4322 48bd f921 c8bc
000003f0: ea59 bbbc 43b0 45bd 66da 2ebc ef95 013e
0.007394939 -0.07855617 -0.069044 -0.0622183 0.043340195 -0.068301104 -0.0766384 -0.06735986
-0.09222196 -0.08554773 -0.07236858 -0.096253596 0.0574378 -0.0076758587 -0.06154139 0.030258125
0.15398903 0.16608593 0.06587632 -0.054829344 -0.05125635 -0.012090878 -0.075605154 0.026067188
-0.068384685 -0.062495302 -0.074019045 0.16902713 -0.069656 0.038482554 -0.06758011 -0.06500402
0.05959889 -0.07456154 -0.07435327 -0.07030546 -0.0724724 0.07263753 -0.07887809 -0.062260076
0.050735515 -0.050651237 -0.074829265 -0.07058648 -0.071543805 -0.07406808 0.10030055 -0.06540717
-0.058656264 -0.07186303 -0.07282359 -0.06799331 -0.008309251 0.07305698 -0.0862301 0.03161435
-0.084007055 -0.074793555 0.051397663 -0.053157233 -0.4283709 0.21018502 -0.07062946 -0.099173404
-0.059750956 -0.2481791 -0.075984925 0.2117241 -0.088797785 -0.06396259 -0.05615288 -0.036404856
0.07093383 -0.082634926 -0.07740007 0.19051698 -0.08058313 0.15680149 0.04774164 -0.042338293
0.07426811 -0.0703836 -0.0666847 -0.069344796 -0.062430736 -0.07825062 0.09207252 0.10137197
-0.017948981 0.07444479 -0.06960256 -0.07197372 -0.06602029 0.073899634 -0.070155166 0.04203682
0.040253922 0.064838044 0.06876952 -0.11010054 -0.0367463 -0.07199698 -0.06650236 -0.0657433
-0.08306127 0.07452292 -0.07210802 -0.07724154 -0.022288123 -0.075017996 -0.08062534 -0.14211707
-0.098133445 -0.061021626 -0.07166356 0.0424063 -0.06055912 -0.054787163 -0.052887287 -0.0475458
0.06919531 -0.069677904 -0.081601165 -0.059500758 -0.037722997 -0.10139358 -0.03296942 0.09979471
0.0052616685 -0.0344602 -0.029081779 -0.021839919 0.02240814 -0.02573794 -0.035032984 -0.029524345
-0.04508858 -0.023895983 -0.03120329 -0.049606014 0.079825774 0.07306364 -0.022877082 0.032319937
0.08723317 0.032338757 0.09692803 -0.023007577 -0.022281567 0.055822805 -0.028109413 0.041067243
-0.022469249 -0.022744894 -0.031132536 0.0026505452 -0.033291146 0.048230577 -0.030872157 -0.023188831
0.074674435 -0.034059696 -0.033942316 -0.029438779 -0.0290095 0.092591405 0.008164474 -0.026636662
0.06246429 -0.022965033 -0.036498323 -0.025007186 -0.033300374 -0.03424184 0.030543072 -0.026983155
-0.025116332 -0.035909344 -0.034340765 -0.024272894 -0.0061061108 0.11261486 -0.04029156 0.053337384
-0.033568 -0.0338864 0.06424253 -0.026509684 0.17092682 0.09376266 -0.028876225 -0.06935642
-0.019700808 0.03087 -0.031194834 0.11163284 -0.03888674 -0.029233677 -0.023307083 0.100508235
0.08732455 -0.0372962 -0.03213903 0.08202118 -0.033143707 0.030114785 0.05559054 0.035110187
0.096984856 -0.029536542 -0.028911876 -0.025881398 -0.027663322 -0.034670547 0.112404026 0.14626072
-0.012215368 0.09372311 -0.03703894 -0.027300637 -0.026408548 0.092490785 -0.027403373 0.05709375
0.04845311 0.081900895 0.0893529 -0.06370081 0.0012325968 -0.026074212 -0.031860087 -0.02477722
-0.04125002 0.093912885 -0.026273388 -0.03179088 -0.0865171 -0.028425975 -0.035503518 0.17538962
-0.046654053 -0.030713964 -0.04002302 0.061599135 -0.020478921 -0.03385782 -0.023954013 -0.020799551
0.09404833 -0.030098261 -0.0488608 -0.024430262 -0.022870023 -0.0482638 -0.010672187 0.12654851

lstm.weight_ih_l1 f4 [512, 128]
00000000: 28a4 84ba 1033 6c39 b0d0 ecb9 9977 7fba
00000010: b275 de3c f9be 273b f2bd aa38 9a77 3bba
00000020: e82e 5aba 8a6c 843a 72cf 36b8 1c5e 5bba
00000030: eb01 763a 7d05 f23b 0ad2 c1b8 42a2 94ba
00000040: 6080 1b38 9881 033d 2cdd a9bb 218d a8ba
00000050: 14ed 4cb9 f231 27bc e807 083b 26fb bc3a
00000060: 7e72 04bb 0f8a 5dba f8a0 233b bf83 99bc
00000070: 666c 2bba 1c3b 913a e60d d7ba adc2 60ba
00000080: 76c4 91ba 3a01 9db9 5640 563b 922a fb38
00000090: 6c21 09bb 38fd 5eba 6b3b 703c 86c9 323b
000000a0: 3e47 993a a7e7 8f3a bc63 83b8 054b 9c39
000000b0: a3c6 5039 86e4 a539 081a a43c 7aed e9b9
000000c0: 1dd6 3b3b ac95 1bba 031a aeb8 3a58 8ab9
000000d0: 8962 7aba 88fb ef3b be92 8f3a 1fa1 a53a
000000e0: 2bf4 23ba df10 0eb8 8b56 823a 807c 083b
000000f0: d373 733c c792 10bc fe8b 16b9 0121 10b9
00000100: 1493 793a ad50 bb3c bf58 103b 742d 11bc
00000110: 37fd 76ba a865 8439 4827 0dbb b80f eb3c
00000120: 322b 2f3a 66e8 f6ba 52a9 13bb 30f7 163b
00000130: 8f16 323a 0dc7 4dbc 4cbf 8bba cef5 23bc
00000140: e4ec 993a 5aa5 26ba 2f68 c4ba f1ca b1bb
00000150: 9873 d0b9 ae8d 453a d3ba 76bb 8c96 1b3a
00000160: e6a1 6eba 945f 193a 883a 4eba 2305 b0ba
00000170: 91cf 163b 9031 36ba eeaa 5ebb 63b5 beba
00000180: 06df 7a3a e059 493a d444 dd3a 89e3 ff38
00000190: 46e4 8d3b 4bc6 84ba b22d 0b3a 4139 0e3a
000001a0: 33b6 33ba cb7a 853b ef53 133b 47f3 90b9
000001b0: 4b12 9e3c c514 3dba c050 3338 583b e53c
000001c0: f7c3 443a c8ca ebba 4e8b dbba e038 2bbb
000001d0: d137 343b 136e 5fba 3077 1a3b 7741 903a
000001e0: 7a9f 1fba 2eea 763a 0f8e fa39 23c6 73b9
000001f0: 37f2 01ba 6655 a2ba e4e7 983a 30d3 e239
00000200: e12a 023a 471e 1fba 6619 3738 a8ff bcb9
00000210: abe5 a43c 75e6 2f3a 4c96 37b9 a462 53b9
00000220: d2a5 0839 c2a9 bd38 87ff 93b9 c311 163a
00000230: 480b 83ba cdeb ef3b f8af dd38 78e5 2b3a
00000240: 1de4 123c e85e d03c bf24 acbb b16a 22ba
00000250: adab 0139 1943 12bc 1045 a93a eecc 6eba
00000260: c385 18b9 5cb3 0fba d972 8b3a ce7b b8bc
00000270: 7ab9 a9ba 775c 85b9 dbb5 daba 3c09 96b9
00000280: 18e4 863a 8432 4fb9 e51b 243b 5a6d a039
00000290: e6eb f6b9 482e 163a a60e 403c 586f 1e39
000002a0: 4ae9 5cba 94ca e2b8 3008 0c3b 60d0 d039
000002b0: e92f 0039 4c88 32b8 1e97 833c e83d 51ba
000002c0: b035 893a 1d40 673a 28e6 c13a b97a 0f3a
000002d0: 6849 1e3a 7a50 e23b 6b2d 77b9 5bad 953a
000002e0: c22f 2239 74e0 a43a 7004 08ba 4064 cd39
000002f0: fe64 af3c 603d 0c37 c39a 7839 7d20 74b9
00000300: 367e 6039 f347 c33c 2274 9839 045e 22b9
00000310: 2994 5e3a 2d25 593a e7ba e3b9 876d f73c
00000320: ad33 5aba b4b6 baba 30f6 ecba 3a33 323c
00000330: d2e9 8039 9de4 61bc 372f 753a c46b c6bb
00000340: 0f3c 8439 4bf0 1d3a dfec 18ba 045c 1dba
00000350: a657 1eba fb53 f839 cf10 65bb 285c c2b9
00000360: 0090 ec39 78f6 2aba 7bad 9139 4f38 a03a
00000370: 0a14 b939 5f56 633a f60c 9fba 0c1a 95ba
00000380: 0e02 99b9 9ccc 17ba 9eb0 ba3a 4a6d 7538
00000390: 9bc7 123b db09 04ba 9ed8 81ba 2eb2 3739
000003a0: 6076 1cb9 2eee 863b efdf db39 e54e d0b9
000003b0: 3ac9 b33c 24be d5b9 1267 97b9 ee73 d33c
000003c0: 4050 053a d482 92ba 4f42 1c3a c317 1cbb
000003d0: 0611 833a 3ef3 08bb cc57 4039 660a aab9
000003e0: 550e 723a b618 ea37 10be 6dba c6db 80ba
000003f0: 990c 8e3a 2c38 c03a 25dd 19ba 82c0 873a
-0.0010119723 0.00022525736 -0.00045168912 -0.00097452995 0.02715573 0.0025596006 8.141612e-05 -0.0007151306
-0.00083230296 0.0010103148 -4.358538e-05 -0.00083682104 0.0009384441 0.007385908 -9.24208e-05 -0.001133986
3.707444e-05 0.032106012 -0.0051838364 -0.0012859443 -0.00019543275 -0.010204779 0.0020756666 0.001441811
-0.0020209844 -0.0008451053 0.002496777 -0.01873958 -0.0006539285 0.0011080238 -0.001640734 -0.0008573931
-0.0011121172 -0.00029946287 0.0032692156 0.00011976542 -0.0020924462 -0.00085063605 0.014662604 0.0027280762
0.0011694205 0.0010979072 -6.265144e-05 0.00029810533 0.00019910424 0.00031641516 0.020031944 -0.00044618157
0.0028661557 -0.00059350836 -8.3018116e-05 -0.00026387145 -0.0009551426 0.007323686 0.0010953767 0.0012636519
-0.00062543404 -3.387115e-05 0.0009944005 0.002082616 0.014859158 -0.008824057 -0.00014357266 -0.00013745205
0.00095205125 0.022865618 0.0022025553 -0.0088609345 -0.0009421887 0.00025252742 -0.0021538306 0.028694019
0.0006682157 -0.0018837571 -0.0022531343 0.0023035519 0.00067935226 -0.012559664 -0.0010661869 -0.010007335
0.0011743573 -0.0006357037 -0.0014984662 -0.005425804 -0.00039758976 0.00075360655 -0.0037647977 0.0005935214
-0.0009103104 0.0005850729 -0.0007866998 -0.0013429265 0.0023011903 -0.00069501344 -0.0033976394 -0.0014549907
0.0009569976 0.0007680934 0.0016881474 0.00012201729 0.004330191 -0.0010129897 0.00053092383 0.00054254016
-0.0006855458 0.004073476 0.0022480448 -0.00027647076 0.019295832 -0.0007212873 4.275213e-05 0.027982399
0.00075060077 -0.0017989511 -0.001674989 -0.002612643 0.002749909 -0.0008523177 0.0023569576 0.0011005838
-0.00060891325 0.0009419051 0.00047789558 -0.00023248098 -0.00049570523 -0.001238507 0.0011665788 0.00043263426
0.0004965496 -0.00060698803 4.3654254e-05 -0.00036048633 0.020129045 0.0006710061 -0.0001750823 -0.00020159275
0.00013031744 9.043842e-05 -0.00028228408 0.00057246926 -0.0009997869 0.007321811 0.00010570878 0.0006557326
0.008965519 0.02543588 -0.005253404 -0.0006195708 0.00012366353 -0.00892713 0.0012914259 -0.00091095164
-0.0001454568 -0.0005481744 0.0010639086 -0.022519972 -0.0012948953 -0.00025436628 -0.0016686277 -0.0002861711
0.0010291366 -0.00019759877 0.002504104 0.0003059905 -0.00047096534 0.00057289423 0.011722242 0.00015109533
-0.0008427097 -0.00010814253 0.0021367185 0.00039828103 0.00012224879 -4.2565443e-05 0.01606327 -0.0007981942
0.0010468271 0.00088215043 0.0014793323 0.0005473304 0.000603816 0.006906566 -0.00023572675 0.0011419462
0.00015467315 0.0012579099 -0.00051886495 0.0003917534 0.021410462 8.35894e-06 0.00023708776 -0.00023281756
0.00021409322 0.023838019 0.00029078225 -0.00015484547 0.00084907055 0.00082834327 -0.00043436067 0.030203594
-0.00083237403 -0.0014245124 -0.0018078741 0.010876471 0.00024588272 -0.013787416 0.0009353044 -0.006055327
0.0002522175 0.0006024881 -0.00058336364 -0.0006002786 -0.00060402823 0.00047364816 -0.0034952646 -0.00037071225
0.00045120716 -0.0006521712 0.00027785808 0.0012223813 0.0003530088 0.0008672233 -0.00121346 -0.001137556
-0.00029183965 -0.0005790682 0.001424331 5.8514335e-05 0.0022396806 -0.0005036869 -0.0009906476 0.00017518617
-0.00014921417 0.0041177487 0.0004193778 -0.00039731633 0.021946538 -0.00040768192 -0.00028877758 0.025812116
0.00050855055 -0.0011177906 0.00059608085 -0.0023817874 0.000999958 -0.0020896937 0.00018343254 -0.00032432674
0.0009233703 2.790648e-05 -0.0009069154 -0.0009831123 0.0010837495 0.0014665178 -0.000586944 0.0010357054

lstm.weight_hh_l1 f4 [512, 128]
00000000: f0b7 553b 73c9 ec39 6c06 6c3c 7887 c23b
00000010: 88e1 dc3b 84eb a5bb f72a 8bbb 9e45 593b
00000020: 28a4 8f3c 711d 9d3c 5179 fa3a 9e9d 053a
00000030: df2f 813b 45c8 80b9 d8a7 b23b 98de 883a
00000040: e222 223b 9468 cabb 98fc d0ba b861 72bc
00000050: 76f1 423a 5dd7 31bb cb49 84ba f658 873b
00000060: aa86 3bbb 9917 893b b661 0b3c 5132 96bc
00000070: 9641 083c bcea bd3b f820 75bc 5ce9 b1bc
00000080: eb9c ef3a a484 feb9 b70d d4bb 2670 353b
00000090: 8865 c7b9 86af 993c 1cec 00ba 7923 cb3b
000000a0: 4da4 9ebc 6a2a 8b3c f33d 473c 27b7 3bbc
000000b0: 1a4d babb 1395 14b9 1407 c4bb 04c7 5a3a
000000c0: 63ec a339 1bb5 9fba a2c8 b1ba 046a 3bbb
000000d0: 38b6 81bc bfca e1ba 49ab da3b 8fe3 e2ba
000000e0: e4fe 203c 7986 29bc ff83 e0bb 76a3 05bc
000000f0: 5d1f 5d3c 6b5c 23bc 642a c23b 0a3b 5b39
00000100: d8e1 fb38 6941 213b f1a0 8e3a 12cb d2bb
00000110: 6693 023c b88e 6f3b 931e 74ba 4578 64bb
00000120: b5a5 a03b 542d a23c 56d8 173c 6a20 b43c
00000130: 7ad5 cebb 013f 71bb c669 e9bb 4961 503a
00000140: bdde 663b b2a9 b63b 87f1 423c 1e64 093c
00000150: 3c64 32bc 4cb7 e0bb b540 adbb d720 413c
00000160: d643 09ba 0746 a83b 8b74 29bb 7a25 19bb
00000170: 6427 48bc 0e7e debb 73a7 86bb 1006 523b
00000180: b908 15bb 512c 82bb 564d df3a 2409 d9b9
00000190: dec1 29bb 4fdc 893b 6435 d03b ed15 9db9
000001a0: 00d2 bb3b 2609 213a f077 bbba 6010 113c
000001b0: 0d0f b6bb 5279 163c d4e1 7e3b 311b 2a3b
000001c0: bbf0 603c 9e29 833c b804 363b d035 cc3b
000001d0: 63cb 1abc 8aa0 2d39 9837 25bb 8a47 04bc
000001e0: 1897 733b 3ae8 8bbc 0ff4 303c b303 84bb
000001f0: dc02 85bb 5723 81ba 622c 503a bc4e a2bb
00000200: a837 663b 5245 88ba e6a7 673c 5018 c83a
00000210: 2b33 ed3b 77eb b6bb 3039 90ba a2bf 233b
00000220: fd3e 8c3c 1417 9a3c f9a7 9aba 03a4 b83a
00000230: e05f c73a 0c62 893a 1a37 f43a b87c b63a
00000240: 0837 873a f8ba 00bb 459a 9838 a56d 92bb
00000250: 8fd8 3138 26a0 3ab9 f6e0 8a3a e6dd 013b
00000260: 2ad2 17bb d0d3 993b b608 5739 d227 92bc
00000270: 9d15 d83a 006c 26b7 7354 71bc b2ab adbc
00000280: d53b 0a3b aec8 40ba 94af e2bb 5260 d339
00000290: b5bc a4b9 a64c 953c be58 11ba 7372 6b3b
000002a0: c433 9abc a8e7 883c bc71 5c3b 536a 3bbc
000002b0: 9179 a3ba 52c3 a3b8 7bde 2cbb 887b 2b38
000002c0: bbf6 853a 8072 c6b5 b934 80ba 4ba8 e6ba
000002d0: 90e3 7ebc fe0b 083a 3cb7 e63b 38c8 d836
000002e0: 74f5 a13a 0fb1 9abb 4f90 faba 6cf8 5fba
000002f0: f625 5d3c 4678 86bb cff7 0b3b af21 b9b7
00000300: b678 003b 3c5c f43a 93f5 a03a 3d6c adba
00000310: 889c 253b 0adb b33a 6978 b4ba 79a6 e5ba
00000320: 4cb7 b33b a24b 973b 31bd 593b e1a7 af3c
00000330: c1be 653a df48 eeba 92d3 8539 5d2d a43a
00000340: 4655 843a 3a1a 1a3b 0688 423c e916 823b
00000350: 28e9 8bbb d4e6 50ba 079e 0cb9 0aa7 403c
00000360: ade0 20b8 e83e 2a38 f6df 16ba ac32 f9ba
00000370: 530d 4abc aeb4 a4ba 8af6 03bb 4dd0 133a
00000380: c6e6 afb9 0674 2dba 72a9 003b b040 06b9
00000390: 2027 2eba 9e32 9d3b 8665 da3b c01d f3b8
000003a0: 9467 943b cec7 4e3a c211 7d3a ff20 733b
000003b0: 7a10 17ba 1fa8 8c3b fcb3 a13a 14b2 323a
000003c0: d970 5d3c fbe7 803c f322 3d3a 4484 80b9
000003d0: 33d1 0ebb 2d67 2338 c668 2639 01b4 11bb
000003e0: 90db df3a a56b 8bbc 3545 603b f863 7bb9
000003f0: 84b8 823a a3f8 3d3a 0586 42ba 051b d9ba
0.0032610856 0.0004516352 0.014405828 0.0059365593 0.0067407526 -0.005063476 -0.004247065 0.0033153067
0.01753433 0.019179078 0.0019109641 0.0005097034 0.0039424743 -0.00024563275 0.0054521374 0.0010442315
0.002474003 -0.0061770175 -0.001594442 -0.014793806 0.0007436493 -0.0027136423 -0.0010092793 0.004130478
-0.0028614202 0.0041837213 0.008507183 -0.01833454 0.008316418 0.005795805 -0.014961474 -0.02171772
0.0018281018 -0.0004854548 -0.0064713615 0.0027685254 -0.00038031884 0.018760454 -0.00049179955 0.006199297
-0.019365454 0.016987998 0.012160766 -0.011457241 -0.0056854608 -0.00014169914 -0.005982289 0.00083456957
0.00031265905 -0.0012184711 -0.0013563822 -0.0028597126 -0.015833959 -0.0017226561 0.006673251 -0.0017310249
0.009826396 -0.010347002 -0.0068516727 -0.008156648 0.013496247 -0.009970765 0.0059254635 0.00020907461
0.00012010679 0.0024605638 0.0010881705 -0.0064328993 0.007969713 0.0036553573 -0.0009312417 -0.0034861725
0.0049025663 0.019797005 0.009267887 0.021988112 -0.0063120695 -0.0036811235 -0.007123205 0.0007949067
0.0035227977 0.0055744285 0.011898405 0.008385686 -0.010888156 -0.006857788 -0.0052872547 0.011787615
-0.00052362436 0.005135301 -0.0025856819 -0.0023368285 -0.012216423 -0.0067899292 -0.004109317 0.003204707
-0.0022740795 -0.003972568 0.0017036598 -0.00041396276 -0.0025902907 0.004207171 0.006354021 -0.0002996171
0.005731821 0.0006143026 -0.0014302712 0.008854002 -0.0055559934 0.009184198 0.0038891928 0.0025956149
0.01372927 0.016011056 0.0027773809 0.006232001 -0.009447905 0.00016558371 -0.0025210138 -0.008073697
0.0037168916 -0.017078508 0.010800376 -0.0040287613 -0.0040591788 -0.0009852451 0.0007941184 -0.0049532335
0.0035128389 -0.0010396636 0.014139151 0.0015266035 0.0072387657 -0.005582269 -0.0011003371 0.0024986048
0.017119879 0.018809833 -0.0011799327 0.0014086965 0.0015211068 0.0010481491 0.0018632144 0.0013922667
0.0010316083 -0.0019642692 7.27666e-05 -0.004468637 4.2401774e-05 -0.00017798002 0.0010595608 0.00198161
-0.002316604 0.0046944395 0.00020507243 -0.017841253 0.0016485933 -9.919517e-06 -0.014729607 -0.021200035
0.0021092792 -0.00073541224 -0.006917903 0.0004031682 -0.00031421115 0.018225025 -0.00055445347 0.0035926371
-0.018823512 0.016712025 0.0033637127 -0.011438924 -0.0012472143 -7.808827e-05 -0.0026377726 4.0884624e-05
0.0010220626 -1.4785473e-06 -0.0009781338 -0.0017597763 -0.015557185 0.0005189775 0.007040886 6.46061e-06
0.0012356476 -0.004720814 -0.0019116494 -0.00085437926 0.01349782 -0.004103693 0.0021357422 -2.2069404e-05
0.00196032 0.0018643211 0.0012280218 -0.001323111 0.0025270302 0.0013721895 -0.0013768795 -0.0017520926
0.005484497 0.0046171704 0.003322434 0.021442356 0.0008764081 -0.0018179676 0.0002552537 0.0012525726
0.0010096214 0.0023514167 0.011873251 0.0039700163 -0.0042697378 -0.00079689664 -0.0001341031 0.011758575
-3.835622e-05 4.0589744e-05 -0.00057554187 -0.0019012294 -0.012332278 -0.0012566054 -0.0020135962 0.0005638644
-0.0003355054 -0.0006616715 0.0019632247 -0.00012803334 -0.00066434033 0.004797294 0.0066649346 -0.00011592684
0.004528949 0.00078880496 0.000965383 0.0037098525 -0.0005762648 0.0042925025 0.0012336965 0.0006816697
0.0135156745 0.015735617 0.00072149857 -0.00024512608 -0.0021792173 3.895832e-05 0.00015870025 -0.0022232535
0.0017078985 -0.017019102 0.0034220938 -0.00023974467 0.0009973203 0.00072468276 -0.0007420483 -0.0016563839

lstm.bias_ih_l1 f4 [512]
00000000: 0562 e9bc bac9 05bd 0967 aa3d a09b 523c
00000010: bd7e 393d 9a01 e53c 2f8c 00bd c385 f7bc
00000020: 19e3 c83d 09a6 ce3d 2e39 f0bc 515f b6bc
00000030: 280a 19bd df92 3abd 62c1 f7bc b03e b5bc
00000040: 30dd 7cbc efcd f0bc 0dea 2ebc e749 c9bc
00000050: 386d 8dbb c1a9 20bd 62d7 1cbd 1430 0bbd
00000060: 878e 01bd aa55 a33c 5258 a9bc c8af d03d
00000070: 4a60 bbbc 3036 28bc 106e ae3d 1888 ee3d
00000080: 729b 9ebc 035b c8bc e6a5 1b3d 7140 9bbc
00000090: b41f b7bb 2a09 d43d 95ec e8bb 36f8 a0bc
000000a0: 023f d93d 0278 bd3d 2a5f e7bc 9295 8d3d
000000b0: 5fd2 9abc f3b4 c9bb 7498 c1bc de20 95bb
000000c0: 28b6 8bbc a8f1 05bd b77f 2ebc f277 28bd
000000d0: 506a b53d 3000 2dbd b8b0 293d dbe4 94bb
000000e0: de8e a9bc 822d edbc eb52 523c 4e4c 84bc
000000f0: 6ee0 9d3d da29 bfbc eaea 27bd d339 10bc
00000100: 6bca f33b b25b 1bbd 286a 01bd 9ad1 b2bc
00000110: 17c9 b0bc dc52 d4bc 3683 70bc f2fc f8bc
00000120: f613 e43c 7c14 bbbc 7bf4 b4bc 60f2 f63d
00000130: 938d 73bc 2fd1 c0bc 4e23 70bc 2940 99bc
00000140: e096 cabc dc32 adbc 12b2 8f3d 36d2 e5bc
00000150: 45bb c8bc 3488 80bc f4ca 1fbc 327b 903d
00000160: 2d94 3fbc f2f7 18bc 99ff acbc e001 b4bc
00000170: fc52 973d f150 b2bc 9209 82bc 94b9 b0bc
00000180: fc9f e8bc 0b94 f5bb 015a a9bc 178d bdbb
00000190: 4337 adbc d83e b43c cc6d 0a3d ce4f c0bb
000001a0: 7498 04bd e8c1 a9bc fe94 f1bc ff8c 05bd
000001b0: 345d 88bc bb48 2cbd 6da6 b0bc 5618 01bc
000001c0: 94d6 a73d 589a bc3d 8ad1 05bd 9aac 4bbc
000001d0: 407a c7bc 16f5 0cbd 6e15 a8bb beed c3bc
000001e0: 99ee 6cbc ba22 aa3d f80f afbc 52b3 febc
000001f0: c9fb 7fbc e785 babc 5346 a0bc 551e cfbc
00000200: f909 bdbc 0a49 ccbc f790 e03d 3ce7 75bd
00000210: b76a 853d 5a3b 383d 7487 c0bc 168b edbc
00000220: 09a5 033e 9b2c 043e c933 acbc 0945 8abc
00000230: ecb8 edbc 04a3 13bd 74c2 d2bc 870f 92bc
00000240: e18c 4fbc 6c18 ccbc 29bc f3bb 268e c7bc
00000250: 9ede 76bc 4025 ddbc 0a92 e7bc 22af ebbc
00000260: de5c dfbc 438e 073d c0c3 87bc f6db 083e
00000270: 8107 92bc 8c69 3abc 82ba e53d bba8 1a3e
00000280: 67ea 41bc bdbf 90bc 8d58 6a3d d55e 63bc
00000290: c0fb 81bb 19f2 0a3e a401 9bbb 706a ebbc
000002a0: 225b 0e3e 077f f63d a298 dfbc 1f61 bd3d
000002b0: 291b 60bc 1698 91bc 9ba5 83bc e243 78bc
000002c0: f858 52bc bb37 f0bc 5df9 f9bb 19f7 12bd
000002d0: ee8f ee3d a5ba 14bd 1b39 783d fac5 84bc
000002e0: 592c 8bbc eaa9 aebc 5915 81bd 0899 5bbc
000002f0: c43d cf3d 8687 94bc af13 f9bc 3f60 9cbc
00000300: 5201 1ebd 550e 08bd f533 b3bc 783f 7ebc
00000310: 42cb 98bc dd44 b1bc 2b49 3abc 088e c7bc
00000320: d45d 373d 288f c8bc 7ce1 92bc 8e02 223e
00000330: 7ff9 46bc 83ff 8bbc 647e 4ebc 01c9 69bc
00000340: f505 8ebc 0fd3 94bc 89ec bf3d bdc3 e2bc
00000350: d2cc 9cbc 48e8 37bc 22f9 46bc 9e13 c13d
00000360: 57dd 9dbc a836 41bc f5c3 89bc 4823 93bc
00000370: e63c c83d 61e0 86bc 4b1b 5dbc b01c 85bc
00000380: 5d27 b7bc e05a cabb db0f 5abc 7cfa 76bc
00000390: 14d7 7bbc dd17 193d 47fe 503d da20 86bc
000003a0: 06eb ebbc 997a 8fbc d7ac b0bc be1e f8bc
000003b0: f791 58bc d557 2abd 91ab 86bc c5e1 bcbb
000003c0: 7e94 dd3d fdc1 f73d 44f2 c8bc 03f0 5bbc
000003d0: 835d 9cbc b184 dfbc 61ed 6dbc 9f9a 7dbc
000003e0: 80a7 4dbc c801 d13d dfac a3bc bad0 c2bc
000003f0: 3278 40bc 6f6a 87bc f9fa 68bc 3209 adbc
-0.028489122 -0.032663085 0.08320434 0.012854487 0.045286883 0.027954865 -0.03138369 -0.03021515
0.098089404 0.100902624 -0.02932414 -0.022262247 -0.0373632 -0.045550223 -0.03024358 -0.022124618
-0.015433595 -0.029395072 -0.010675919 -0.024571372 -0.0043159984 -0.03922439 -0.038291343 -0.033981398
-0.031630065 0.019938309 -0.020671997 0.101897776 -0.022873063 -0.010266826 0.085170865 0.116470516
-0.019361231 -0.02445746 0.03800001 -0.018951626 -0.005588496 0.103533104 -0.007108281 -0.019649606
0.10607721 0.09251405 -0.02824362 0.06913294 -0.01889914 -0.006155604 -0.023632266 -0.004551037
-0.017054632 -0.032701164 -0.010650567 -0.041130014 0.08858168 -0.042236507 0.041428298 -0.0045438833
-0.020698007 -0.028952364 0.012837152 -0.016149666 0.07708822 -0.023335386 -0.040995516 -0.008802849
0.0074399016 -0.037929244 -0.03159538 -0.021828461 -0.021580262 -0.025918417 -0.014679721 -0.030394051
0.02784155 -0.022836916 -0.022089234 0.12057948 -0.014865297 -0.023537247 -0.014656855 -0.018707352
-0.024730146 -0.021142416 0.07016386 -0.028054338 -0.02450336 -0.015689947 -0.009752978 0.07054748
-0.011693043 -0.0093364585 -0.021117972 -0.02197355 0.07388875 -0.021767111 -0.015873704 -0.021572866
-0.028396599 -0.0074944547 -0.0206728 -0.0057846415 -0.021144515 0.022002622 0.033796117 -0.0058688885
-0.032371953 -0.020722345 -0.02948999 -0.032605167 -0.016646005 -0.04206155 -0.021563733 -0.007879337
0.081952244 0.09209126 -0.032670535 -0.012431288 -0.024350286 -0.03441342 -0.0051295077 -0.023917075
-0.014461183 0.08307405 -0.02136992 -0.031091366 -0.015623995 -0.022768928 -0.019564783 -0.025283018
-0.023076044 -0.024937171 0.1096515 -0.060034975 0.06514495 0.044978477 -0.02350209 -0.028996985
0.12855925 0.1290764 -0.021020787 -0.016878622 -0.029018842 -0.036044136 -0.025727488 -0.01782967
-0.0126678655 -0.024913989 -0.007438202 -0.024359774 -0.0150677245 -0.026995301 -0.028267879 -0.028770033
-0.027265962 0.033094656 -0.016572833 0.13365158 -0.017825844 -0.011377703 0.11217214 0.15103428
-0.011835671 -0.017669553 0.057213355 -0.01387759 -0.0039667785 0.13568915 -0.00473042 -0.028737277
0.13901952 0.12035947 -0.02729446 0.0924704 -0.0136783505 -0.017772716 -0.016070178 -0.015152903
-0.012838595 -0.02932345 -0.0076286034 -0.035880182 0.11648546 -0.03631081 0.060601335 -0.016207684
-0.01698892 -0.021321256 -0.063029 -0.013403185 0.10119203 -0.018131029 -0.030404894 -0.019088862
-0.038575478 -0.033216793 -0.021875361 -0.015518062 -0.018651608 -0.021639282 -0.011369984 -0.024359718
0.044767216 -0.024482325 -0.017929785 0.15821287 -0.012144445 -0.01708961 -0.012603376 -0.0142691145
-0.017336825 -0.018167047 0.093712874 -0.027681226 -0.019140635 -0.011224814 -0.012144359 0.0942757
-0.019270582 -0.011792816 -0.016817072 -0.01796116 0.097772405 -0.016464414 -0.013495277 -0.01624903
-0.022357637 -0.006175384 -0.013309444 -0.015074369 -0.015371103 0.037376273 0.051023748 -0.016373087
-0.028798591 -0.017514514 -0.021566791 -0.030288097 -0.0132183945 -0.04158767 -0.016439231 -0.0057642185
0.10819338 0.12097547 -0.024529584 -0.0134239225 -0.019087559 -0.027284952 -0.014521928 -0.015478759
-0.012552142 0.10205418 -0.019979892 -0.02378117 -0.011747407 -0.016530244 -0.014219993 -0.021122549
