model0.pt (torch, 550135 bytes, 17 tensors)

conv1.weight f4 [10, 1, 15, 3]
00000000: ffbd 22bd 4482 b83e 3e3b babe 458a e13d
00000010: bfee 963e f806 8cbe 4e2c 5e3d bc3e 933e
00000020: 4acb 8cbe c167 933e 4518 bebd 371f 87be
00000030: 55a7 dc3c 7561 f43d ed4c 33be dfdb 4e3e
00000040: 8fe6 7a3e 75c5 5dbe 76c2 11be 243c 043e
00000050: ae98 6fbe b6db 2abc 0b41 c23d 9ed3 86bb
00000060: a225 1cbe 2acb b0bd 37a0 d53d ebab 6dbe
00000070: 6285 b13d 3ea8 bf3d 1bb7 283e ffa5 263e
00000080: 4291 11be fbfd 0ebe eb43 28be 05d7 0c3d
00000090: 9de7 103d 2235 4dbe a429 673e 653a ac3d
000000a0: d735 f9be 9e8b b83e e7ae c43d b45d 693d
000000b0: 09e3 30be 7676 57be 72fe 3abe 23ea 28be
000000c0: 6786 3f3e e7d4 003d 5a3b 24be b9d4 383c
000000d0: b261 fbbc 30d8 9b3d f045 ae3c fc48 a3bd
000000e0: d359 673b 14f8 17be d5d4 37be 1a98 bcbd
000000f0: b13a 22be 13c8 f0bd e1db 3b3d 405f 2c3c
00000100: 7e9a 70bc a0d4 623e 0489 c9bd 6cb3 41be
00000110: 07ad 753d decc 6dbe e3a7 dfbd 5097 063e
00000120: 09a9 3dbd ccd1 9fbd 31b8 4abc e39d 8e3e
00000130: 8ae8 a43d a36d 143c 9657 fa3c a72a 8cbc
00000140: ddcd d1bd eed1 efbd 13a5 42be 1159 3f3d
00000150: be73 d33e 22ea 593e 5fc0 e73e 1f62 1c3f
00000160: 459c 4b3e 112d e73e 43e4 af3e 5b7e 953e
00000170: c668 ae3e ea5c 4dbe 3084 a2bd 5a49 dbbd
00000180: 658a 8ebe af62 07be f4b0 abbc 1934 0cbd
00000190: d16e 66bd 7364 72be 2eb1 c83c 30f3 80bc
000001a0: d0f9 85be 5a34 46be d7df 9fbe be29 82be
000001b0: c005 bc3d 3edd 333e dbe0 493d ff3d 143d
000001c0: cb6e 4d3e 92e4 9a3e 7a10 253c 8fd9 bc3d
000001d0: 1185 3d3e f544 c53d 61e8 a6bd a616 bc3b
000001e0: c983 ebbd 75ce 9cbd 459a 8ebe 44c6 d53d
000001f0: d032 003e 4ee5 633d 0d92 7e3d e448 baba
00000200: e05b 963c 149b 45bc 0dcc ddbd 1cb7 9abd
00000210: b286 613e 7bb6 153e 8a95 a9bc a932 023e
00000220: 118c b33d 04d1 4a3d c7c2 07bd 1c22 ac3d
00000230: dfb0 a33c b4f1 52be cf4a 65be 9d7f 97be
00000240: eace 883e 1f62 243e 18df b0bc f1d0 5a3e
00000250: d04c e43d a7bc c33d 0302 2c3e a26d cc3d
00000260: f590 163e 9fb8 c9be eda2 77be 8ac9 71be
00000270: dad9 e63d 2cab b93b cc92 77bd c7be 543e
00000280: 7220 c33d af8f 24be ebd8 b63c 986a 6f3e
00000290: 3e1c 95bd 3ee0 c1be c3df 833d 48fe 54be
000002a0: 8848 3d3e c1f4 4a3e 169a 23be f270 0c3e
000002b0: 56e1 ccbb 3913 cb3d fc77 af3d 9dc0 8bbe
000002c0: 351b 8e3e 6c49 ab3e cbc4 7cbe 6d80 eabd
000002d0: 160d 6cbc b634 dd3c 8447 343e b0be 23be
000002e0: 12e4 923c b8a9 313d f568 30be c178 463c
000002f0: 444e 8cbd 6fd3 83be 8473 01be c3d4 28be
00000300: 94b6 1f3d 85be 053e 21a0 563e 25a8 863e
00000310: 27ab 463e 1203 d63e 2069 b63e 5b0f 853e
00000320: 6fa0 093f 813e 22be f911 48be ae8e cebd
00000330: ded2 b5be 3a37 48be 7bca a6be 2ac8 febd
00000340: 347d 29be c3f7 04be b904 32be 8163 79bc
00000350: 9c8e 2abc 29bf 08be 70f2 6ebd 1cd2 fe3c
00000360: f78d 18bd a2e3 82bd 38fd b2bd 1edf 18be
00000370: 6dbd 7cbd 4a22 a6bd 6ac3 9ebc ca26 ae3c
00000380: 50a0 e23c 073f 393e 6250 dc3b 88f7 edbc
00000390: dab4 393e 93bf e63d 4d8f 213c 9684 86bd
000003a0: d2d4 0bbe 749a 43be e42a c7bd 12eb 4ebd
000003b0: 3e8f 32be b0f8 87bd 1a75 d3bd 4a19 08be
000003c0: 80f3 3c3d 4778 993c 18dd edbd 3691 4e3d
000003d0: 5cf4 e93b 6ea0 fbbd 495a 62be c410 52be
000003e0: 17dc 66be bd16 56be dcb4 4ebe 9700 22be
000003f0: 70a8 09bb 2202 b9bb 083e c73b 74ff f9bb
-0.039731976 0.36036885 -0.36373323 0.11012701 0.29479024 -0.27349067 0.05424147 0.287588
-0.27498847 0.28790095 -0.09281973 -0.26391003 0.026935259 0.11932651 -0.17509814 0.20201062
0.24502014 -0.21657355 -0.14234337 0.12913567 -0.23398086 -0.01042836 0.09485062 -0.004114582
-0.15248731 -0.086325005 0.10430949 -0.23210113 0.08668019 0.093582615 0.16476099 0.1627426
-0.14215568 -0.13964073 -0.16432159 0.034384746 0.035377134 -0.200398 0.22574478 0.084095754
-0.4867389 0.3604402 0.096036725 0.056974128 -0.17274107 -0.21041283 -0.18261126 -0.16495566
0.18703614 0.03145304 -0.16038266 0.011281186 -0.030686233 0.07609594 0.021273583 -0.07972905
0.0035301342 -0.14840728 -0.17952283 -0.092086986 -0.15842701 -0.11756911 0.04586399 0.010520756
-0.014685271 0.22151423 -0.09840587 -0.189161 0.059979465 -0.23222682 -0.10920694 0.13143659
-0.046303783 -0.078036875 -0.012373016 0.27854833 0.08052166 0.009059343 0.030559342 -0.017110182
-0.102443434 -0.11709963 -0.19008283 0.0467158 0.41299242 0.21280721 0.45263955 0.6108722
0.19883831 0.4515157 0.34353837 0.29197964 0.3406431 -0.20054975 -0.07935369 -0.1070735
-0.27839962 -0.13221239 -0.020958401 -0.03422937 -0.056258027 -0.23671131 0.024498548 -0.01574096
-0.26167154 -0.19355908 -0.31225464 -0.25422472 0.09180784 0.17564866 0.049286705 0.036191937
0.20061795 0.3025251 0.010074729 0.092211835 0.18507792 0.09632293 -0.081497915 0.0057400046
-0.114997454 -0.07656566 -0.27852073 0.10438207 0.12519383 0.055638604 0.062151004 -0.0014212397
0.018354356 -0.012060899 -0.10829935 -0.075544566 0.22024038 0.14620392 -0.020701189 0.12714638
0.0876695 0.04951574 -0.03314474 0.08404943 0.0199818 -0.20600015 -0.22391818 -0.2958955
0.26720363 0.16053055 -0.021590754 0.21368767 0.11147463 0.09557467 0.16797642 0.09981848
0.14703734 -0.39398667 -0.24183245 -0.23612037 0.11272021 0.005666157 -0.06044273 0.20775901
0.09527673 -0.16070436 0.022320231 0.23380506 -0.072807774 -0.37866396 0.064391635 -0.20800126
0.184847 0.19819929 -0.15976748 0.1371496 -0.006252448 0.09915776 0.08567807 -0.2729539
0.27755132 0.33454454 -0.24684446 -0.114502765 -0.014407417 0.027002674 0.17605406 -0.1599071
0.017931018 0.043374747 -0.17227538 0.012113751 -0.068508655 -0.2574725 -0.12641722 -0.16487412
0.03899248 0.13060959 0.20959522 0.2630016 0.19401227 0.41799217 0.3562708 0.25988278
0.5376043 -0.15844156 -0.19538106 -0.10085808 -0.3551244 -0.19552317 -0.32576355 -0.12440522
-0.16551667 -0.12985139 -0.17384614 -0.0152214775 -0.010409977 -0.13354172 -0.058336675 0.031106047
-0.037244763 -0.06391074 -0.08739704 -0.14928862 -0.061704088 -0.08112009 -0.01938029 0.02125873
0.027664334 0.1809045 0.0067234496 -0.029048696 0.18135396 0.11267009 0.009860826 -0.065682575
-0.13655403 -0.19101888 -0.097249776 -0.05051715 -0.17437455 -0.0663923 -0.1032507 -0.13290897
0.046130657 0.01873411 -0.11614436 0.050431453 0.0071397256 -0.12286459 -0.22104754 -0.20514208
-0.22544895 -0.20907111 -0.2018618 -0.15820538 -0.0021004938 -0.005646006 0.0060803927 -0.0076293293

conv1.bias f4 [10]
00000000: 7d8a 293a eb4b 00b9 86e7 16b9 083b 393a
00000010: 2877 6aba 22df 0038 6270 84b8 658d 113a
00000020: f951 c339 c4c8 aa3a
0.0006467475 -0.00012235313 -0.00014391364 0.0007065986 -0.0008944147 3.0725387e-05 -6.3151834e-05 0.00055523805
0.00037254373 0.0013029804

bn1.weight f4 [10]
00000000: a6ba 2e3f 62c4 6f3f 4985 123f 5feb 213f
00000010: 4fc8 513f 429f 093f 9092 cc3e adc8 683f
00000020: 4917 163f 5a44 4b3f
0.6825355 0.9365903 0.57234627 0.6324977 0.8194627 0.53758633 0.39955568 0.90931207
0.5862928 0.7940117

bn1.bias f4 [10]
00000000: ea53 89be 705e ebbe 938c 4ebe 3966 b8be
00000010: 60c5 94bd 485d 86be 202d a4be f523 ccbe
00000020: c8bc debe ebbb f0be
-0.26821834 -0.45970488 -0.20170812 -0.3601549 -0.07264209 -0.26243043 -0.32065678 -0.39871183
-0.43503404 -0.4701837

bn1.running_mean f4 [10]
00000000: 4535 5abc 61ca 9f3e 6d41 553c c9c1 123e
00000010: 7496 a6be 52f9 77bf 29e8 70bf 9965 2a3e
00000020: 7c43 823e 0b40 933f
-0.0133183645 0.3120909 0.013016087 0.14331736 -0.32536662 -0.9686481 -0.9410425 0.16640319
0.25442111 1.1503919

bn1.running_var f4 [10]
00000000: da63 9d3c 56ae 0c3e 85c5 c43d 3e2f d63c
00000010: b230 393e cd4b 163e 531c 0a3e 9bb8 403d
00000020: 65c5 a03d f93a a83e
0.019212652 0.13738379 0.09607986 0.026145574 0.18084982 0.14677353 0.13487367 0.047051053
0.0785015 0.32857493

conv2.weight f4 [20, 10, 3, 3]
00000000: e779 573d c36c 0cbe 12ad d23d abec 903d
00000010: a771 0bbe 70d8 5d3c c5af a4bc 0ea7 03be
00000020: 9854 af3d 620e a23d 36a8 cfbd de72 1abe
00000030: 6ef4 d9bb aca5 10be e581 8cbe 754a 823d
00000040: 1cfd 48be e986 a4be 3afc 093e 1b43 b73b
00000050: a27e f4bd a549 1e3e 4fc3 ff3d bb0d 963d
00000060: db2a a13d 8feb c6bd b5f9 05be 5253 c1bd
00000070: d34c 1ebe 80a6 b9bd 7d7b 083d e155 9abd
00000080: 7b9b 113d 55df 9d3c eca9 d4bb e04b 3a3c
00000090: 2fc3 403e ee8d 4f3e 2048 b13c 0e89 d13d
000000a0: 1609 493d 3218 71be acc0 d13d a3f7 9f3d
000000b0: 671f 023c 4efd c7bd af83 ecbd b951 8dbd
000000c0: 6058 05be cade e9bd 1255 ccbd f3bc e93c
000000d0: bffd 05bc c741 ab3a 34ae 17bd 2c47 053c
000000e0: e264 003c ddda cabd 6a63 96bd 49a3 22bd
000000f0: 98a8 08be 9509 d8bd f625 3ebd e032 50be
00000100: fcc1 e13d b127 11be ad12 8dbe 8199 44be
00000110: b513 4ebe 1902 73bd 3910 85be f6b2 9bbe
00000120: 6ebe 113e 1448 2d3d bb93 a1bc 02f1 333d
00000130: 1921 1abd 68d1 3cbd e0fd d9bc 317d cebd
00000140: c18e 2fbe db35 ea3d 0ee1 4a3d 0add c2bc
00000150: 2bc1 79bd 10d1 fabd a7f6 bdbd 7e75 9abd
00000160: cc57 bdbd b7f3 4bbe 1f1e ff3d 3b0f fe3d
00000170: f557 9cbd d564 99bd f1ff 073e 203f dc3d
00000180: b55a 21bc 27ad 5a3d a5ab c6bd bae1 c83d
00000190: b691 39bd 4a36 8fbe 88e2 773e a307 b23b
000001a0: 4cdc 81bd 2efb 72bc c393 e53c b1ca 6f3d
000001b0: 90c0 853d b5ea e8bd 4a83 4fbe 29d4 b33e
000001c0: c0cd d23d e80d e53c 03a4 473e 1e8b 1f3e
000001d0: 749b c63d 378d 9abd c2e8 9fbd 55a9 cb3c
000001e0: 45c9 b43c 4d46 0ebd b1b6 5abd 532f 5f3e
000001f0: e4a0 643e 9f0b eabd 5c7b 18be 3931 d2bd
00000200: 0a5f 05be 853b b3bd c9c1 b3bd 5348 79be
00000210: a2e3 cb3d 0633 993c 013c 7fbd 2378 913d
00000220: 4475 003e 734d 873d 3848 633d 8f06 e73d
00000230: 904b 063e 5cff 11bd edd2 13bd e2ed 08bd
00000240: f787 0bbc d1cf 12bc 99e7 f33b f9fb 4fbc
00000250: c015 d8bb f49b 23bc b741 48bd 55da 87bc
00000260: 2921 db3a d877 ffbe f727 bcbd 371f 5fbd
00000270: 60ab 173c 1b46 843d 5326 64bd aa68 2c3d
00000280: 2e0c de3d e77c 9dbd 0c75 85bc aa55 25bd
00000290: 32da 92ba 001b babb 0008 79bd 02e6 0ebc
000002a0: f84b 26be fa09 59be 592c 78be 38da 8dbd
000002b0: a11a 1ebc 3d98 b33b 2803 2fbe 6e23 c2bd
000002c0: b72a 98bd f384 66be c874 81be 6831 91be
000002d0: a19d 06be 75c8 5c3b 90ff a13e 31ea 683d
000002e0: d8e2 153d 6dee 013c bfed ef3c 1dc2 093e
000002f0: 822f b63d 9b72 28be 9cda 05be d16d 44be
00000300: 4e34 353d 5cdb 223c 2f1d 83bd 73d9 f5ba
00000310: cefe 2bbe d564 38be 15dc 0b3d e13b a93c
00000320: 74d7 61be a0bf f03d 455f 8f3c 719b 24be
00000330: a2fb 563e 773b ee3d 5658 c5bd d765 b23d
00000340: 9d94 febd 137e 2e3e 4180 593e af6f 403e
00000350: 6502 20bd 84c9 61bd 887b ad3d 6ae6 9e3d
00000360: e8f8 1c3e 62d5 423d 76d5 85be 9a00 cd3a
00000370: 6fde 773c cf8e 66be dbd0 29be 22aa 23be
00000380: aff4 47be e0ed 36be 5588 e8bd 001e a6bd
00000390: 9b27 f23b 0d26 923d 0945 a23c 932f ff3d
000003a0: 3976 213d 7cc1 c4bb 2d0a 6cbd f4e5 67bd
000003b0: 07ea 3cbd 36f9 6cbd b691 9fbd 4397 63bd
000003c0: 098d a53d 02e3 1d3d d734 5d3d 9fe1 063d
000003d0: dd26 4abe bb2c 4b3e d9eb 973d 624e ee3d
000003e0: d0fd 66be fe08 31be 0719 0d3e c9a4 a93e
000003f0: 4646 e63d 748f 083c 8904 a53c 9c01 8a3b
0.05260649 -0.13713364 0.10286917 0.07076391 -0.13617574 0.013540372 -0.020103345 -0.12856695
0.08561057 0.079128996 -0.101395056 -0.15082881 -0.0066514527 -0.14125699 -0.27442852 0.06361858
-0.19627804 -0.32134178 0.13475123 0.0055927164 -0.11938216 0.1545778 0.12488424 0.07326838
0.07869502 -0.09712898 -0.13083537 -0.0943972 -0.15458994 -0.090649605 0.033320893 -0.07535911
0.03554867 0.019271532 -0.006489983 0.011370629 0.18824457 0.20268986 0.021640837 0.10231219
0.04908093 -0.23544386 0.10241827 0.07810905 0.007942057 -0.09765111 -0.11548554 -0.06900353
-0.13021994 -0.11419447 -0.099771634 0.02853248 -0.008178174 0.0013065868 -0.037031367 0.0081346445
0.007836552 -0.09905026 -0.073431805 -0.039706502 -0.13345563 -0.105487026 -0.04642292 -0.20331907
0.11023328 -0.14175297 -0.2755331 -0.19199182 -0.20124705 -0.059328172 -0.2598894 -0.30409974
0.142328 0.042305067 -0.019723764 0.043931015 -0.03762922 -0.046098143 -0.026610315 -0.10082472
-0.171443 0.11436053 0.049531035 -0.02378704 -0.060975235 -0.12246907 -0.09275561 -0.07541941
-0.092452615 -0.19917189 0.12456917 0.12405249 -0.07633964 -0.07489935 0.13281228 0.10754228
-0.009848286 0.053387787 -0.09700707 0.09808679 -0.045304976 -0.27971107 0.24207509 0.0054330393
-0.063408464 -0.014830394 0.02802456 0.05854291 0.06530869 -0.11372892 -0.20264927 0.35122803
0.1029315 0.027960733 0.1949616 0.15580413 0.09697619 -0.07546466 -0.07808067 0.024861017
0.022068629 -0.034735013 -0.053396884 0.21795397 0.22327 -0.11427998 -0.14890808 -0.10263295
-0.13024536 -0.08751587 -0.08777196 -0.24343996 0.09955527 0.018701088 -0.062313084 0.071029924
0.12544733 0.06606569 0.055488795 0.11280548 0.13114762 -0.03564392 -0.036089826 -0.033429988
-0.008516303 -0.00896068 0.00744338 -0.012694352 -0.0065943897 -0.009985913 -0.048890796 -0.016583601
0.0016718257 -0.4989612 -0.0918731 -0.05447313 0.009257168 0.06458684 -0.05570061 0.042092003
0.10842167 -0.07689839 -0.016291164 -0.0403649 -0.0011203943 -0.005679488 -0.060798645 -0.00872183
-0.16239917 -0.21195212 -0.24235667 -0.069263875 -0.0096499035 0.0054807947 -0.17091048 -0.09479414
-0.07430022 -0.22511654 -0.2528441 -0.28358006 -0.13146068 0.0033688818 0.3164029 0.056863967
0.03659329 0.00793038 0.02928817 0.13452955 0.0889578 -0.16449969 -0.13071674 -0.19182517
0.044239335 0.009939995 -0.06402051 -0.0018756822 -0.16796419 -0.18007214 0.034145433 0.020658435
-0.22054845 0.117552996 0.017501483 -0.16074921 0.20994428 0.11632436 -0.09635989 0.08710831
-0.124306895 0.17040281 0.21240331 0.18792604 -0.039064784 -0.05512382 0.08470827 0.07758792
0.15329325 0.04756678 -0.2613942 0.0015640438 0.015128716 -0.22515415 -0.16583578 -0.1598287
-0.19526933 -0.1786418 -0.11354128 -0.08111191 0.0073899752 0.07136164 0.01980831 0.12460246
0.039419387 -0.0060045104 -0.057626892 -0.056615785 -0.046121623 -0.057854854 -0.07791464 -0.055564176
0.08083541 0.03854657 0.05400547 0.032930013 -0.19741388 0.19841282 0.07418031 0.11636044
-0.2255776 -0.17288586 0.13779078 0.33133534 0.11243872 0.008334983 0.020143764 0.0042116176

conv2.bias f4 [20]
00000000: dcbe 9c37 486a 4cb7 5df0 d538 b318 23b8
00000010: a893 19b9 8705 8d37 ba62 2a39 d010 00b9
00000020: 08ec be38 d83c 4b39 1a96 7039 6d4c 2238
00000030: c420 7e39 5933 9239 022e 4a38 ff39 e538
00000040: 0bbd 3338 e682 0bb9 cc0b 1839 3f59 0bb9
1.8685525e-05 -1.2184093e-05 0.000102014026 -3.888523e-05 -0.00014646223 1.6811084e-05 0.00016249242 -0.00012213294
9.10387e-05 0.00019382255 0.00022944101 3.8694987e-05 0.00024235534 0.00027885547 4.82034e-05 0.000109303735
4.2852986e-05 -0.00013304836 0.00014500244 -0.0001328932

bn2.weight f4 [20]
00000000: 27d0 093f 1639 b03e 5471 f93e e5c2 003f
00000010: fba6 033f 20d9 e13e 5479 ca3e 6216 db3e
00000020: a435 043f 60dc c13e 3af2 e63e 6638 e23e
00000030: bf42 fd3e c546 bc3e a2a1 d73e 890e eb3e
00000040: 14a1 d33e 41fb 9f3e 6671 bc3e d3b2 093f
0.5383324 0.34418553 0.48719275 0.50297385 0.51426667 0.44110966 0.3954569 0.42790514
0.5164435 0.37863445 0.4510668 0.44183654 0.49464986 0.36772743 0.42115504 0.45909527
0.4133383 0.3124638 0.36805266 0.5378849

bn2.bias f4 [20]
00000000: 4e35 96be f2c6 11be bba9 acbe 38b2 93be
00000010: 2c1a b2be 7b6d 7dbe 2eff 94be d291 31bf
00000020: d5f8 8cbe e322 5abe f652 bfbe 23ff 70be
00000030: 3516 47be ae24 4bbe 647d 1fbf 6e2e 99be
00000040: 83b5 a4be cddd b7be c1c6 82be 6ee0 9cbe
-0.29337543 -0.14236048 -0.33723244 -0.28846908 -0.34785593 -0.24748795 -0.29100937 -0.6936313
-0.27533594 -0.2130237 -0.37367982 -0.23534827 -0.19442065 -0.19838211 -0.62300706 -0.29918236
-0.32169732 -0.35911408 -0.25542262 -0.30639976

bn2.running_mean f4 [20]
00000000: 2478 42bf b9da 1abf 420b 2cbf 3d33 893e
00000010: 4a63 70bf 8ab9 933c 925e 1bbf 5cee dbbe
00000020: 8982 37bf f54c acbe 8787 4cbf 992c d6be
00000030: 11bd d1be 5a58 b0be 828a c6be ef94 4cbe
00000040: d7f6 98bd 448d 5c3d 92d7 083e 5ce3 62bf
-0.7596457 -0.60489994 -0.6720468 0.26796904 -0.93901503 0.018032808 -0.6069118 -0.4295529
-0.71683556 -0.33652464 -0.798943 -0.418309 -0.4096456 -0.34442407 -0.38777548 -0.19978689
-0.07468956 0.05384566 0.13363484 -0.8862817

bn2.running_var f4 [20]
00000000: 7538 1a3f a7f7 113f 4bda 0d3f 3d26 583f
00000010: a2ef 2f3f f8d0 033f 34ea f63e 88b6 aa3e
00000020: 4070 2e3f b58d 113f ecff 2e3f 3166 fa3e
00000030: 4b1c 033f 1671 fd3e 8310 a13e 3cde 303f
00000040: 61ec 193f 430c 9b3e 8278 1d3f 2a3e 0e3f
0.60242397 0.5701851 0.55411214 0.84433347 0.68725026 0.51490736 0.48225558 0.33342385
0.6814003 0.5685685 0.68359256 0.4890609 0.51215047 0.4950034 0.3145791 0.690891
0.6012631 0.30282792 0.61512005 0.55563605

fc1.weight f4 [256, 400]
00000000: 5bce ba14 b308 4a10 fc74 1691 cf21 9f90
00000010: d07f 1691 4fc4 ceaf 8269 512d 3e91 412f
00000020: ee6b 70b4 0d38 ab30 513d a3a0 8dbb 9926
00000030: 7415 b59e f448 f09a 2f6e a9b0 7a73 b0b1
00000040: 73b7 d01a 4890 5b12 542e d3b1 4bbc dbad
00000050: a555 ec91 d178 1c1f 9fd6 42ab df87 8ca4
00000060: 0368 72b4 3506 8322 9777 b710 a7bb 1b1f
00000070: 7233 0eb6 4f5e 0fb2 91be d9b4 5b8e 03b5
00000080: 8ffa 44b0 3d92 05b3 7c0f d6b5 b5dd ddb2
00000090: 150b 6333 fdfe 4d34 63ad c4b6 aa63 9936
000000a0: f494 b9a9 1652 9a98 92ea 0e8e aafe 8f90
000000b0: 1e7f 2d10 4e2e 45b5 a63d e2b1 72d7 82b0
000000c0: 5d34 8da4 9415 deac ec32 632e 9fa5 21b0
000000d0: 8644 0baf d7ff feaf ef1c b8b1 4ed7 1ab0
000000e0: 533f 0525 1b16 b0ab 6b1e 1eaa f54c 021e
000000f0: 759c 6db4 418d 32b5 0bdf f12f b2cc 3b36
00000100: c27a d631 6d09 8d15 567b e42e 98e8 4ab6
00000110: 39f0 e4b4 cfd1 c2b7 baf3 a491 d2f8 3c95
00000120: 89f4 af1f 0939 8cb0 b794 8bab 2e77 e310
00000130: acb2 8117 81d7 5513 4cec 90ab d6cf 0ab3
00000140: 879b b315 87c3 6711 15c0 a4a1 d8c0 c917
00000150: 962c 60ab 067a 3fa3 9aab df10 fa96 bd10
00000160: 6592 0b10 e90d f190 7fc2 11ae 0b66 18b5
00000170: 43af fe2c a85b 93ac 3e96 93b6 1633 972a
00000180: eea1 a92c 9bbb 5fb1 6ea4 a21e 228d 4cab
00000190: 9f25 ad90 2ac0 4ea7 1891 0f94 4b9c 3eac
000001a0: c07a caa7 be18 ebb4 d456 f0ac a16c fca5
000001b0: 12b1 11ad 7e83 d320 657d 33ab 5419 199e
000001c0: c023 f0a9 c4eb 8db2 89a2 2aae a733 10b3
000001d0: fefc a9b7 cb65 45b7 bb12 10a6 b7e4 2728
000001e0: dcae 778f c2cd 0010 64fd 8590 a1f0 2f8e
000001f0: 4086 7c0e e734 5f10 078e 0d92 e800 1511
00000200: 6853 d390 b560 05a6 98a3 b81c d03a bfac
00000210: ec8e bcad 75cd c01d f5f0 36b0 8738 82ad
00000220: 16c3 90ab c3d6 3e1e 6e30 8fa8 78fb 0ca1
00000230: e605 4bb6 2f09 9430 89bd d5b4 9110 71b1
00000240: 98b4 2792 7c1f de2a 9dcd 9fb7 8019 5eb9
00000250: 32fa dfb6 72ca 1bb0 cde6 0f8f b1bb 6b25
00000260: a592 a92b f1e3 a495 518e e9ac 3041 6898
00000270: 1b0f 66a7 fffc dfa5 2a3d 5812 9710 c08e
00000280: 99c7 e2b0 74fc 652f 22b2 c5b6 19cf 36b6
00000290: 9e3f b22e 1bab ac31 571b a52d 868f 13b7
000002a0: ef67 5cb6 1f76 df34 f7f4 cc90 40a7 9e10
000002b0: 36a9 1010 ffcf d194 4ee0 27ab f4c1 4310
000002c0: ddb3 7310 82db c690 8c7e 4f16 b41c 68a8
000002d0: 6b11 bd8f 0623 4c20 e892 df94 54eb ec0e
000002e0: 9880 2910 2f21 12aa 9f0a 2d13 9821 e212
000002f0: 400a cd25 e0ac c2a6 c4eb 9aaf 6a1c 06b0
00000300: 361b 40a8 8526 17af 2f71 77b4 8dd7 b2b3
00000310: 36a8 1f2a 8336 3596 6b6b 36b1 952e 0eb4
00000320: 6f41 b0ad 88c1 98ad 1e90 ceaa da00 279c
00000330: a66a 7212 5646 b8b0 fa2b 8baa 0c60 bdb3
00000340: d609 83a2 90e5 1fa5 2ed4 a6b6 85de 8db4
00000350: c782 d02a 9e46 8fb5 f4fc 2e24 43fd 83ad
00000360: fd13 a326 7d33 c7ac a76b acaa 983e d423
00000370: b277 478e 6094 4f8d f55d 8f8f 606c 0d0e
00000380: 8177 7d8e 4b2c efa8 7aa9 2aa7 2519 b4a3
00000390: 1ddb 2e10 c67b 888f cb12 9db5 8936 0aaa
000003a0: b9e2 cdaf d6df 34b6 59aa d3b1 8d7f f4b4
000003b0: c2b4 7ab5 3fef e128 0bdb 84b4 e9cc e51a
000003c0: a0aa 0817 cbc3 73ac 1a97 c60f e59b eb10
000003d0: 1c07 6b1b b1c3 37ae f52e 47b0 ff08 3cae
000003e0: bda6 0bae e233 0cae 77a0 cbb6 458e 8128
000003f0: a915 ccb1 1937 8ab1 c999 e7b3 8fcc c5b9
1.8862593e-26 3.9844177e-29 -1.1868962e-28 -6.276653e-29 -1.1872299e-28 -3.7610667e-10 1.1903702e-11 1.7604848e-10
-2.2391006e-07 1.2457818e-09 -2.765385e-19 1.0667343e-15 -1.9172993e-20 -9.9379536e-23 -1.2327684e-09 -5.1354023e-09
8.632316e-23 6.9282056e-28 -6.146175e-09 -2.4981036e-11 -3.7287017e-28 3.3134222e-20 -6.922049e-13 -6.0945496e-17
-2.2575846e-07 3.5514193e-18 7.236503e-29 3.297775e-20 -2.1189594e-06 -8.345139e-09 -4.0558055e-07 -4.900846e-07
-7.166045e-10 -3.109948e-08 -1.5948749e-06 -2.5828607e-08 5.2862635e-08 1.9184877e-07 -5.86144e-06 4.5713577e-06
-8.2414896e-14 -3.9890953e-24 -1.7615793e-30 -5.6795927e-29 3.4216162e-29 -7.34556e-07 -6.5844743e-09 -9.519978e-10
-6.123771e-17 -6.312015e-12 5.1659052e-11 -5.880682e-10 -1.2666321e-10 -4.6384116e-10 -5.358394e-09 -5.633084e-10
1.1557366e-16 -1.2511688e-12 -1.4043772e-13 6.898057e-21 -2.2129264e-07 -6.651572e-07 4.3996126e-10 2.798432e-06
6.2421757e-09 5.696432e-26 1.03901485e-10 -3.0235733e-06 -4.2643094e-07 -2.3224302e-05 -2.6024846e-28 -3.8162582e-26
7.451993e-20 -1.0202551e-09 -9.917821e-13 8.971934e-29 8.381533e-25 2.6990631e-27 -1.0297401e-12 -3.2319655e-08
7.2542903e-26 1.8282938e-28 -1.1163916e-18 1.3038001e-24 -7.964266e-13 -1.037997e-17 8.8222385e-29 7.477997e-29
2.7525695e-29 -9.507917e-29 -3.314193e-11 -5.6772905e-07 7.238572e-12 -4.188167e-12 -4.398432e-06 2.6858436e-13
4.8212467e-12 -3.2557412e-09 1.7220424e-20 -7.267122e-13 -6.829443e-29 -2.8692415e-15 -7.24827e-27 -2.7087384e-12
-5.619935e-15 -4.3790163e-07 -6.83085e-12 -4.3788641e-16 -8.281613e-12 3.5831805e-19 -6.3767595e-13 -8.10499e-21
-1.0664343e-13 -1.6521774e-08 -3.8797885e-11 -3.357459e-08 -2.0264179e-05 -1.17658155e-05 -4.998542e-16 9.319957e-15
-1.2211717e-29 2.540206e-29 -5.284966e-29 -2.1686274e-30 3.1126037e-30 4.401975e-29 -4.4666817e-28 1.1754307e-28
-8.3353333e-29 -4.6274707e-16 1.2218387e-21 -5.435076e-12 -2.1436596e-11 5.1034414e-21 -6.6553635e-10 -1.4804392e-11
-1.0285963e-12 1.0102928e-20 -1.5897192e-14 -4.776666e-19 -3.025279e-06 1.0771027e-09 -3.9812247e-07 -3.5079533e-09
-5.2918507e-28 3.9456969e-13 -1.9050023e-05 -0.0002118107 -6.6750445e-06 -5.6676364e-10 -7.094895e-30 2.0446593e-16
1.2048874e-12 -6.65987e-26 -6.6380586e-12 -3.0018208e-24 -3.19271e-15 -3.885577e-16 6.8232973e-28 -4.734763e-30
-1.6500393e-09 2.0917118e-10 -5.891795e-06 -2.724066e-06 8.1058035e-11 5.0253113e-09 1.877047e-11 -8.795299e-06
-3.2843052e-06 4.162293e-07 -8.084124e-29 6.25777e-29 2.8529348e-29 -2.1185647e-26 -5.9641604e-13 3.8606385e-29
4.8061862e-29 -7.8435435e-29 1.6761258e-25 -1.2884811e-14 -1.8643548e-29 1.729106e-19 -2.257519e-26 5.8405105e-30
3.3428438e-29 -1.2978918e-13 2.1840906e-27 1.4270887e-27 3.5568777e-16 -1.3508312e-15 -2.8179958e-10 -4.8789295e-10
-1.06640415e-14 -1.3747055e-10 -2.3044844e-07 -8.3279794e-08 1.4180397e-13 -1.4638264e-25 -2.6545546e-09 -1.3241727e-07
-2.0037942e-11 -1.7366344e-11 -3.6692952e-13 -5.5256766e-22 7.649319e-28 -1.3407753e-09 -2.4721875e-13 -8.818469e-08
-3.5518035e-18 -1.386883e-16 -4.9718865e-06 -2.64252e-07 3.7038967e-13 -1.0674883e-06 3.7944495e-17 -1.5005447e-11
1.1315815e-15 -5.6616365e-12 -3.0628036e-13 2.3011596e-17 -2.4586275e-30 -6.39654e-31 -1.413708e-29 1.7431772e-30
-3.1242197e-30 -2.655354e-14 -2.3684113e-15 -1.9526288e-17 3.4484248e-29 -1.3458311e-29 -1.1702881e-06 -1.2275783e-13
-3.745038e-10 -2.695238e-06 -6.1602745e-09 -4.5541347e-07 -9.3395295e-07 2.5083775e-14 -2.474629e-07 9.504323e-23
4.415933e-25 -3.4641064e-12 1.958251e-29 9.293135e-29 1.9441042e-22 -4.178319e-11 -7.246251e-10 -4.275424e-11
-3.1753034e-11 -3.1878396e-11 -6.068552e-06 1.4383577e-14 -5.939644e-09 -4.0225925e-09 -1.0784749e-07 -0.00037727176

fc1.bias f4 [256]
00000000: f82c 52ba e82e a8b5 82f5 0d3d 1bce 1ab6
00000010: 974b c8bc 5789 23ad 32d8 b3ba db3d c4bd
00000020: 1838 6bbd 6127 60b5 b6f9 2bbc 3bda 83b4
00000030: 3e19 24a6 9204 6ebb 3a6b 53b0 f56e e6ad
00000040: d62a 76bc bbc2 42b8 b191 76b8 74f0 8634
00000050: e890 baac 65e0 76bc 2234 c9bc 1a8f 48bd
00000060: f263 c7b0 6ca3 bcab 7e4e 0fbc 709e 5fbc
00000070: d9eb 253c 16bc bcba 9440 bdb1 7dfe 58bd
00000080: 4440 862e 72fc 293c 65af c6ab b1c1 00bb
00000090: 6804 823c 7fac 1bb6 95df 84b3 2204 6ebd
000000a0: 1e7b 15bd 4fb1 f3ba 8c4d 0fbd 0bd2 00bc
000000b0: 59c1 0dbe a0f4 89bd add7 24bd 0a55 b3aa
000000c0: 9bc2 bcbc 1f51 53b8 f87c 81bd 9804 60ba
000000d0: 2cfd ac3b b926 ba3b f48b eb3c 5b5a 40b4
000000e0: 1f1c d0bc cf4b a1bc fe2b 5dad 0fba 16b3
000000f0: 5631 dba2 9be8 0cb3 9d02 5bb7 ca5a f9bb
00000100: 088a 873c 77eb 24aa 123b f2b1 9e41 e0b8
00000110: 00d9 3db8 a001 41bc 9f66 8fbc 3a68 a0bc
00000120: aa8f bbbb f91d 1abd 2fe5 283c 04c8 9ba9
00000130: 55e9 169e 85a4 04bb 2d43 353c 82f6 8a3c
00000140: 7f05 63bc 924e 2fbd 815e 1bb7 94ca 3ab4
00000150: b98a d2af e762 bd3c 959d 12bb b526 d3ad
00000160: d73d b1b9 bbc9 c2b6 000a eeb8 7f00 c1bd
00000170: 50f7 e6a5 6c83 f5bd 3e51 61bd 2566 b73c
00000180: 9b69 37bd c98e 68bc d912 a1b1 debe 82bc
00000190: d0a7 6ca3 ee44 f6bc d2cf 6734 7a51 31bd
000001a0: 6017 15a9 c7aa b0bc 0c6a a6bc 12d1 e7bc
000001b0: 45cb b2bd 4a46 22a0 c571 cbba 63fa 59b7
000001c0: 30cf 0fac b70f 983c 9ee4 2bbc e26e e0ab
000001d0: faca 69bb 2dfa 9e3d d68a 09ba b3ec 96b6
000001e0: 75f0 20bd 54d9 99bc 7381 dcbd bac3 56b2
000001f0: 699c 6cbc 9502 d6b9 a460 3c3c 4c5f 95bb
00000200: 5dae 5cbd 2949 4fac d597 d1ab 5668 3bbd
00000210: c9cb 0dbe 93bc cab6 8e80 5bbd 09c0 73bd
00000220: 1762 7abd cef8 d8ba ae1e e2b0 8011 76ba
00000230: 32f9 69bd 5d3f f63b 7213 b69e fe48 0e90
00000240: 4e47 8bbb ee91 e1b2 7cab 82b7 bfaa 48b9
00000250: af23 43a6 4463 77b8 5770 7bb2 a437 eaaf
00000260: 3b5e 2c3b 1380 3aae f1b1 dda5 dee2 b7b9
00000270: 78b6 cdbc 709e 59b5 c880 06ba 9cd9 8aba
00000280: 63b6 14b0 8865 faa8 0751 6c3d 05bf 9fbd
00000290: bc74 57b5 abb7 a5aa 4a88 93b5 527d 96b7
000002a0: 6bec 2dbe 6eb2 67bd fbdc 93bc 10cf c6bc
000002b0: 29ef 8f3d c7d2 bfb2 ef86 8ba7 371e 7ebd
000002c0: 7ce1 87b1 6269 5e3c 0df2 8cbd 63cb bd3c
000002d0: 8062 94b0 f093 0bab edb0 5198 501c 18b2
000002e0: 167d 79b1 00f6 01be 7462 db9d 51be d1b9
000002f0: a68a 10be 9a3d 93bc 0bf3 1ab6 ea3e 10be
00000300: 9125 85b7 ff71 53bc faa3 f7bc 3073 83bd
00000310: c729 3ab2 62e8 e5b5 1fa8 493c 0e36 28bd
00000320: f2e2 26bd 0ed5 01b4 cd74 b1bc 7608 28bd
00000330: 160f 99b6 2c58 fbaf afc5 7fbd 8f37 183b
00000340: df28 08ac bc39 c7b7 1dfb 6cbc 1e53 c6af
00000350: a1b0 fab7 dc9b 8cb9 440c 57af c0c3 92bd
00000360: abcc 5034 ca49 3cb6 37f5 06ae ecfa a6aa
00000370: c8d3 df3b 9dba a0bd 5cba e6bc 8c73 6d3d
00000380: f1c0 c1ba 80cf c63d 8f09 86ad b34a 71b7
00000390: 7e86 c0b6 d491 93b7 d041 18bd 81b9 b6bd
000003a0: 5657 26b9 fa3a edbc e272 0fbb 9319 013d
000003b0: 1537 19bc 10f5 8fbc 35bc 823d 3a01 9cb6
000003c0: c31c 3bbe c8e1 7fb6 b455 46bc a279 74bd
000003d0: ac32 74ab c1de 26a1 f78e 21bc 02ae 69b8
000003e0: b6c6 a5b1 d829 9cbb 8016 9eb1 cfd9 833d
000003f0: 0378 30b3 0a41 08bd 4f64 0aae b07f fe3b
-0.0008017565 -1.2530627e-06 0.034657963 -2.3067757e-06 -0.024450107 -9.295973e-12 -0.0013721047 -0.095821105
-0.057426542 -8.3503807e-07 -0.010496547 -2.4559435e-07 -5.693314e-16 -0.0036318642 -7.691373e-10 -2.6197247e-11
-0.015024861 -4.643456e-05 -5.8786656e-05 2.5134398e-07 -5.3025258e-12 -0.015068148 -0.024560992 -0.048964597
-1.4507562e-09 -1.3403562e-12 -0.008746741 -0.013648614 0.010127031 -0.0014399316 -5.5079656e-09 -0.052977074
6.1050304e-11 0.010375129 -1.4117428e-12 -0.00196467 0.015871242 -2.3197206e-06 -6.187398e-08 -0.05810941
-0.036494367 -0.0018592271 -0.034986064 -0.007862578 -0.13843288 -0.06736112 -0.040244747 -3.1855795e-13
-0.023042014 -5.038187e-05 -0.06322664 -0.00085456064 0.005279204 0.0056808856 0.028753258 -1.7914265e-07
-0.025404034 -0.019689469 -1.2572164e-11 -3.5093816e-08 -5.9412305e-18 -3.2807844e-08 -1.3054026e-05 -0.0076097
0.01654531 -1.464782e-13 -7.0498425e-09 -0.000106933745 -4.526321e-05 -0.011780173 -0.017504988 -0.01958095
-0.005723913 -0.03762624 0.010308548 -6.91808e-14 -7.989186e-21 -0.0020239663 0.011063379 0.016963247
-0.013856291 -0.04279954 -9.260723e-06 -1.7396297e-07 -3.8297346e-10 0.02311845 -0.0022371758 -2.4005112e-11
-0.00033806145 -5.805135e-06 -0.00011350587 -0.09423923 -4.0066225e-16 -0.11987957 -0.05500912 0.022387573
-0.044778448 -0.014194199 -4.6878594e-09 -0.015960153 -1.2829121e-17 -0.030062165 2.1589156e-07 -0.043290593
-3.310492e-14 -0.021565808 -0.020314239 -0.028297935 -0.08730177 -1.374519e-19 -0.0015521577 -1.2992506e-05
-2.0436534e-12 0.01856218 -0.010491518 -1.5946933e-12 -0.0035673962 0.07762561 -0.00052468234 -4.497904e-06
-0.039291818 -0.018780388 -0.10766878 -1.25009425e-08 -0.014441588 -0.00040819185 0.01149765 -0.0045584794
-0.053877223 -2.9457081e-12 -1.4892485e-12 -0.0457538 -0.13847269 -6.042022e-06 -0.053589396 -0.05950931
-0.061128702 -0.0016553642 -1.6452384e-09 -0.0009386763 -0.057122417 0.0075148777 -1.9278042e-20 -2.8060793e-29
-0.0042504435 -2.6259809e-08 -1.5577061e-05 -0.00019137094 -6.7702576e-16 -5.8981837e-05 -1.4635666e-08 -4.2603887e-10
0.0026301283 -4.2405256e-11 -3.8457967e-16 -0.0003507351 -0.025111422 -8.1069356e-07 -0.0005130884 -0.0010593417
-5.4101273e-10 -2.7799608e-14 0.05769446 -0.07800106 -8.026361e-07 -2.9437333e-13 -1.0992019e-06 -1.793975e-05
-0.16984718 -0.05656665 -0.018049708 -0.024268657 0.07028038 -2.2331177e-08 -3.8726545e-15 -0.062040534
-3.9546517e-09 0.01357493 -0.06882105 0.023168271 -1.0796413e-09 -4.9588025e-13 -2.7101942e-24 -8.854002e-09
-3.6305372e-09 -0.12691498 -5.8070615e-21 -0.00040005383 -0.1411539 -0.01797371 -2.3089258e-06 -0.140865
-1.5872329e-05 -0.012905597 -0.030229557 -0.06418455 -1.0836124e-08 -1.7129462e-06 0.01230815 -0.041067176
-0.040743776 -1.209157e-07 -0.02166214 -0.041023694 -4.5615116e-06 -4.5719284e-10 -0.062444385 0.0023226475
-1.934945e-12 -2.3749533e-05 -0.014464167 -3.6075049e-10 -2.9884572e-05 -0.00026819005 -1.9558494e-10 -0.071662426
1.9445967e-07 -2.8057134e-06 -3.0685867e-11 -2.9661636e-13 0.006830666 -0.07848094 -0.028165035 0.057971522
-0.0014782232 0.09707546 -1.5238281e-11 -1.4382112e-05 -5.737703e-06 -1.7591672e-05 -0.03717214 -0.08922101
-0.00015863529 -0.028958786 -0.0021888544 0.03151853 -0.0093515115 -0.01757291 0.06383554 -4.649305e-06
-0.1827269 -3.8129383e-06 -0.012105394 -0.05968631 -8.6756535e-13 -5.65378e-19 -0.009860746 -5.5713586e-05
-4.824723e-09 -0.0047657304 -4.600963e-09 0.06438028 -4.1087343e-08 -0.03326515 -3.146666e-11 0.0077666864

fc2.weight f4 [120, 256]
00000000: afa0 822d 42d8 0100 9825 19bd e3ba 8c91
00000010: 098c f5bc 2ab0 668c 5df2 aa3b bbbe d7b9
00000020: 6a15 fdbc f561 9822 9ca7 d3b9 00b7 f3a8
00000030: d4e7 0500 342f 69b9 7a1e 570d d394 5285
00000040: 4768 40bd 85f5 9935 3dc3 9bb7 eeff f6b5
00000050: 8a10 0380 69fb 1eba 9a1d 0dbd 7027 babc
00000060: cd03 0780 cbec 1500 0d78 ddba 07be 4ca5
00000070: 4e1f 7a3c 932e 0f04 6771 830e 9d05 a4ba
00000080: d230 94b0 f678 4fbc 544e 31a6 bf9d 802c
00000090: 7e00 b4bd f14c 4cb2 c434 0280 c0cc b2bd
000000a0: 4c77 9dbc df49 0038 092e 32be 2ed1 2db6
000000b0: c783 a33c bdf1 3d3c 2bfa 873b 74d7 09ab
000000c0: a122 1e3d 6174 ea37 1ef9 b83a 44f2 da15
000000d0: a7bd b6bd cf59 b9bd 08a5 d83c 4077 13b2
000000e0: deaf 383e b79f e639 07c9 0600 6ce5 0880
000000f0: 4276 1180 0b1d 0100 7715 5113 5404 83bd
00000100: 822d 2dbd bf51 1880 a782 7c10 2fed a3b6
00000110: 84b2 86bc 0d1b dab7 2c75 6cbb 63d5 84bd
00000120: ac87 093c 54b5 47bd fb4e 2cbc 46b2 fe8c
00000130: ffcd 0680 dc44 0fba 5ed7 2fbd dadd 3fbe
00000140: ac9e e63a bb49 24bb 7b1e d1b5 fef4 0733
00000150: 1168 f62b dc1b 463e 0f35 8628 b6f3 0c8b
00000160: 6d27 3bba cc3d 1031 d25d 69bd ce35 b9bc
00000170: c8fa 1000 2d00 283c 88e7 23bd 0ca2 e1bd
00000180: 156f 0abd 8af1 3db8 c01d af16 149a 193d
00000190: 652b 0200 61c8 babd 76c0 8f36 7a86 73bd
000001a0: 818e 1680 4cc6 69ba 1511 b3bd 8fc8 f0bd
000001b0: 51c0 013d a0f3 7d21 4d3f de39 680a b135
000001c0: 0c63 cb27 aae2 d9bd 4f4e 7139 58dc 07ab
000001d0: 5fb2 293b 5bcb 183e f797 8d80 ea02 d5a0
000001e0: 6553 043d b4ee 6eb6 fb1c 7dbc 8d93 1080
000001f0: 0a94 2437 6bbe 0800 e1c0 cd3c 2467 b038
00000200: 6e97 f0bd e0ed d129 a879 1e27 d383 5b3c
00000210: ed2a aabd 2123 6e99 f398 e2bc 182d 633d
00000220: 106f 833c 8ccc cb38 bcb3 8027 ffeb 383a
00000230: b495 88bd 2246 1dbd a59b 1180 f0d8 4f80
00000240: 352f 21bd 5ee1 852a 48b1 bdb5 a420 c3b2
00000250: e45d 0200 8fa1 edb8 8ecf 3e33 159e 070c
00000260: ab53 ccba 9a22 9da2 ea2d 0380 5191 c235
00000270: 4f0b 863b 701c 9eb1 e3e8 41b5 33aa 9fb3
00000280: 4a20 3982 d8e2 1400 e48a 4cbd 9687 9cbc
00000290: d27b e32c 10f1 9227 34e2 a52b 609a 6ab5
000002a0: 9faa e03d d337 76bd 6697 82bc 7f45 463c
000002b0: 93b1 07be f212 97b3 e366 1180 0db0 2b3b
000002c0: 7cd1 d5a1 d265 e6bd e9ac 02bc 0509 453e
000002d0: e863 f5a3 3763 1500 6df9 0900 1c6c 98af
000002e0: f6b7 0d00 4d14 1ebc d585 1700 5039 6c39
000002f0: 2751 f83d e81b 2538 76b9 f832 2339 56b8
00000300: 693e 21b4 4258 da96 9d9a a8ba c55b 943b
00000310: 262d 77af d653 6bb0 72d3 3bbb d1e8 6a3d
00000320: b0d8 00be aa77 2733 84a8 2cbb 6215 6dbc
00000330: 5ece 9e84 36fc 2491 335b 433b 34e3 21bc
00000340: f7cb 9fa5 c368 1d36 9531 ccb6 e412 6908
00000350: 39ec b134 1728 30b4 861f d893 3309 ebbd
00000360: 0121 89b6 bc1c 0980 ca58 32aa 528f 6400
00000370: 8095 133e cccc fb37 a2af 273c 8f84 d9bc
00000380: 1463 9bb7 0809 0e3d 576d ab2c 5c52 c72b
00000390: 9d2a c200 1a22 6b02 5c2f 12bd d158 43bd
000003a0: 5183 c8ac fc95 22bc fc14 7aba 42e4 7bbc
000003b0: 7cb7 debd 5a8e 8fbd a988 f33d a527 3232
000003c0: 6a9c e73d a829 4b36 c972 4535 30b6 a33b
000003d0: de75 ac2a a312 0b80 a2f1 5db8 cc0b c800
000003e0: 603d 46b3 df13 8abd e496 aca6 48ed 063d
000003f0: e7f8 0d33 2ca2 20bd 00ce e49f ab5e 0d3e
1.4850647e-11 1.69414e-40 -0.037389368 -2.2203283e-28 -0.029974 -1.7771568e-31 0.0052168802 -0.000411501
-0.030894 4.13034e-18 -0.00040369935 -2.7057783e-14 5.42342e-40 -0.00022238196 6.6288675e-31 -9.901487e-36
-0.046974447 1.1470844e-06 -1.8568355e-05 -1.8402914e-06 -2.8144e-40 -0.0006064685 -0.03445206 -0.022723883
-6.44212e-40 2.013491e-39 -0.001689674 -1.7758563e-16 0.015266253 1.6830955e-36 3.2403196e-30 -0.001251388
-1.0782293e-09 -0.012663117 -6.1515365e-16 3.655492e-12 -0.087891564 -1.1891857e-08 -2.026e-40 -0.08730459
-0.019221924 3.0586376e-05 -0.17400374 -2.5900767e-06 0.019960297 0.011593279 0.0041496954 -4.897118e-13
0.038607243 2.7949167e-05 0.0014112329 8.8431727e-26 -0.08922892 -0.09050333 0.02644588 -8.5836405e-09
0.18035838 0.00043988015 6.23128e-40 -8.16985e-40 -1.603626e-39 1.02254e-40 2.6390092e-27 -0.0639731
-0.042279728 -2.233377e-39 4.9798888e-29 -4.8853904e-06 -0.016442545 -2.6000222e-05 -0.0036080582 -0.06486013
0.008394163 -0.048756912 -0.010516877 -3.924219e-31 -6.2491e-40 -0.0005465278 -0.04293 -0.18736973
0.0017594895 -0.002506836 -1.5580584e-06 3.1654956e-08 1.7508236e-12 0.19346565 1.4899999e-14 -2.7146367e-32
-0.0007139359 2.0989885e-09 -0.05697424 -0.022608664 1.559331e-39 0.010253948 -0.040015727 -0.11017236
-0.033797342 -4.5286062e-05 2.829155e-25 0.037500456 1.99238e-40 -0.091202505 4.2841375e-06 -0.05945442
-2.071502e-39 -0.0008917793 -0.087434925 -0.117570035 0.031677548 8.604217e-19 0.00042390302 1.3190556e-06
5.6451205e-15 -0.10638936 0.00023012723 -4.8267423e-13 0.002589367 0.14921324 -1.300332e-38 -3.6085532e-19
0.032306094 -3.5603707e-06 -0.015448804 -1.522299e-39 9.80963e-06 8.02993e-40 0.025116386 8.4115454e-05
-0.11747633 9.322729e-14 2.1992855e-15 0.013398129 -0.08308969 -1.2311406e-23 -0.027660822 0.055462927
0.01604417 9.717894e-05 3.5722005e-15 0.0007054209 -0.066691786 -0.038396962 -1.617038e-39 -7.332827e-39
-0.03935166 2.3781926e-13 -1.4133193e-06 -2.2715831e-08 2.17353e-40 -0.00011331133 4.4426592e-08 1.0447593e-31
-0.00155889 -4.259157e-18 -2.91977e-40 1.4496419e-06 0.0040907036 -4.601638e-09 -7.2237e-07 -7.4349735e-08
-1.360092e-37 1.918086e-39 -0.049937144 -0.019107621 6.465475e-12 4.07845e-15 1.1786739e-12 -8.739644e-07
0.109700434 -0.060111832 -0.015941333 0.01210153 -0.13251333 -7.0349316e-08 -1.598112e-39 0.0026197464
-1.4488891e-18 -0.112498894 -0.007975795 0.19241722 -2.6605265e-17 1.964137e-39 9.15997e-40 -2.7725455e-10
1.259854e-39 -0.009648395 2.160226e-39 0.00022528064 0.121248536 3.9365055e-05 2.8955338e-08 -5.107479e-05
-1.5016998e-07 -3.5275498e-25 -0.0012863461 0.0045275413 -2.2480559e-10 -8.561164e-10 -0.0028659967 0.057350937
-0.1258266 3.899155e-08 -0.002634556 -0.01447043 -3.733514e-36 -1.3015037e-28 0.0029808998 -0.00988083
-2.7720315e-16 2.3455802e-06 -6.085446e-06 7.0138093e-34 3.3140694e-07 -1.6405862e-07 -5.455715e-27 -0.11476364
-4.0867603e-06 -8.36827e-40 -1.5840381e-13 9.234963e-39 0.14412498 3.0016898e-05 0.010234745 -0.026552467
-1.8523577e-05 0.03467658 4.8722515e-12 1.416266e-12 1.7831373e-38 1.727486e-37 -0.035689697 -0.047692124
-5.698921e-12 -0.009923454 -0.000953987 -0.015374245 -0.108748406 -0.07009573 0.118913 1.0369978e-08
0.113091305 3.0273604e-06 7.3555253e-07 0.0049960837 3.0635124e-13 -1.016876e-39 -5.2915544e-05 1.8371331e-38
-4.6156288e-08 -0.06742071 -1.1975797e-15 0.032941133 3.3055496e-08 -0.03921716 -9.6902554e-20 0.13805644

fc2.bias f4 [120]
00000000: 4843 323e ac28 5a3e 6371 00bc 1ffe 8f3e
00000010: bc8b 96bd 0e51 d037 c98f fa3d b389 5a3d
00000020: 7311 5c3e 5d5b dfb6 b480 8b3b 5eb8 21a7
00000030: bd8c 983c 4aaa 193e 679d b43d e2a3 8ea8
00000040: d169 273e df64 793e d625 84bd 00fd 153e
00000050: 4ab7 11b8 c3fe fcb6 80b4 47ae 14dd c73d
00000060: 5524 73bb 3124 ad3d 419c 89b0 eb96 923e
00000070: b21b c63d 3bb4 cf3a c668 f03d 7f5b e3b7
00000080: 21ba 0c3d 021f ef3d aa7c 5fb9 951b a4b5
00000090: d402 583e db48 013e e1e3 403c 44af 383e
000000a0: 2cea 713d 3cd1 813e f2bb fb3b 9596 803e
000000b0: 66e5 863d 02b1 12ac a341 87b7 26c4 a63d
000000c0: 31df 1c3e 5d3c 04bc eb2d a13d ac70 fc3d
000000d0: 299a 853e ff80 f03d 1887 a23d 0771 22b4
000000e0: 3e2f 0cbb 63c8 9b3d fd52 603d 5ab3 fc3d
000000f0: fccc d93d b984 553d 6fd8 4d3d e0c6 743e
00000100: 7d0c 6b3d 9287 d43d 5715 9a3d ca2e a83d
00000110: fc66 95bd 0efe b33d a82c 933d de43 3aba
00000120: 9883 903d eed0 893e 59dd 933d c603 63b8
00000130: 94c0 a63d afbf dcb8 1113 023e b6ea 693e
00000140: 8a6c 093e 69a4 ae3d 5161 803e 9347 463d
00000150: 0126 2c3e aeeb 933d 0ae0 27ac e2f6 ddb8
00000160: 09b9 933e 6e2f 5cba a0c6 8a3b 317f c23d
00000170: 2fd5 0fbc 5c0b b33d 782a b33d 3b2b a0b0
00000180: 7912 d53d e58a 793e 211e d43d d0e0 883d
00000190: ff13 8c3e 524e 6a3d 8eab 883d 3f64 913d
000001a0: 2183 713d 2b6c 89bc 9497 903d e7c1 8d3d
000001b0: 0c19 78b4 a1df fc3c 2cc1 c73c bbfd 9f3d
000001c0: d49d cf3b 499d 5fb9 5b48 053e 9f99 003e
000001d0: 20dc ef3d 3033 103a f4cc 0a3e 645f ad3d
0.17408478 0.21304578 -0.0078395335 0.28123567 -0.07350871 2.4833276e-05 0.12234456 0.053353976
0.21491031 -6.656554e-06 0.004257286 -2.2443184e-15 0.018621797 0.15006366 0.088190846 -1.583624e-14
0.1634896 0.24354886 -0.06452529 0.14647293 -3.4741395e-05 -7.5398434e-06 -4.5407678e-11 0.09758964
-0.0037100513 0.084541686 -1.0012472e-09 0.28630766 0.09673251 0.001584656 0.11738734 -2.7103115e-05
0.034357194 0.11675836 -0.00021313378 -1.222698e-06 0.21094829 0.12625448 0.011773081 0.18035609
0.059061214 0.25354946 0.007682317 0.25114885 0.06586723 -2.0846107e-12 -1.6123819e-05 0.08142881
0.15319516 -0.008071032 0.07870086 0.12326178 0.26094177 0.11743354 0.07935923 -1.5128545e-07
-0.0021390463 0.0760658 0.054766644 0.12338896 0.10634801 0.052128527 0.050255235 0.2390399
0.057384957 0.103774205 0.075236015 0.08212049 -0.07295033 0.087886915 0.07186252 -0.000710545
0.070563495 0.26917213 0.07219953 -5.412453e-05 0.081422 -0.00010526121 0.12702586 0.22843441
0.1342031 0.085274525 0.25074247 0.048408102 0.16811372 0.07222687 -2.3856494e-12 -0.00010584087
0.28852108 -0.00083994016 0.0042351037 0.09496916 -0.008778854 0.08742401 0.08748335 -1.1653819e-09
0.10403914 0.2436939 0.10357309 0.066835046 0.27359006 0.0572036 0.066733465 0.070991985
0.058962945 -0.016775211 0.07060161 0.069217496 -2.3105912e-07 0.030868353 0.024384104 0.07812067
0.0063359533 -0.0002132553 0.13015883 0.12558602 0.117119074 0.00055007916 0.13554746 0.0846546

fc3.weight f4 [1, 120]
00000000: 2e95 1c3e 32ba f73d e699 543c c3a6 e53d
00000010: 0255 843b 1935 99b3 e908 6abd 939f 7ebd
00000020: f19c bb3d 691d 3137 6922 9cbd 77e0 e4b7
00000030: 65cd c6bb 8493 b6bd 1a34 21bd 7a7f 8037
00000040: 0d7f a6bd 96b1 063e 25ae f7bc bdd8 8bbd
00000050: 29ee 47ba f798 f936 91cc 9b38 aa9f 32bd
00000060: 6864 503a c502 9ebd 4c34 0337 b770 293e
00000070: 93a8 7ebd 27e2 833b a70d 71bd 791a 7838
00000080: fc89 b0bc c632 adbd d262 0c39 f564 f6b4
00000090: 7677 903d 68e4 7ebc 536c 533b 2169 e33d
000000a0: e314 c0bc 4707 c33d 4292 833b 1c04 053e
000000b0: 0574 a9bd de10 4c38 5081 d8b5 0f12 21bd
000000c0: 2b7c 783d 6de8 ca3b c84d 4dbd 9b9d 35bd
000000d0: 9b6d 173e 8542 f03d 3acb 36bd 5b29 ef3b
000000e0: a424 0739 ca8b a3bd d93a 22bd 7f5f bcbd
000000f0: 3adf 74bd 711f 44bd 7845 15bd 7f0e f73d
00000100: ce36 2e3d 44a7 a0bd e145 edbc 192d 9bbd
00000110: 9a4b fabb 4443 5abd 594e 58bd 7180 2039
00000120: b020 cbbc 1329 163e 2033 82bd 66b8 b03c
00000130: 2b45 903d 10a1 8034 8e5d b0bd b128 b03d
00000140: d389 55bd 8221 b6bd 18a0 263e 69b8 d33c
00000150: ad4f c0bd 7058 5dbd 9ebd 123b 2c5b cab7
00000160: d17b 273e a07b d439 add1 573c 1786 15bd
00000170: 469b 25bc 0018 a9bd 9a46 25bd 493f 9b38
00000180: 65fd 6dbd b049 083e 2ef7 4bbd 666e 92bd
00000190: b76e 1e3e a4b5 58bd de6c b5bd c7f0 8fbd
000001a0: 8b94 7fbd 2446 463c 1c14 39bd dd27 1dbd
000001b0: b931 07bb 6d4b 893c 3bd0 1cbd 57cb e4bc
000001c0: 01f1 81bc 8a50 d1ba bba6 14bd 68c2 60bd
000001d0: e2ca 18bd 5b5f 06bb 0333 8b3d 658d babc
0.15291283 0.12096061 0.012976145 0.11213448 0.004038454 -7.134276e-08 -0.057137404 -0.0621639
0.091607936 1.055687e-05 -0.07623751 -2.7284243e-05 -0.0060669654 -0.08914855 -0.03935633 1.531815e-05
-0.08129702 0.13153681 -0.030234406 -0.06828449 -0.0007626736 7.4385857e-06 7.4290794e-05 -0.0436093
0.0007949532 -0.07715372 7.820385e-06 0.16546904 -0.062172484 0.004024762 -0.05885091 5.9152462e-05
-0.021550171 -0.0845695 0.00013388254 -4.5894527e-07 0.07054035 -0.015557386 0.0032260611 0.11104036
-0.02344746 0.095228724 0.004015238 0.12989849 -0.08274082 4.86531e-05 -1.6130889e-06 -0.039323863
0.06066529 0.006192258 -0.050123006 -0.044339757 0.14787905 0.117314376 -0.044627406 0.007298631
0.00012888253 -0.07985647 -0.039606903 -0.09197902 -0.059783198 -0.047881547 -0.036443204 0.12063312
0.042532735 -0.078444034 -0.028963985 -0.07576961 -0.007638407 -0.053286806 -0.052809093 0.00015306637
-0.02479586 0.14664106 -0.063574076 0.021572303 0.07044443 2.3959046e-07 -0.08611594 0.08601511
-0.052133393 -0.0889311 0.16272008 0.02584477 -0.09390197 -0.05403942 0.0022390853 -2.4122732e-05
0.16355826 0.000405279 0.013172549 -0.03650483 -0.010107821 -0.08256531 -0.040350534 7.402764e-05
-0.058102984 0.1330936 -0.049796276 -0.07149963 0.15471922 -0.0529076 -0.088586554 -0.070283465
-0.06239752 0.012101684 -0.045185193 -0.038368095 -0.0020629002 0.016759599 -0.03828452 -0.027928991
-0.01586199 -0.0015969437 -0.03629182 -0.0548729 -0.03730286 -0.0020503614 0.06796839 -0.0227725
