k_fold_model_1/model1.pt (torch, 242935 bytes, 17 tensors)

conv1.weight f4 [10, 1, 15, 3]
00000000: bc53 59bd bb98 07bd dcbc a5be ca8d 9e3a
00000010: b70e 803b c1d2 a6be c2da a43d 7a0e 453d
00000020: 0b34 ae3c b611 533d 29b9 f73d 73e4 1b3e
00000030: 651c 89bc cfe7 9dbd 9f58 7fbd 4932 1e3d
00000040: d103 7cbd e6a7 e7bd e25d d73e 9293 4d3e
00000050: 339c 053e cdac c13d 8939 ec3c 646e 4f3c
00000060: 9f77 943e ad1f 0a3e e11e bb3d 1338 153c
00000070: 6f05 3d3d e957 f5bd 4492 6dbc 38b8 033e
00000080: f32f 2dbe b268 a1bd acc9 33be 8859 53bc
00000090: 688b 9e3c adaa 973e cbad 163e 50a2 f5bd
000000a0: d2b4 423e 553c 3d3e 63d0 c4be 328a c6bd
000000b0: 39d6 42bd 86a1 df3d e3c8 dfbd 5cc8 7abc
000000c0: 326e cabc e8f4 9e3d 9120 64be 462f 893e
000000d0: a0d6 e73d f75b d3be 9ec1 513e eea8 313c
000000e0: 988b 4b3e 191b a4bd 8910 3f3d 16e8 b2bd
000000f0: 8315 f9be 3f79 4f3e 6586 8abe c341 4fbc
00000100: 8f8b 883e 6a46 133d a68a 8fbc f777 613c
00000110: 2ef9 de3c ed6a fdbd b768 13be 3c60 8f3d
00000120: 2f9e 4a3e 6598 53be 4358 443c 7289 6fbd
00000130: e0ff 103e 340d f0bd c6b1 84be b039 5c3e
00000140: b46d f9bd d2cf a83d 4e6d dc3d ffe1 ce3c
00000150: d589 dc3b b134 d1be 874b 9ebd 764a 0b3e
00000160: fccd e83d f55c 37bd e481 51bd 5da6 2ebd
00000170: 9f28 b3bd ad72 f83c b2e0 af3d 7a5f 09be
00000180: 9c9f d2bc 055c aa3d 8e4b a83d f1e6 453c
00000190: a206 b33a 3708 4a3d 5af7 703b 0989 debd
000001a0: 055e babd 09e2 37bb 35f0 88be 2a18 14bc
000001b0: 2e31 233f 739f 95bd d8d3 7d3e 710a 0fbe
000001c0: 6829 e9bd 7f5c 4d3e 6d02 14be fae2 383d
000001d0: 3192 353e e563 93be d18a 53bd 40a8 e4bd
000001e0: e77b b0bc f7dd b7bb 83bf 003e 9f5e 343e
000001f0: b909 333c e4e1 4c3e 3e86 60be a523 50be
00000200: c458 7e3e ca9f 27be c40b 4dbe ad80 1abe
00000210: 924a bc3d dc70 9c3e e9df a0bd 13ba ee3d
00000220: dfe9 583e b9f0 023d f816 0b3d b28b d1bd
00000230: 6c2e 42be 7b9f b2bd 44da 1fbe 0ad3 1dbe
00000240: d758 37be bc01 e5bd 41b7 19be 93dd c5bd
00000250: c0a3 b13c aa8b 873e 60bb acbc 0e29 053e
00000260: 6d88 b43d 7206 943d b41f 463e 32e0 613e
00000270: 7aef 213d bc75 bb3d 6c6d 283e 5190 763e
00000280: b2f8 183e 0a33 a33d d54c 34bd b614 92bd
00000290: 24ca 04be a287 b6bc ee0b 53be 6865 3dbe
000002a0: 99ff cbbd 05c1 cfbd 7f17 22be 10c7 44be
000002b0: 4e5d cc3c 6bab c2bc fc7b fbbd 44e4 88be
000002c0: cb74 06be dc9b a6bd 3ca0 04be 4a7d 78bd
000002d0: 011a b2bc 6bbf 0ebd 311c 2a3e 2325 35be
000002e0: 2bc2 e73d 1698 62be 61d1 85bd 647d b93d
000002f0: db3f 623e 5642 12be e783 d9bd 2b5e 02bb
00000300: a27a 363d 7b96 e3bc 0f30 33be 0d08 753e
00000310: 7767 cf3c 3ee6 863e dc74 f5bd e1a7 0e3d
00000320: 5734 a8bc a174 61bd c5d3 a1bd f8ec e8bd
00000330: 31ab fb3d 5268 5dbd c012 cdbc edeb 2c3d
00000340: d233 b9bc b602 69be 8661 353e 4af6 5cbd
00000350: 9af8 7cbe eee4 38bc a444 9dbd ddf6 cb3c
00000360: 2580 36be 014f 16be 84d0 463e af90 2c3e
00000370: afff 7abc b746 c13e 9dd8 1e3e 4f60 6b3e
00000380: 2ca9 e53e ec95 dcba 5b10 ccbd a5a6 85bd
00000390: 87ce a8ba 841e 0a3e a767 003e b25b 15be
000003a0: 7c5a cb3d c31a 8ebe 2bf6 26be 9290 dd3d
000003b0: 6dfa 553e a3f2 da3d 1256 0f3e 6f68 12be
000003c0: d9d2 4b3c b74d 653e 1e03 bdbc 7c9a 1ebe
000003d0: 03dc 51bc 8837 3ebe 2e98 0fbd 5478 b6bc
000003e0: b5c6 133d ffde e83c bea1 f03d 3495 d13e
000003f0: 61ca 7e3e a420 423e a0c7 ae3e ab55 433c
-0.05305837 -0.03310464 -0.3237065 0.00120967 0.003908004 -0.32582667 0.08049537 0.04810951
0.02126505 0.051530562 0.12095863 0.15223865 -0.016737172 -0.077102296 -0.062340375 0.038622174
-0.061527077 -0.11311321 0.42063814 0.20075825 0.13047867 0.09456787 0.028836029 0.0126605965
0.28997514 0.13488646 0.09136749 0.009107607 0.04614776 -0.11979658 -0.0145002045 0.12863243
-0.16912822 -0.07881297 -0.175574 -0.012899764 0.019353583 0.29622403 0.14714734 -0.11993849
0.1901429 0.18480046 -0.38440236 -0.096943274 -0.04756758 0.1091948 -0.10926988 -0.015306558
-0.024710748 0.07761556 -0.22278048 0.2679388 0.11320233 -0.412811 0.20484015 0.010843499
0.1987747 -0.08012981 0.04664663 -0.08735673 -0.48649225 0.20261095 -0.2705566 -0.012649956
0.26668975 0.035955824 -0.017522167 0.013761512 0.027218428 -0.1237391 -0.14395414 0.07000777
0.19786905 -0.20663603 0.011983934 -0.058480687 0.14160109 -0.11721268 -0.2591688 0.21506381
-0.12179127 0.082427636 0.10763036 0.025254248 0.006730298 -0.40860513 -0.077292494 0.13602623
0.113674134 -0.044766385 -0.051149264 -0.042639125 -0.08747982 0.03032812 0.08587779 -0.13415328
-0.025710873 0.083183326 0.08217536 0.0120789865 0.0013658593 0.04932424 0.0036768527 -0.10865981
-0.09099964 -0.0028058311 -0.26745763 -0.009038964 0.6374692 -0.07305803 0.24787843 -0.13968827
-0.11384851 0.20054816 -0.1445405 0.045138337 0.17731549 -0.2878715 -0.051646058 -0.11164904
-0.021543456 -0.005611177 0.12573056 0.1761422 0.010927611 0.20008045 -0.2192621 -0.20326097
0.24838549 -0.16369548 -0.2002402 -0.15088148 0.09193911 0.30554855 -0.078552075 0.116565846
0.21182965 0.031967852 0.03395745 -0.10231723 -0.18963021 -0.08721825 -0.15610605 -0.15412536
-0.17904983 -0.111819714 -0.15011312 -0.096614026 0.021684527 0.26473743 -0.021085441 0.13003942
0.08815084 0.07227792 0.19348031 0.2205818 0.039535023 0.091533154 0.16447991 0.2407849
0.1493862 0.07968719 -0.044018585 -0.071328565 -0.12967736 -0.022281472 -0.2061002 -0.18495715
-0.09960861 -0.101442374 -0.15829276 -0.19216561 0.024946835 -0.02376338 -0.122795075 -0.26736653
-0.1313049 -0.081351966 -0.1295175 -0.06066636 -0.021740915 -0.03485052 0.16612317 -0.17689948
0.113163315 -0.22128329 -0.065340765 0.090571195 0.22094671 -0.14283118 -0.106208615 -0.0019892554
0.044550546 -0.027781716 -0.17498802 0.23928852 0.02531789 0.26347536 -0.1198518 0.03482807
-0.02053277 -0.055042867 -0.0790172 -0.11373323 0.122885115 -0.054054566 -0.025033355 0.042217184
-0.022607718 -0.2275494 0.17712983 -0.053945817 -0.24704209 -0.01128505 -0.07679108 0.024897987
-0.17822321 -0.14678575 0.1941548 0.16852067 -0.015319749 0.37749264 0.15512319 0.22985958
0.4485563 -0.0016829348 -0.09964057 -0.065259255 -0.0012878933 0.13488203 0.1253954 -0.1458576
0.09929368 -0.27754793 -0.16304843 0.1081859 0.20896311 0.106908105 0.13997677 -0.14297651
0.012440407 0.22392927 -0.023072775 -0.15488619 -0.012808803 -0.18575871 -0.03505724 -0.022274174
0.036078174 0.028426645 0.117496 0.40934145 0.24881889 0.18957764 0.34136677 0.01192228

conv1.bias f4 [10]
00000000: ecdd fa39 78b8 a038 e5ab 8fb9 a26a 9b39
00000010: d369 7f39 86a0 833a 9036 2e3a aaac 04ba
00000020: f089 f0ba 546e 7db9
0.0004784906 7.6637545e-05 -0.00027403157 0.0002964335 0.00024358118 0.0010042347 0.00066457037 -0.00050611293
-0.0018351655 -0.0002416906

bn1.weight f4 [10]
00000000: 1c6a 2c3f 1855 3a3f 5180 1a3f 59d8 0e3f
00000010: faf3 4d3f 6990 363f 9c9d 143f 5ec6 2b3f
00000020: 056f 3c3f 2c3d 223f
0.6734941 0.7278609 0.60352045 0.5579887 0.80450404 0.713141 0.5805299 0.6709956
0.736069 0.6337459

bn1.bias f4 [10]
00000000: 2904 babd 3df4 693c e2d5 9bbd 2a69 9b3c
00000010: bfce 01bf b8a2 b3be 5b44 95bd 3853 a9be
00000020: e739 adbe 257a d03c
-0.09082825 0.014279422 -0.07609154 0.018971045 -0.50706095 -0.35085082 -0.072884284 -0.33071303
-0.33833238 0.025448868

bn1.running_mean f4 [10]
00000000: 95cc be3e 7c06 b3be 70eb 953c 5c48 0cbf
00000010: cec5 a63e 54c6 a23e 53f5 183e 632b f53d
00000020: 7639 383d 9d9d 0ebd
0.3726546 -0.34965885 0.018300742 -0.5479791 0.32572788 0.31791937 0.14937334 0.11971166
0.044976674 -0.03481828

bn1.running_var f4 [10]
00000000: 7a90 a83d 6e44 ab3c 16f4 bc3c ee46 543e
00000010: 2465 a83d 6be6 993d eae2 283d 7b23 773d
00000020: d361 043d 19e5 5e3d
0.08230682 0.020906653 0.023065608 0.20730183 0.08222416 0.07514652 0.041232027 0.06033657
0.032319855 0.054417703

conv2.weight f4 [20, 10, 3, 3]
00000000: 54fc 853e f535 65bc 6d5a 45bd e58a b2bd
00000010: aa19 353d 237b 08be 431f 433e 5539 5f3d
00000020: 2592 09be 245c 26bc 491f fe3d 28fb 0e3e
00000030: edfc c63d 1c51 803d ba58 483e f6cd a03c
00000040: 2bfd 40bd fa84 913b 5fdd 423d cefe a5bc
00000050: afea 58be 55e7 04bc b66a 5cbd e030 32be
00000060: 2941 4a3e e6bf b1ba bb83 833d fa4e ac3d
00000070: 7976 95bd 0233 1a3c 2fbe 24be cee2 5ebd
00000080: e1e6 90bb 74e0 7abb 799a 2abc 9feb 3bbe
00000090: a3dc e93d 5252 a83c 111c 25bd 2c4b f9bd
000000a0: eab9 23bd 2c2e 4a3c f06e f93d d770 823d
000000b0: 02db ebbe d053 b0bd d985 273d 53e8 77be
000000c0: 33fc 93bc dedb b43d 71e3 ff3c 1756 93bd
000000d0: abf7 abbd 40d9 2b3c 32de 953d d887 4c3e
000000e0: 939a 2e3d c56a 443d d932 8cbd 3d48 60be
000000f0: 0d44 abbd 54c7 8abc 7673 9b3d 647c 66be
00000100: e06b d6bd f535 02be dc3d 9f3d e722 31bd
00000110: 4259 19be 00f5 183e d6fe 673e c2cf d63d
00000120: 0815 14be ff9d cdbc 6eb9 083c e0e0 a2bd
00000130: bc6b fdbd 6a5a 13bd 6500 6aba 566d 0b3e
00000140: 8284 3abe f791 0ebd 4c09 89bd bc60 2abd
00000150: 3dd6 1dbd 3ba7 2cbe 6266 08be a85d 853e
00000160: 1c78 363d b9fd 0b3d 2650 d43c 785b 75bd
00000170: 640d 09be 7e8c 253b 1825 76b8 3032 133d
00000180: a77a 6d3c 6fa8 00be 20e9 4fbd 5239 76bd
00000190: f690 f0bd 1c6c dbbd d401 433d 7cb4 00be
000001a0: f7cf eb3d f602 3cbe b15d 4b3d f02a b03d
000001b0: e1bd 2c3e 4103 53bd f5e1 883d cff6 163e
000001c0: 3094 123e 4748 e6bd bc69 473d 7a67 8ebd
000001d0: 1b22 5e3d 4c9f da3d 6c15 4c3d d096 633d
000001e0: 2d86 2dbd 9311 0dbe bb55 58be 5dc1 1fbd
000001f0: 18cc bfbd 34e6 1ebc ccf5 94bc 0d8d 7bbd
00000200: 8834 aa3c d67d 0abe 4cd1 603d 1d79 fd3c
00000210: 723d 8a3e 53fc bf3b 2d8e 86bd 49a0 f0bd
00000220: b87c 16be d382 b53c ffc3 083d d03e d43d
00000230: 7612 843e 2867 173d a443 373d cf5a 85bd
00000240: afad faba 6d2a 7f3d 6fab 5b3d ef91 603d
00000250: 7a06 e8bd f41a c5bd f87b 6d3e c2b3 2b3e
00000260: d11c e9bd a623 2e3d d525 983d 1490 19bd
00000270: 9357 1d3e fa09 e33b fe58 4f3d 8ca2 8bbd
00000280: f972 d7bd 1b66 04be a1b2 2dbc 456e 3d3d
00000290: bfcb 28bd ecec 10be aee5 10be 2e25 06be
000002a0: 9833 42be 2e2c f7bd 1c28 e8bd d880 7dbe
000002b0: 3098 30be 7900 21be feed b73e ccb9 fa3c
000002c0: 0b06 1c3d 9679 2c3e 57cc a63d 86b2 87bc
000002d0: 57fb 373e 52fa 9bbc 6323 77be 412b 9ebd
000002e0: 884e 863d b091 9ebd 6196 833d a52f 05be
000002f0: 61da 93bd 9f45 443e 5cdf 26bd d446 9b3d
00000300: f2d0 11be 1e72 023e 6ca4 a73e 8267 1ebe
00000310: d9cc 923d 52cd 1e3e a2c9 0d3e df7a a73d
00000320: 7477 ce3c 7a75 0dbc f3b5 cbbd e051 1a3d
00000330: 3ea4 dcbd 857c 44be 2553 313b d1e9 0dbd
00000340: 187c fdbd 46ef 6fbe 8238 bfbd 6bd8 9bbc
00000350: 1dd2 8abe a401 64be a2a1 61be e8d1 45b9
00000360: 6bba a33c 33f7 07be 40f1 a03e 895b 16bc
00000370: 2cf3 423d 8def 55be f198 dfbd ae31 4b3d
00000380: 2dd2 cfbd d6a6 8c3c c4f5 393e ed2f 47be
00000390: 715a c6bd 9ec8 dfbc b0b9 01be da3d a73c
000003a0: 9806 cabd eb77 24be 1612 8738 2f59 eebc
000003b0: 2da9 6ebb 4e9c c73d ca02 8b3d 4fa3 06be
000003c0: bfb8 7d3e 24ab aebd 68ed 84bd a7b1 2c3d
000003d0: d650 b8be 2dc9 e33b c089 303e 2ae0 633e
000003e0: 3b92 633c 1bbb 6c3b ec4e febd 6ec3 0dbd
000003f0: 519a 8ebd 0622 c1bd e510 203e 6ad1 653d
0.26169074 -0.013989915 -0.04818194 -0.08717898 0.04421393 -0.13328223 0.19054894 0.054498035
-0.13434656 -0.010153804 0.12408311 0.13962996 0.097162105 0.062654704 0.19565096 0.01962946
-0.04711644 0.004440901 0.047574397 -0.020263102 -0.21183275 -0.0081117945 -0.053812705 -0.17401457
0.19751419 -0.0013561219 0.0642161 0.08413501 -0.072979875 0.009411575 -0.16088174 -0.054415517
-0.004422054 -0.0038280757 -0.010412806 -0.18351601 0.11419036 0.020547066 -0.04030997 -0.12172541
-0.039972223 0.01234011 0.12179363 0.06369179 -0.46065527 -0.08609736 0.04089913 -0.24209718
-0.018064594 0.08830999 0.031236382 -0.07194155 -0.08396848 0.010488808 0.07317771 0.19973695
0.042627882 0.047953386 -0.06845636 -0.21902557 -0.08362589 -0.01694075 0.07590382 -0.22508389
-0.10469794 -0.12715895 0.077754706 -0.043246176 -0.14975455 0.1493721 0.22655806 0.104888454
-0.14461148 -0.025099752 0.008344991 -0.07953048 -0.12374064 -0.035974897 -0.00089264504 0.13615927
-0.1821461 -0.03480717 -0.06691226 -0.04159616 -0.03853439 -0.16860668 -0.13320306 0.26048017
0.04454814 0.034177516 0.025917124 -0.059901685 -0.13384014 0.0025260742 -5.8685517e-05 0.035936534
0.014494575 -0.12564252 -0.050759435 -0.06011326 -0.11746399 -0.107139796 0.047609165 -0.1256885
0.115142755 -0.18360505 0.049649898 0.0860194 0.16869308 -0.051516775 0.06683723 0.14742588
0.14314342 -0.112442546 0.04868482 -0.0695333 0.054231744 0.10674915 0.049825117 0.055563748
-0.042364288 -0.13776235 -0.21126454 -0.039002765 -0.093651 -0.009698439 -0.018183611 -0.061413813
0.020777002 -0.13524565 0.0548871 0.03094154 0.27000004 0.005858937 -0.06570087 -0.11749322
-0.14696014 0.022157108 0.03339004 0.10363543 0.25795335 0.03696361 0.04474224 -0.06511461
-0.0019125248 0.06229632 0.05363029 0.054826673 -0.1132936 -0.096242815 0.23191822 0.16767791
-0.113824494 0.042514466 0.07429091 -0.03749092 0.15365438 0.0069286795 0.05062198 -0.06818113
-0.10519976 -0.12929575 -0.0106016705 0.04624774 -0.041209932 -0.14152879 -0.14150116 -0.1310012
-0.18964994 -0.120689735 -0.11335775 -0.24756181 -0.17245555 -0.15722837 0.3592376 0.030606173
0.0380917 0.16843256 0.081444435 -0.016564619 0.17966972 -0.01904026 -0.24134593 -0.07723094
0.065579474 -0.077426314 0.06425167 -0.13006456 -0.07219387 0.19167183 -0.040740356 0.07581869
-0.14239863 0.12738845 0.3274263 -0.15469173 0.07167978 0.15508011 0.13846448 0.08177733
0.025203444 -0.008633966 -0.099468134 0.03767574 -0.10773514 -0.19188125 0.0027057615 -0.034646813
-0.12377185 -0.2343112 -0.0933695 -0.019024095 -0.2711343 -0.22266251 -0.22034314 -0.0001886558
0.019986352 -0.13277893 0.3143406 -0.009177097 0.047595188 -0.20892163 -0.10917843 0.049607925
-0.1014751 0.017169397 0.18160158 -0.19451876 -0.09685219 -0.027317341 -0.1266849 0.020415235
-0.09864539 -0.1606137 6.4406704e-05 -0.02909526 -0.0036416755 0.0974661 0.06787641 -0.13148235
0.24777506 -0.08528736 -0.06490594 0.04216161 -0.35999173 0.0069514723 0.17240047 0.2225348
0.0138898445 0.0036122266 -0.12417397 -0.034610204 -0.06963027 -0.094303176 0.15631445 0.056107916

conv2.bias f4 [20]
00000000: 0cd2 0d39 0972 0838 a95d 9bb8 6023 0f36
00000010: c84b ad38 be4e 7839 a779 3639 38a4 22b9
00000020: 92e9 bdb8 f113 d737 2816 0cb8 6850 45b6
00000030: 2c0d e336 b4a5 0438 8fea a838 d430 7bb8
00000040: a2a7 7f37 2a69 32b8 bc16 90b8 226a 0e38
0.00013525056 3.253113e-05 -7.4084215e-05 2.1329251e-06 8.263398e-05 0.00023680457 0.00017402192 -0.000155107
-9.055728e-05 2.5639283e-05 -3.3399236e-05 -2.940209e-06 6.7666606e-06 3.1625576e-05 8.054554e-05 -5.9888538e-05
1.52382145e-05 -4.253645e-05 -6.87069e-05 3.3954282e-05

bn2.weight f4 [20]
00000000: 40ce da3e cf06 db3e 3510 023f 18db 133f
00000010: 7c8f 043f 4467 cc3e f94f 0e3f 68fe ea3e
00000020: e27c e23e e743 ea3e a276 da3e ced6 e93e
00000030: 3f5e e13e 8d15 fb3e c8be e63e bba5 1f3f
00000040: ef8b 1a3f 3bcd b53e c1ce b33e cad9 c83e
0.4273548 0.42778632 0.5080598 0.57756186 0.5178144 0.39922535 0.5559078 0.45897222
0.44235903 0.4575493 0.42668635 0.45671695 0.44017217 0.4903988 0.4506743 0.6236226
0.6036977 0.3550814 0.35118678 0.3922866

bn2.bias f4 [20]
00000000: 7ec8 eabd 5745 51be a1ed 85be b5e3 81be
00000010: 206d 86be 1471 01bf ae32 95be 928a b8be
00000020: 9cff 87be 210f c5bd d7a6 36be 2f2b 49be
00000030: 5204 90be d9af 5bbe f010 c7bd d1b6 6dbe
00000040: a8bb f7bd 8fcf 10bf 93f2 b1be 9774 dabe
-0.11464022 -0.20436607 -0.2615786 -0.2536904 -0.2625513 -0.5056317 -0.29140228 -0.3604322
-0.26562202 -0.09622026 -0.17837082 -0.1964538 -0.28128296 -0.214538 -0.097200274 -0.2321427
-0.120963395 -0.5656671 -0.34755382 -0.42667076

bn2.running_mean f4 [20]
00000000: ca88 7abe 007f 6abe 84fb 6ebe 068c 9fbe
00000010: d8ab 61be 450a bcbe 1a79 3dbf 783b 8fbe
00000020: 9218 57be f7e3 4ebd 0785 9abe 4d9b 21bd
00000030: 89b5 9fbe 0062 f5bd 34c6 afbd ceaa 27be
00000040: 3b0a a9be 48bd 723e 166c 0d3e a340 a53d
-0.24466243 -0.22900009 -0.23338133 -0.31161517 -0.2203821 -0.36726585 -0.7401291 -0.2797506
-0.21005467 -0.050510373 -0.30179617 -0.039454747 -0.31193188 -0.11981583 -0.08582726 -0.1637375
-0.33015618 0.23705018 0.13810763 0.08068969

bn2.running_var f4 [20]
00000000: a4b5 743e a648 873e e182 8f3e 1ca3 3b3e
00000010: 29e6 b63e 26e2 f13d a398 683e e359 f53e
00000020: 36e1 3e3e 37e5 953e 8e4b 6e3e 2e0f 853e
00000030: 6878 4a3e 8c58 b43e 8d07 333e 427d 4a3e
00000040: 8b4e 823e 93ba 1b3e b82a e93d a9be 193e
0.23897415 0.26422614 0.2802954 0.1832394 0.35722473 0.118107125 0.22714476 0.4792014
0.18640599 0.2927644 0.2327101 0.25988144 0.19772494 0.35223806 0.17483349 0.19774345
0.2545055 0.15207891 0.11385101 0.15014137

fc1.weight f4 [256, 100]
00000000: 2213 313d f0be 213b cecd 263d 4b9a e73c
00000010: e2e3 8dbb 6d41 d03c 8ce1 2e3c 6a3e 0cbc
00000020: 5fe8 803b 040b 19bc ceb5 223d 655b 5d3d
00000030: f03f 603c 97bf c63d 5dfd ae3d 894c 153d
00000040: ac0b 2f3c c6f5 9b3c 80f3 033c e5e5 573c
00000050: bfcb f03c b5d6 c93c 0166 523d d695 e0bb
00000060: df84 5cbd b78b 23bb dded 3ebd 64c2 8abc
00000070: 54bd e2bd c852 b7bd bee2 593d 661b 5e3d
00000080: 15ae 083d f7e0 543d d8a8 893d 4d98 313d
00000090: 28af 5a3b 8fc6 c03c b290 21bc 9e3d 31bd
000000a0: 33bc 043d 5c43 b53c 88ed 7fbd 531f 973d
000000b0: 61db ae3d 479f 243d bae0 22bc 45fd d73c
000000c0: 03d7 6c3d b328 773b 6c83 0e3b ab6e fb3c
000000d0: 3a34 1b3d 3197 00bd 5f06 a5bc e8d2 4c3d
000000e0: a2b4 943c 25f4 5d3d 8143 4abb ff81 31bd
000000f0: adcc 3abd 6439 c83c 1fa5 bc3b 6b7d 8b3d
00000100: b6d9 ff3b 12d6 e93c d97f 963b 9b36 7d3c
00000110: f0f0 a4bc ba01 2abd f93e 093d d939 da3c
00000120: 5458 e2b9 535e 34bd 3960 97bd a81c eb3c
00000130: 1335 4a3c 7169 363a ee20 d53d 3d40 653d
00000140: 0819 893c efc2 553c 4e66 063c d9e5 b73b
00000150: ae25 8e3d 34c1 bfbc b1f1 65bd 02fc 52bd
00000160: 8843 40bd affd c9bc e305 5a3d d017 763c
00000170: 7b12 6abd 3974 96bd db1f 7bbd 2df5 693d
00000180: 1ee5 d1bc a456 7cb9 baca 223a 88a5 a2bd
00000190: 8743 663c 8c9a d03c 4ed6 0dbc 889c 583d
000001a0: 2ff2 b83c 51d7 9ab9 5741 f63c 97d0 1f3c
000001b0: 59f3 03bc 12a1 c13a c5e1 44bc 554f 59bd
000001c0: 4336 9fbd 6c7f 1fbc c1d1 b73c 5324 c43c
000001d0: 5dc7 673d 00ff 2b3d 6020 d43c 0245 2b3c
000001e0: a2f6 213d 8889 263c 5d5b f63c c605 ca3c
000001f0: 7acf 46bd 3e0f 433d cdbc dd3c bc55 9939
00000200: a94a 063d 7389 663c c0d3 95bd 2f1d 08bd
00000210: c9d5 ae3c a4d3 a6bb 2928 733b 60fd 413d
00000220: a1a7 853c 3770 173d c481 c9bb 883b 473b
00000230: 2dce babd f25d 83bd 9f56 0bbd 2ad9 303d
00000240: 485e 00bd aacf 843c 7c12 ab3c aab6 0cbd
00000250: 33cf 443d 0465 1a3d 357a dfbc 25fc 6f3c
00000260: 2f17 5c3b 15a8 813d 1144 9d3c 671e 263d
00000270: 2f11 ac3c 1873 d23c 27d4 c2bc 070e 003c
00000280: 5cc7 543d cd9e 553d 5803 883d e734 ee3c
00000290: 0cf6 90b8 f513 293d 139f 5e3d 84e7 6e3c
000002a0: e279 213c 34a6 8e3d 3400 583d e47a 043d
000002b0: edfc 41bd e66e 09bc ebc7 57bc 096f 5dbd
000002c0: 2920 013b 0c20 c9bc 9bbd 9bb9 b8ae 1d3c
000002d0: 08f2 adbd 2fee a0bd 00d1 843a 21b2 af3b
000002e0: 8e03 b53c 123a 813d 160d 73bd 20c2 7fbc
000002f0: bbff 68ba a875 44bc 2f58 713d 9315 173d
00000300: a26a ff3a 3fd4 a5bc 1bea 80bc d216 5c3d
00000310: c6ee 3d3d 8d2d a8bc 1be4 32bc d28d fa3c
00000320: 731b aa26 0020 281f 7d5b 0996 c715 0b0d
00000330: 54f0 421a 61ae 0620 bb67 8b15 4dff 8015
00000340: db13 af9f 5106 909d 340b f9a4 d5bc cea0
00000350: fcb3 1c9b 7a6b d116 0116 8a01 b5a5 b227
00000360: 7824 8a1a 0dcc 2a9b 56ca 3b9b fbbf 8b8d
00000370: f357 8c18 ae43 c517 8316 2b18 9b73 049e
00000380: 4e26 b2a5 b308 0100 5861 e491 0006 1591
00000390: 3228 158b 3c8f a612 c21d 8ba8 7395 0125
000003a0: d5cb 42a2 4334 1c1a 7b06 2782 d2cb a315
000003b0: d2ff 4913 f2bb 8d9a 2020 bf11 d47b de98
000003c0: d692 57a8 e345 b9a0 1d9b 089d 8d4a 1d13
000003d0: c752 0880 47cd 7fa8 993c f1a0 c558 58a0
000003e0: 556d 509b 7b50 219a 9ea4 059f f3c9 951d
000003f0: 36a9 2112 f8a4 0816 acee 8f9d 778e 211f
0.043231137 0.0024680458 0.040723614 0.028271815 -0.0043301443 0.025421822 0.010673892 -0.008559803
0.003933951 -0.009341005 0.039724164 0.05404224 0.013687119 0.097045116 0.08544419 0.036449943
0.010683935 0.019038092 0.00805366 0.01317737 0.029394029 0.024638513 0.05136681 -0.0068537993
-0.053837653 -0.0024955103 -0.046613563 -0.016938396 -0.11071268 -0.08951336 0.053194754 0.054225348
0.033369143 0.051972356 0.067216575 0.043358136 0.0033368561 0.02353218 -0.009861158 -0.043271653
0.032406043 0.022126846 -0.062482387 0.073790215 0.08537937 0.04019096 -0.009941274 0.026365886
0.05782224 0.0037713468 0.0021745814 0.030692419 0.037891604 -0.031394187 -0.02014464 0.050005823
0.018152539 0.054187912 -0.003086299 -0.043336865 -0.04560535 0.024441428 0.0057569887 0.06811031
0.0078079356 0.02854446 0.0045928773 0.0154549135 -0.02013442 -0.041505553 0.03350732 0.026638912
-0.0004317189 -0.044035267 -0.073914 0.028700188 0.012341755 0.0006958461 0.104066715 0.055969466
0.016735569 0.013046964 0.008203102 0.005612117 0.069407806 -0.023407556 -0.056138698 -0.051509865
-0.046939403 -0.024657099 0.05322827 0.015020326 -0.05714653 -0.073463865 -0.061309677 0.057118583
-0.025621947 -0.00024064869 0.0006210018 -0.07941729 0.014054186 0.025464319 -0.008657051 0.052883655
0.02257642 -0.00029533592 0.030060453 0.009754322 -0.008053624 0.0014772734 -0.012016718 -0.053054173
-0.077740215 -0.00973497 0.022438886 0.023943102 0.056586612 0.041991234 0.025894344 0.010453464
0.039541848 0.010164626 0.030072862 0.024660956 -0.04853771 0.047621958 0.027067566 0.0002924631
0.032786045 0.014070856 -0.07315779 -0.033230957 0.021342175 -0.0050911475 0.0037102795 0.047360778
0.016315283 0.03697225 -0.0061495025 0.0030400474 -0.09121356 -0.06414403 -0.034018155 0.043175854
-0.031339914 0.016212303 0.020882837 -0.03435389 0.048049163 0.037693992 -0.027279953 0.014647518
0.0033583154 0.06330887 0.019197496 0.040556338 0.021004288 0.025689647 -0.023782803 0.007815844
0.051947936 0.052153397 0.06641263 0.02907796 -6.912285e-05 0.041278798 0.054350924 0.014581565
0.009855719 0.069652945 0.05273457 0.03234376 -0.04736035 -0.008388257 -0.013170223 -0.05406097
0.0019703007 -0.024551414 -0.0002970517 0.009624176 -0.084934294 -0.0785793 0.0010133088 0.005361811
0.022096422 0.06309904 -0.05933865 -0.015610248 -0.00088882045 -0.011990942 0.05892199 0.03688581
0.0019486735 -0.020242808 -0.01573663 0.0537327 0.04637029 -0.020529533 -0.010918642 0.030585203
1.180356e-15 3.5601854e-20 -1.109564e-25 4.2858895e-31 4.0312395e-23 1.1407939e-19 5.630531e-26 5.210158e-26
-7.414823e-20 -3.8123014e-21 -1.08005515e-16 -3.5022716e-19 -1.2962174e-22 3.3833598e-25 5.072477e-38 4.9584585e-15
5.713438e-23 -1.4128003e-22 -1.5533656e-22 -8.612754e-31 3.6277958e-24 1.2747911e-24 2.2112598e-24 -7.0119285e-21
-3.0904034e-16 9.4956e-41 -3.603205e-28 -1.1755876e-28 -2.8726596e-32 1.0511383e-27 -1.5445005e-14 1.1239602e-16
-2.639981e-18 3.230226e-23 -1.2271082e-37 6.615675e-26 2.5495896e-27 -5.8619875e-23 3.0154285e-28 -5.751069e-24
-1.19667375e-14 -3.1386466e-19 -1.8079642e-21 1.9852942e-27 -7.64379e-40 -1.4199856e-14 -4.0867088e-19 -1.8325283e-19
-1.7240684e-22 -3.335903e-23 -2.8300014e-20 3.9648782e-21 5.101121e-28 1.1038047e-25 -3.8098566e-21 3.421092e-20

fc1.bias f4 [256]
00000000: 981c 7cbd 34ea 5abb d910 9eb5 b60b 13ab
00000010: da49 85bd 61c6 9bbc f19b e5bb d924 3dbd
00000020: 5a2b 9d3d dcf2 4c3b c95c b1bc 5487 2ab8
00000030: c286 89bc 5981 9dbc f466 9dbc 373f c1bc
00000040: c6b2 37bc 8be7 77bd 22d8 da3c 830d 55bc
00000050: 94ea 90bb cf7f 63bd 5c39 1fbc e05d 0cbc
00000060: e8b7 1d3c 897f 6da6 1833 0ebd e25a 39a7
00000070: 305d 243d 49b5 963d 2b53 9f3d 08c9 70bd
00000080: ff41 ffba 1283 b43d 97a5 e6bb 2bc3 ebb6
00000090: 9cba 3f3b 7e1a 57bd 3485 99bc a885 28bc
000000a0: e3cc 3eb9 3fb6 803d c038 acbc 4557 81bd
000000b0: 12bb b0bd 185a ca3c f24d 22bd 7866 a5ba
000000c0: 0bd5 4bbd 75bd 1fbd 73b9 b03c c068 32bc
000000d0: 4d57 05a9 60ba 49bd 954d 58bd 9c0d 86b9
000000e0: b2ba 63bd 2dfc a1b4 5b8a 87a9 4d68 8f3c
000000f0: 5c2a 483c 5793 c0bc 0731 983d 2208 c6bb
00000100: d90d f2bc 2a11 9ebc 5680 afbc 6de8 d8bd
00000110: cceb 8c3c 7efa a594 21e2 893d 0a48 fe3c
00000120: e99e 36bd 6c1c 76bb 44bc 3abd 3234 acbb
00000130: 2d06 b03c 276a 88bd b13b 869b e7e8 07bd
00000140: e735 883b ac3b 47bd a585 10bd 72db 0dbd
00000150: 8acd 933c 16f0 8ebc 7e93 413c 6b79 8d3d
00000160: 1053 13bb 1667 4e3d 776f 13bd d1a3 98ac
00000170: 1032 0ab1 2fae a6bd 9adc e7bb 26d4 87b7
00000180: f5a1 0bbb 3b98 90bd 7f65 f0bb 5bac d5bb
00000190: aa98 85a3 c170 96ad c8d4 86ba 221d 70bd
000001a0: 6767 0abd 1192 829c 7901 e43b 6d5d 51bd
000001b0: c1a3 80bc 3fde 89bc a813 59bd 3584 7b8d
000001c0: 9ed9 51bd 0d2e 88bd ba15 3abd dd52 39bd
000001d0: be37 64bd a954 26ba adbe 2dbd 6896 563d
000001e0: 2852 553d 21f1 c53c 88ce 343c e21d e0bc
000001f0: f022 86b0 0c4c 43b5 0350 c1bb c2b6 823c
00000200: bbf2 42bd 53de 88b7 43d1 1fbd 29b6 ceba
00000210: 30ea 878f 81cc b6bb ddbd 919b d84e 1aae
00000220: 376e 003d 54bb 443d 9a71 edbd 748f edb5
00000230: dd6d f9b6 9505 08bd 3321 433d a566 e8bc
00000240: a521 133d 0cf7 ee9f 6a09 99bc 3458 8bbc
00000250: 1bf5 743d 90cb 04be b949 e0bc f859 1c3c
00000260: fab2 bf3c c265 14b0 15bb 2abd d412 c7ae
00000270: 5f6a cca1 24fe 6ebc c2eb 65b8 3ff4 5a94
00000280: 609a 94bc 8347 80bd 0546 c8b3 6355 fc3c
00000290: 2bf7 acb6 6bf2 4b3d d040 acbb 7c69 9fbc
000002a0: bfdc 783d bcb4 90bd ea22 acbc 13b9 54bd
000002b0: bc33 179f 2524 71af 4924 b53d 6516 82b3
000002c0: 744e 903b 6502 85bc b0c0 c692 9726 efbc
000002d0: 07e2 12bd 1a0e 1c3d fdd6 72ba 6f43 95ba
000002e0: f5b3 bc3a 90e0 37bd d078 14ba b84e 95bc
000002f0: 023d 24bc be7c bcbd e5e1 603d c769 a7bc
00000300: 3bbc 09ab f313 1eae 365e b4bc 4554 a73b
00000310: 2d9e 35bd 1116 b49f b08c 913d 506c 6ebc
00000320: f46c 853d 78df 513d 9e6f 763d b6bd 96bd
00000330: 1201 aabd dd9c 923d 5e20 a4a1 171d 0da4
00000340: 576f 58b1 1c94 543d 3871 02bd 4c2e c03b
00000350: c363 c2bb 71cb 1abd 9f56 f5bc 57b6 953b
00000360: 6710 88bb 806d abbb b810 41b9 ebf6 15bb
00000370: 120b 4ab4 d410 b33d 1379 923d cf23 45bc
00000380: 39d0 18bd 368d 3bbb 56fe 4a3d 82d0 0fbd
00000390: 1461 d3bc 25d2 6fbc 391a d7bc 2669 feba
000003a0: 7c2e 12b0 3810 12bd 0481 efbd 92bf 0cbc
000003b0: a439 0696 a23c b0a5 637d d8bc c764 d3b5
000003c0: 0a7a 95bb ac46 ef1e 9b91 2f3d 9c00 26bd
000003d0: 8307 f4bc 148e 3f3d 9db9 c63c 6609 76bc
000003e0: 6a36 4ebc ae9e edb0 e783 e7bd a084 9b3c
000003f0: fba0 213c 8929 8dbd 6935 943d 5e41 79bd
-0.061550707 -0.0033403756 -1.1776821e-06 -5.2241143e-13 -0.06508227 -0.019015493 -0.007007115 -0.04617772
0.07674284 0.0031272685 -0.021650689 -4.0657193e-05 -0.01678789 -0.019226717 -0.019214131 -0.023589713
-0.0112120565 -0.06052355 0.026714388 -0.01300371 -0.004422495 -0.05554181 -0.009718265 -0.008567303
0.009626366 -8.2398735e-16 -0.034716696 -2.5723175e-15 0.040127933 0.07358796 0.07779535 -0.05878547
-0.0019474624 0.08814062 -0.007038783 -7.0262663e-06 0.0029255515 -0.0525155 -0.018740274 -0.010285772
-0.00018196138 0.06284761 -0.021023154 -0.063154735 -0.08629431 0.024701163 -0.039625116 -0.0012619039
-0.04976372 -0.03899904 0.021572804 -0.010889232 -2.9607654e-14 -0.049250007 -0.052808363 -0.0002556861
-0.05559797 -3.017207e-07 -6.019205e-14 0.01750579 0.0122171305 -0.023507757 0.07431226 -0.00604345
-0.029547619 -0.019295294 -0.0214235 -0.10591207 0.01720228 -1.6759544e-26 0.06732584 0.03104021
-0.044585142 -0.0037553562 -0.0455897 -0.0052552456 0.02148732 -0.06660872 -2.2207015e-22 -0.033181097
0.0041568163 -0.048640892 -0.035283703 -0.034633107 0.018042345 -0.017448466 0.01181495 0.06907924
-0.002247993 0.05039128 -0.035994973 -4.338287e-12 -2.01101e-09 -0.08138692 -0.0070758583 -1.6192043e-05
-0.002130625 -0.07060286 -0.007336318 -0.0065207905 -1.4484545e-17 -1.7103098e-11 -0.0010286802 -0.058621533
-0.03379002 -8.640436e-22 0.0069581834 -0.05111449 -0.015703084 -0.016829608 -0.05299726 -7.7504485e-31
-0.051232927 -0.066494085 -0.045430876 -0.04524504 -0.055717222 -0.0006345013 -0.04241817 0.052389532
0.052080303 0.02416283 0.011035569 -0.027358 -9.759713e-10 -7.2753824e-07 -0.0058994307 0.015956286
-0.047594767 -1.6315991e-05 -0.039017927 -0.0015770841 -1.3402234e-29 -0.005578578 -2.4110934e-22 -3.5085573e-11
0.03135511 0.048030213 -0.115939334 -1.7699626e-06 -7.433568e-06 -0.03320845 0.047639083 -0.028369257
0.035920758 -1.01205625e-19 -0.018681247 -0.017009832 0.059804063 -0.12968278 -0.027378904 0.009542935
0.023400772 -5.3986693e-10 -0.04168232 -9.052817e-11 -1.3851734e-18 -0.014586959 -5.481742e-05 -1.10543564e-26
-0.018140018 -0.0626364 -9.325962e-08 0.030802434 -5.1547736e-06 0.049791735 -0.0052567497 -0.019459479
0.060757395 -0.07065722 -0.021012742 -0.051934313 -3.2018287e-20 -2.1931663e-10 0.088448115 -6.05767e-08
0.0044038836 -0.016236493 -1.2543058e-27 -0.029193206 -0.035860088 0.038099386 -0.0009263603 -0.0011387895
0.0014396893 -0.044891894 -0.00056637544 -0.018226013 -0.010024311 -0.0920348 0.05490293 -0.02043618
-4.89334e-13 -3.594276e-11 -0.02201758 0.0051064813 -0.0443403 -7.626947e-20 0.07106912 -0.014552191
0.06514922 0.051238507 0.06016504 -0.07360403 -0.083009854 0.071588255 -1.112164e-18 -3.059914e-17
-3.1495426e-09 0.05189906 -0.031846255 0.005864894 -0.0059323027 -0.037791673 -0.02994853 0.0045688557
-0.004152346 -0.0052315593 -0.00018412143 -0.002288277 -1.8816743e-07 0.08743444 0.07151999 -0.012032463
-0.03730795 -0.0028618104 0.04955896 -0.035110958 -0.025803126 -0.014637505 -0.026257621 -0.0019409999
-5.318055e-10 -0.03566 -0.1169453 -0.008590596 -1.0842622e-25 -3.057222e-16 -0.026426977 -1.5750055e-06
-0.0045616673 2.5334339e-20 0.04286347 -0.040527925 -0.029788738 0.046766356 0.02425843 -0.015016889
-0.0125862155 -1.7289119e-09 -0.11304455 0.018984139 0.009865041 -0.06892688 0.0723675 -0.060853355

fc2.weight f4 [120, 256]
00000000: 7277 9c3b f871 323d 9977 2e9a cd11 0700
00000010: c8cf 89ba 452e 223c 2762 84bb 3eff 8a3a
00000020: 3494 debc 15b1 343b eb9a 65bc 122d 0219
00000030: a879 b73b b0a6 c33c c43f 9d3c a8e7 4639
00000040: da8f 3a35 efe5 a23c c05a 2bbc 91e6 c23c
00000050: ddb8 e230 5ea6 e23c 82fd 4b3b fc48 d73a
00000060: b5c4 f93b b022 63a4 6753 a0bb 6a8a 6f24
00000070: e84d 8cbc 36f0 bdbb ee5b 33bd 7f8a 2fbb
00000080: 325b 9fab 0791 45bc c56d 3536 5f09 4517
00000090: 6d9b 1eb8 eb8c ed3c 5f56 693c c084 073d
000000a0: b1a6 e2a3 4122 aebc 7dc5 053d 8eb7 173d
000000b0: f74f 62bc 4406 c73c e11b 373c 1b95 af0e
000000c0: 3534 d7bc 3199 93bc 1900 1f3d 40e3 53bb
000000d0: 8f05 1e80 06a9 ad3c f077 8fbb 4c33 313d
000000e0: 11e5 bf3b 446a 9315 59d3 0a80 cd95 d53b
000000f0: 6fe3 e93c 5e64 aabc e8b5 f8bc 5074 b53c
00000100: 1639 233c d771 43bd b2a6 b436 3abf 863c
00000110: c2df 193d 5d48 0300 7ce0 78bc 52cc cebc
00000120: 7327 803d 863a 073d 1c98 b4bb bc5a 083c
00000130: 42ce 173c 4666 0a3d 4624 1219 ca43 cd3a
00000140: 017e 733c e90e 073d 5dac 56bc 3872 f2ba
00000150: c2fd f53c 3820 d83b fb6e 28bc b0e6 41bd
00000160: c400 db3c c132 80bc 8905 513c 0c35 2200
00000170: 0d54 af03 ff50 edbb e5c1 423c 756a 1c11
00000180: 2172 909e 106e a0b6 33fe 3cb5 bb34 3b33
00000190: 03da 1d80 efc0 4a80 1c94 452e 20cb 833c
000001a0: 31a8 e7bb bcd5 c019 f170 21bd 6463 b238
000001b0: 7eae 58ba 8121 9a3c c001 97bc 629f 3a00
000001c0: 323e 0c3d 9d56 853c 690a 3b3c 448b f7bb
000001d0: effe 983c 800b f120 1c7f 13bb 893c 6cbd
000001e0: a15f 67bd 8c95 1d3d d7db 723c ae05 6b3c
000001f0: 98bc 0700 88f3 91b1 0a53 ffbb 508b 01bc
00000200: 2431 0abc f4dd 0b0e 34d1 bd3c 2b32 98a4
00000210: 7263 830d c4e3 f436 c716 5297 6778 4300
00000220: b168 7d3c 7a7d b6bc fe7f 863b 9f93 be8f
00000230: b7d8 0300 d68b f23c 5f9f 74bc 9798 ad3a
00000240: 4e82 a4bc 10bb 1080 129a b6bc 6470 c43c
00000250: b6f2 e3bc e5d1 603b 111f 84bc bc3a c13c
00000260: 8772 e8ba fda7 1a80 de71 133d 4521 0d80
00000270: 9aa8 1500 155d 05bc b7a7 7386 e445 2700
00000280: 9eb4 1fb9 acd5 1cbd 890b 2280 7784 c8bc
00000290: d3eb 878e 8afe fdbc d0c5 27a4 1569 19bc
000002a0: b66f 83bc 2e9d 5d3b 3794 663b 4b9c e2ba
000002b0: 6d05 b69c c9db 3d00 f3f7 35bd 3952 d099
000002c0: 5434 013c c45b d039 19d2 3c00 fa6b 9f3c
000002d0: 82eb 9bb9 2e6c dcbb 176f 4d30 c953 112b
000002e0: c9f5 bcb9 ba3d dbbb 5ba6 9129 6380 8b3c
000002f0: a4c8 d2bb 1b82 cb3c 6317 f5bb 9ad3 c8b9
00000300: 5a4b 2380 20bb 2100 bbc0 13bc e233 3f3d
00000310: ded2 0dbc ee01 0d00 80c1 44bc 317e b93b
00000320: ed1a e2bc 4c2f 6fbd 8d2d efbc 39d6 42bd
00000330: ea1a c73b 394a 0bbd 8c7d fa1e aac1 3100
00000340: fed9 1000 ebb2 a0bb 36ff b93c 18c8 bfba
00000350: 2d41 e33b 010f 1a3d 077b 203a 97be f33c
00000360: ac7c 023b 2dbe 2b3d ce0e a81d a523 4230
00000370: 9986 1080 0406 66bd f37e c6bc 0a3f d239
00000380: 56e4 8f3c 982d 533b 718c 8abd e282 3dbb
00000390: d124 78bb e11a 6f3b 2aca 8c3b 7797 332f
000003a0: 4968 d1ac 6acd ca39 316b 23bd 54ee 203c
000003b0: 8f8d 4100 8236 2225 fb2d 8d3b ed07 d71c
000003c0: d06d f831 9ca3 d51e 5da4 d0bc cf6f 04bc
000003d0: ffa7 d13c 022d 97bd 6d10 a4bb f05a d3bb
000003e0: 3af9 a035 c42e 1eb0 c5e2 253c 25e5 f83b
000003f0: 92c0 5a3c e085 4fbc f40f 15bd c8f0 54bc
0.004774981 0.04356572 -3.6078967e-23 6.49234e-40 -0.0010514194 0.009898727 -0.004040021 0.0010604633
-0.027170278 0.002757137 -0.014013986 6.729944e-24 0.0055992194 0.023883194 0.019195445 0.0001896905
6.949973e-07 0.019885032 -0.010458648 0.023791583 1.6496206e-09 0.02766722 0.0031126444 0.0016424949
0.0076223263 -4.925216e-17 -0.004892755 5.1942105e-17 -0.017126992 -0.0057964576 -0.043788843 -0.002678543
-1.1322941e-12 -0.012058503 2.7034996e-06 6.366596e-25 -3.7814887e-05 0.028997859 0.014241784 0.033085585
-2.4573566e-17 -0.021256568 0.032659043 0.037040286 -0.01381301 0.02429498 0.01117608 4.3284414e-30
-0.026270011 -0.018017383 0.038818453 -0.0032331496 -2.757059e-39 0.02119876 -0.0043783113 0.04326181
0.0058561643 5.9540485e-26 -9.94172e-40 0.006518102 0.028550832 -0.020799812 -0.030360177 0.022150189
0.009962341 -0.047715988 5.383824e-06 0.016448606 0.037566908 3.01466e-40 -0.01519024 -0.025243912
0.06257524 0.033014797 -0.005511297 0.008322414 0.009265484 0.03378894 7.5553485e-24 0.0015660462
0.014861585 0.032973204 -0.013102618 -0.0018497175 0.030028228 0.0065956376 -0.010280366 -0.04733914
0.026733764 -0.015649201 0.012757667 3.141437e-39 1.0304873e-36 -0.0072423215 0.011887048 1.2339035e-28
-1.5293796e-20 -4.7811845e-06 -7.0405366e-07 4.358729e-08 -2.741437e-39 -6.865038e-39 4.492416e-11 0.016088068
-0.0070696105 1.9938661e-23 -0.03941435 8.506214e-05 -0.00082657475 0.018814804 -0.018433452 5.383635e-39
0.034239 0.016276652 0.011416056 -0.0075544436 0.01867625 4.0834598e-19 -0.0022506183 -0.05767492
-0.056487683 0.038472697 0.014822922 0.014344616 7.10503e-40 -4.2477417e-09 -0.0077918814 -0.00790675
-0.008434568 1.723994e-30 0.023171045 -6.600448e-17 8.097439e-31 7.298282e-06 -6.788341e-25 6.19617e-39
0.015466855 -0.022276629 0.0041046133 -1.8792308e-29 3.53249e-40 0.029607695 -0.014930575 0.0013244328
-0.020081665 -1.536473e-39 -0.022290263 0.023979373 -0.027825695 0.0034304794 -0.016128095 0.023587577
-0.0017734327 -2.447986e-39 0.035997264 -1.205796e-39 1.989028e-39 -0.008139868 -4.5826438e-35 3.606656e-39
-0.00015230707 -0.03828971 -3.126545e-39 -0.024477227 -3.350716e-30 -0.031005163 -3.6379906e-17 -0.009363432
-0.016044479 0.003381561 0.0035183558 -0.001728901 -1.2045152e-21 5.68081e-39 -0.044425916 -2.1539905e-23
0.007886011 0.00039741222 5.585499e-39 0.019460667 -0.0002973937 -0.006726763 7.4736434e-10 5.1630624e-13
-0.00036041279 -0.006690708 6.4681516e-14 0.017028993 -0.0064326096 0.024842313 -0.0074795946 -0.00038304628
-3.241273e-39 3.097699e-39 -0.0090181185 0.04668034 -0.008656232 1.194554e-39 -0.012009025 0.005660795
-0.02760073 -0.058394715 -0.029196525 -0.04756758 0.0060762065 -0.03400633 2.6521705e-20 4.569413e-39
1.547569e-39 -0.004904141 0.022704702 -0.0014631776 0.00693526 0.037611965 0.0006121848 0.029753966
0.0019910736 0.041929413 4.4484537e-21 7.0627443e-10 -1.517652e-39 -0.05615808 -0.024230456 0.0004010129
0.017564934 0.003222322 -0.06765068 -0.0028917124 -0.003786374 0.0036484527 0.004296561 1.6333766e-10
-5.9517152e-12 0.00038681488 -0.039897148 0.009822447 6.020089e-39 1.4069728e-16 0.00430846 1.4229555e-21
7.230234e-09 2.261992e-20 -0.025469 -0.008083298 0.025592802 -0.073816314 -0.005006841 -0.0064500496
1.1993463e-06 -5.7546523e-10 0.010124867 0.0075956755 0.013351576 -0.012666196 -0.036392167 -0.01299686

fc2.bias f4 [120]
00000000: 14ce 853d d6a6 883d 4e5b 0d3e 5fa3 873d
00000010: 0f9b 4a3d 55c6 053e cf4e 563d e0a7 743d
00000020: eb04 683d d20b 023e 15c0 9f3d fb95 ff3d
00000030: 7fa6 f83d e564 b73d e633 c03d c6e3 1a3e
00000040: 9993 dc3d 8517 273e 007c 003e 60af 2c3d
00000050: 3345 513d 6548 9a3d 9883 583d cdb1 af3d
00000060: bc78 f93d 955f 183e 18b8 5e3d 9bd1 a03d
00000070: b1f5 c33d 3000 b73d 3741 ac3d d676 c93d
00000080: d42c 2a3e 9d56 d83d d714 113e 46ce 0c3e
00000090: 16e2 d93d a401 f83d 2914 e73d 4ff7 663d
000000a0: 3e84 153d 60ea 863d c405 e73d 5e6f 433d
000000b0: c3be bf3d adc3 963d e467 a53d 59a4 8d3d
000000c0: 6324 033e 28e7 9639 4272 ab3d 01b0 b73d
000000d0: f360 933d 7bec 083e e57a c63d f497 8e3d
000000e0: b03a 5a3d e90a dc3d cb21 833d 7698 743d
000000f0: c8bd 8b3d 4c87 993d 5d85 aa3d ac64 733d
00000100: b428 053e 28bb 083e a2b0 753d b611 e33d
00000110: 51c9 9e3d 0b6f 5f3d b995 a83d 0ac5 613d
00000120: d44a 593d 13c6 b53d 38d7 b13d 6618 a43d
00000130: adbf 623d 6f37 bb3d 26d5 113e b00a 103e
00000140: ffe3 0dbb 40e9 813d 3f0a 6f3d 361b 82bb
00000150: 7a3b b53d f489 c43d d7fe 3e3d 41f2 063e
00000160: 7112 9a3d 25e1 d73d 3706 ee3d 06d0 053e
00000170: 7905 963d a4c2 913d f54d 8a3d 6680 733d
00000180: a73e b53d 10d4 673d 35ff c23c 26b9 823d
00000190: 8656 ab3d 329f 783d af8c 763d 25fe 8eba
000001a0: 7ed8 0c3e c587 793d 4f80 a93d 751b 9e3d
000001b0: 036e 473d 60c9 a43d 78b4 c03d a514 3b3d
000001c0: 7959 aa3d 4f4e 9a3d 8464 683d a3b8 083e
000001d0: 026c 813d c9a9 be3d 7036 0f3e 2163 453d
0.06533447 0.066724464 0.13804361 0.066229574 0.04946428 0.13063939 0.05232125 0.05973041
0.056645315 0.12699822 0.078003086 0.124797784 0.121411316 0.08954791 0.09384899 0.15125951
0.107703395 0.16317566 0.12547302 0.042159438 0.051091384 0.075333394 0.052859873 0.08578835
0.121812314 0.14880212 0.054374784 0.07852479 0.09568346 0.08935583 0.08410876 0.09837119
0.16618663 0.10563395 0.14168106 0.13750562 0.106388256 0.12109688 0.11283142 0.056388196
0.03650307 0.06587672 0.112803966 0.04771363 0.09362557 0.07361541 0.08076456 0.069161125
0.12806849 0.00028782454 0.08371402 0.08969117 0.07196226 0.1337146 0.09691409 0.069625765
0.053278625 0.107442684 0.0640293 0.05971571 0.06823307 0.07496509 0.08326218 0.05942218
0.13003808 0.13352644 0.059982903 0.110873625 0.07753242 0.05454926 0.08231682 0.05511955
0.053049877 0.0887567 0.08683628 0.08012466 0.055358578 0.091414325 0.14241466 0.14066577
-0.002165079 0.06343317 0.05835938 -0.003970529 0.08849235 0.09596625 0.046629753 0.1317835
0.07523049 0.1054099 0.11622279 0.13067636 0.073252626 0.07117203 0.067531504 0.059448622
0.088498406 0.056598723 0.023803333 0.063829705 0.083661124 0.060698695 0.06019276 -0.0010909481
0.1375446 0.060920496 0.08276426 0.07720081 0.0486889 0.08046222 0.09409422 0.045673985
0.08317847 0.075344674 0.056736484 0.13351683 0.06319429 0.09309728 0.1398561 0.04819024

fc3.weight f4 [1, 120]
00000000: eade cebd 610b d0bd ae2c 583e 076d 88bd
00000010: f9eb d2bd 676d 5d3e 0a4b e1bd 53ff bcbd
00000020: 7007 0cbe 853c 5d3e 1100 06be d637 643e
00000030: 4842 4f3e 7cc4 823e 787e 02be ae37 5a3e
00000040: 568a edbd bd15 813e 177b 733e d543 9fbd
00000050: 4f8e eebd 7341 04be 9a58 84bd 4572 0fbe
00000060: e352 5d3e a30c 693e 9e60 dcbd 2b60 9bbd
00000070: 1025 03be efee d0bd 4884 01be e88d 223e
00000080: f7b7 873e 6576 493e b462 813e 55e4 633e
00000090: 9799 353e 7f1d 623e 1e77 403e 9142 fcbd
000000a0: 894a afbc f216 08be 4268 683e 193c e0bd
000000b0: 3258 04be 06e7 b7bd 17b3 f1bd 8efd f4bd
000000c0: 714a 7c3e 1729 e838 7ad5 c8bd 8e6f 0ebe
000000d0: f180 c3bd 73b3 393e 7c9a 593e 59d2 cbbd
000000e0: 3bcb 92bd 6185 693e c4ed 01be a81a 0cbe
000000f0: 5e27 d2bd 51c4 dfbd 3908 16be e614 babd
00000100: e904 5f3e 41dc 683e d7bb c8bd 5f82 06be
00000110: de8f ccbd 981b 8abd a15e f9bd 0de6 acbd
00000120: fdc4 cfbd 318d 11be 57f9 463e d6c5 01be
00000130: 827e 8fbd d5e6 d5bd 435b 833e 29ff 7e3e
00000140: 537f 8ebb 3b6e b2bd d269 f6bd a0a6 823c
00000150: 2930 12be 7d89 f5bd 17b3 febd b592 493e
00000160: d7de 06be d986 443e 6f11 5f3e 57f9 5c3e
00000170: 4754 e9bd 3694 dcbd 2ecf b3bd 8530 b6bd
00000180: b1be ebbd 08fb f6bd f2a2 aabd 9971 e8bd
00000190: 87e4 01be 87ff eabd e42c bbbd 90b5 8336
000001a0: caa4 6f3e 0625 a3bd 9869 05be f760 cebd
000001b0: 47b7 e8bd 6ad0 04be 761d 2a3e 945d b0bd
000001c0: c6cc 0ebe 69b9 03be cb2c edbd c198 693e
000001d0: f587 e2bd a457 14be 845e 4e3e 4bbf d3bd
-0.10101111 -0.1015842 0.21110794 -0.0666142 -0.102989145 0.21623765 -0.11000641 -0.09228387
-0.13674712 0.21605118 -0.13085963 0.22286925 0.20240128 0.2554053 -0.12743556 0.21310303
-0.11598651 0.25211897 0.23777424 -0.0777661 -0.11648237 -0.12915592 -0.06462212 -0.14008434
0.2161365 0.22758727 -0.10760616 -0.07586702 -0.12807107 -0.10201823 -0.12648118 0.15874445
0.26507542 0.1967407 0.25270617 0.2225507 0.17734371 0.22081564 0.1879544 -0.12317384
-0.021397846 -0.13290003 0.22696021 -0.10948963 -0.12924269 -0.08979611 -0.11801737 -0.11962424
0.24637772 0.00011070276 -0.098063424 -0.13909742 -0.09546078 0.1813486 0.21250337 -0.0995223
-0.071676694 0.22804786 -0.12688357 -0.13682044 -0.10261415 -0.10926116 -0.14651574 -0.09086017
0.21779217 0.2274027 -0.098014526 -0.1313567 -0.09988378 -0.06743544 -0.12176252 -0.08442316
-0.101449944 -0.14214016 0.19431053 -0.12673125 -0.07006551 -0.10444418 0.25655565 0.24902023
-0.0043486743 -0.08712431 -0.120319024 0.015948594 -0.14276184 -0.119891144 -0.124365024 0.1968487
-0.13170944 0.19192065 0.21783994 0.2157949 -0.11393028 -0.107704565 -0.08779751 -0.08895973
-0.11510981 -0.12059599 -0.083318606 -0.11349792 -0.12684833 -0.11474519 -0.091394216 3.925241e-06
0.23402706 -0.07966046 -0.13028562 -0.10077088 -0.113630824 -0.12970129 0.16612801 -0.086115986
-0.13945302 -0.12863697 -0.11580809 0.22812177 -0.11061088 -0.14486557 0.20153242 -0.103392206
