k_fold_model_1/model4.pt (torch, 242935 bytes, 17 tensors)

conv1.weight f4 [10, 1, 15, 3]
000000 e1 e4 eb 3c 60 82 19 be 0e 08 e5 3d ca 1a 45 3e
       0.028795661 -0.1499114 0.11183177 0.192485
000010 29 a9 3b be bd 3e 95 bd 1c 1b dc 3e 50 44 aa 3d
       -0.18326248 -0.07287357 0.42989433 0.08313811
000020 13 43 70 3e d1 eb ad 3d 5e 93 8a bb d6 ab f6 3e
       0.23463087 0.08492244 -0.0042289933 0.48177975
000030 92 fb 35 be 4a 92 30 bd d0 f0 e4 3d 7c 93 c0 bd
       -0.17771748 -0.043108262 0.11178744 -0.094031304
000040 22 d3 c5 3d ed 08 7c be a2 1b d7 bd 64 db ec 3c
       0.09659411 -0.2461278 -0.105033174 0.028913207
000050 d6 3f 83 be e5 2c 08 3e 55 4a 7b 3d 36 a3 58 3d
       -0.2563464 0.13298376 0.061350185 0.052890025
000060 f0 fc 7d b9 23 5f 2d bd 1b 03 b4 bd 4a 6e 0d 3e
       -0.00024222187 -0.042327058 -0.08789655 0.13811603
000070 1a a1 df 3d ec 98 85 3e ba 07 23 be 51 5f 3c bb
       0.109193996 0.26093233 -0.15920916 -0.0028743336
000080 f5 7b 3a be c2 39 46 3d a0 c6 f5 bd 15 5b d3 bd
       -0.18211348 0.048394926 -0.12000775 -0.10320107
000090 24 88 a7 3d fc d6 eb bc f9 a4 61 3d f7 a1 14 3d
       0.08180264 -0.028789036 0.05508897 0.036287274
0000a0 df 6f 03 3e ce 83 7b 3e 88 11 0a be 50 7d 27 be
       0.12835644 0.24561998 -0.1348325 -0.16356397
0000b0 d7 f7 f1 bc 01 c6 75 3e 2f 3b dc bc 69 1e c3 3d
       -0.029537125 0.24001314 -0.02688369 0.09527285
0000c0 fc 76 02 be 2d 69 42 3e d2 55 95 be 2c 36 9b 3d
       -0.12740701 0.18985434 -0.29167038 0.07578692
0000d0 78 97 61 3d 60 5a 99 be 2a 7e d7 bd da 53 95 3d
       0.055076092 -0.29951763 -0.10522111 0.07291384
0000e0 e8 9e df bd c8 e7 dd 3d a5 60 8c 3e aa c5 7d be
       -0.10918981 0.108352244 0.27417484 -0.24782434
0000f0 6b e3 3c bc 29 a5 26 3e f7 c9 53 bd 1a 5c cb 3a
       -0.01152883 0.16273941 -0.05170628 0.0015515119
000100 5f 95 8d 3d 6c 37 a7 3d de ef 62 be 8e 56 7a be
       0.06913256 0.08164868 -0.22161815 -0.2444708
000110 9b 24 85 be cc e7 0e be c0 a6 57 bd 65 5a 5d 3d
       -0.2600449 -0.13955611 -0.05264926 0.054041285
000120 35 73 25 be 6d fe 3b 3e 63 b4 74 3d ea 6a a4 bd
       -0.16157229 0.18358774 0.059742343 -0.08028205
000130 f5 49 41 3e 06 95 15 be 6f df df bd e8 f9 80 bd
       0.18875869 -0.14607629 -0.109312885 -0.06297666
000140 d2 14 4a 3c 94 ee ac 3d 78 0e 88 be cb c4 17 3e
       0.0123340655 0.08443943 -0.2657354 0.14821164
000150 d7 fb 84 3c f8 11 4c bd 0f 36 80 bd 5d 0a 96 be
       0.016233368 -0.049821824 -0.06260311 -0.29304782
000160 a5 e4 28 3e 3a 21 13 3e 5d 88 a4 be 17 b1 b5 bd
       0.16493471 0.14368144 -0.32135287 -0.08871668
000170 ce 76 ec 3c 83 cd 8f 3d bd 9c 3b 3e 09 e2 4c 3d
       0.028865244 0.0702162 0.1832151 0.05002025
000180 57 bc 89 bd 9a 88 5c bc 6e 42 bc 3d a7 3f ec bd
       -0.06725376 -0.013460303 0.09192358 -0.11535578
000190 ff fa 54 be c6 ab 38 be 67 45 55 bd 2c 25 04 be
       -0.20798872 -0.18034276 -0.05206814 -0.12904805
0001a0 c7 47 cc 3d 15 8f 15 3d cf 41 5c bd bc bc ff bd
       0.09974628 0.036513407 -0.053773697 -0.1248717
0001b0 9b 32 af bd af 3e 34 3e 7c 9b af 3d ca 1f 39 be
       -0.08554574 0.17602037 0.08574578 -0.18078533
0001c0 b0 f4 ad bc 35 3b af bd b4 1b bc bd 4a d5 aa 3d
       -0.02123484 -0.08556215 -0.091849715 0.08341463
0001d0 ef ff f2 bc bc 68 53 bd 3d 46 d3 3c 17 d5 04 3e
       -0.029663054 -0.051613554 0.025790328 0.12971912
0001e0 d6 6a aa bd 54 a0 27 3e bb 00 2c 3e 68 a2 24 bd
       -0.083211586 0.16369754 0.16797154 -0.040193945
0001f0 09 95 1e be d2 e7 9f be 7e 4e 67 be 51 c9 98 bb
       -0.1548654 -0.31231552 -0.22588536 -0.0046626707
000200 f7 09 f4 bb a2 e7 65 3e ed 3f 60 bd d2 0b 37 3e
       -0.007447477 0.22451642 -0.054748464 0.17875603
000210 10 54 23 3f c5 55 53 3e db 48 f8 3d 42 2f 00 3d
       0.63800144 0.20638187 0.12123271 0.03129507
000220 75 5f 81 3e ce 80 9b 3d c2 74 f8 ba 2c 7c 46 bd
       0.2526814 0.07592927 -0.0018955695 -0.048458263
000230 d5 cc a1 bd 9f b8 31 3d b9 bc 91 bc 91 1a 5f bd
       -0.07900397 0.04338896 -0.017790185 -0.054468695
000240 95 86 c0 3c bd 11 f2 bd e5 72 6e be 41 80 7d bd
       0.023501674 -0.118197896 -0.23286016 -0.06188989
000250 85 7d 5a bd 5c 75 c3 bb a5 d5 89 bd 2b 4d 2b 3d
       -0.05334236 -0.005964918 -0.067302026 0.04182164
000260 14 07 47 3e ce 1b 42 3e bc 6e c0 3e 9f bf d2 3e
       0.19436294 0.18955919 0.37584484 0.4116182
000270 07 7b 15 be 76 3c b4 3d f3 0e a6 3e 63 d1 fe 3d
       -0.14597712 0.088005945 0.3243328 0.12442281
000280 65 39 2e bc 04 a0 35 3e 0f a3 c6 3d 3e 5c 81 be
       -0.010633801 0.17736822 0.0969907 -0.25265688
000290 7a 8b 0f be ae 09 13 be 77 18 8f bc 4d ac 0e bc
       -0.1401805 -0.14359161 -0.01746772 -0.008708072
0002a0 45 3c 19 be ca 79 bd bd 81 62 f7 bd eb e4 b7 bd
       -0.14964397 -0.09251745 -0.12079335 -0.089792095
0002b0 28 dd f1 3c d3 65 26 be c2 dd e4 bd 1f 94 1a bd
       0.0295244 -0.1624978 -0.111751094 -0.037738916
0002c0 f6 01 d0 3d 39 87 06 be 47 af ea bd b5 e6 9a 3b
       0.10156624 -0.13137521 -0.11459213 0.0047272095
0002d0 fc 77 10 3e fe 32 dc bd 14 0e 4c 3e da ae 28 3e
       0.1410827 -0.107519135 0.19927245 0.1647295
0002e0 da e4 9d be f7 41 19 3d cc 50 c8 bc a6 77 2a 3e
       -0.30838662 0.037416425 -0.02445259 0.16647205
0002f0 d7 3e e0 be 20 2a 42 3e dc af 8b 3e f3 e6 0b 3e
       -0.43797943 0.18961382 0.27282608 0.13662319
000300 13 60 d9 bc 8d 32 4f bd 27 d8 21 3d bf 64 a9 bc
       -0.02653507 -0.05058532 0.03951278 -0.020677922
000310 55 03 4b bc f5 2b 79 bd cc a8 eb bd 14 0c 0f bd
       -0.012390931 -0.060832936 -0.11506805 -0.034923628
000320 84 1f a7 3c 35 32 2e bd d8 46 8e bd a8 61 2a 3e
       0.02040077 -0.04252835 -0.06947106 0.16638815
000330 fd 78 14 bd ab bc e5 bd 02 51 0b 3e 02 dc 37 3d
       -0.036248196 -0.11217626 0.13605121 0.04488755
000340 af ef 4c 3c c6 04 52 bd 1d 5d af be 2b 24 9d 3d
       0.012508317 -0.051274084 -0.34250727 0.07672914
000350 b2 a0 09 be 8d 7b 0b bd 9c fe 86 bd d5 d6 77 be
       -0.13440207 -0.034053374 -0.06591532 -0.24203046
000360 55 99 b6 3e 0a 29 ca 3b 38 87 4d 3e 91 26 6d 3e
       0.35663858 0.006169443 0.20071113 0.23159243
000370 fa 4a c0 bd 2d ca a4 3e ac 75 6f 3d cf 9d 86 be
       -0.09389301 0.32185498 0.05846183 -0.26292273
000380 05 a6 73 bd 90 96 1d 3d 35 5a 29 be 45 27 9e 3e
       -0.0594845 0.038473666 -0.16538318 0.30889335
000390 ad 99 b7 bd 67 00 b4 3d 42 24 2a 3e 47 80 6c bd
       -0.08964858 0.08789139 0.16615394 -0.057739522
0003a0 cc 7e 79 3e e3 a7 db be d2 cc 83 3e b5 f5 2e be
       0.24364775 -0.42901525 0.25742203 -0.17085917
0003b0 2b b8 82 3c 1f eb 18 3d 38 ca c8 3d e3 4b 52 3e
       0.015956959 0.037333604 0.09804195 0.20536761
0003c0 71 79 4f be e2 5c 69 3d 59 5f 01 bd 47 79 4c be
       -0.2026117 0.056973346 -0.03158507 -0.19968139
0003d0 b2 94 24 3e 1e b2 f8 bc 07 51 ab 3c dd dd 66 3e
       0.16072348 -0.03035837 0.02091266 0.22545572
0003e0 b0 c6 0b bd 3c 18 46 b6 25 0e 06 be b6 d2 5c bd
       -0.03412503 -2.9518405e-06 -0.13091333 -0.053911887
0003f0 21 59 2e 3d bf 38 20 bd 93 94 99 3c e7 05 c6 3d
       0.04256547 -0.039116617 0.018747604 0.096690945

conv1.bias f4 [10]
000000 e0 6e 2a 3a 72 56 ab 3a 49 d8 f3 b9 46 87 1d 3a
       0.0006501507 0.0013072027 -0.00046509717 0.0006009232
000010 38 19 a5 b7 ce 0c d4 38 c8 9c 5c 36 2d 21 17 b9
       -1.9681276e-05 0.00010111333 3.2873813e-06 -0.00014412841
000020 42 d5 11 bb 8f e3 30 ba
       -0.0022252356 -0.0006747776

bn1.weight f4 [10]
000000 74 21 2e 3f fe 11 1c 3f b6 ec 2d 3f d3 41 22 3f
       0.68019795 0.60964954 0.6793932 0.6338169
000010 25 06 22 3f 96 01 24 3f 2a ea 2a 3f ab c9 17 3f
       0.63290626 0.6406492 0.66763556 0.59292096
000020 d0 02 37 3f c4 72 1f 3f
       0.71488667 0.62284493

bn1.bias f4 [10]
000000 81 dd 5f be 70 43 34 bb 9b 2f 29 be 5d 70 91 bd
       -0.21861841 -0.0027506016 -0.16522066 -0.0710151
000010 3d ab ea bd 38 d6 b3 be b1 0d 7e be 7f 23 82 be
       -0.11458442 -0.35124373 -0.2480991 -0.25417706
000020 ad 88 b9 be 52 b7 c6 be
       -0.36237088 -0.38811737

bn1.running_mean f4 [10]
000000 25 25 ed 3e be d8 02 bf 0a 23 9c bd 34 f5 b1 3d
       0.46317402 -0.5111197 -0.07623871 0.08689347
000010 93 6d d0 3d f8 77 6f 3e 5a 2d aa 3e ca 3c 83 3e
       0.101771496 0.23385608 0.33237725 0.25632316
000020 80 ef 5b ba 99 78 d9 be
       -0.00083898753 -0.4247482

bn1.running_var f4 [10]
000000 84 bd 8d 3d 0e a8 16 3d 89 54 52 3d ef 69 0b 3e
       0.06920913 0.036781363 0.05135015 0.13614629
000010 27 bc f4 3c 39 94 89 3c 28 d8 97 3d 7e 42 3d 3d
       0.029874874 0.01679431 0.074142754 0.04620599
000020 96 f4 b2 3c c3 c6 67 3d
       0.021845143 0.05658604

conv2.weight f4 [20, 10, 3, 3]
000000 cb 59 de 3c ba 4d bf 3c f3 2c 07 3d 27 b7 76 bd
       0.027142426 0.023352493 0.03300185 -0.06023326
000010 b9 17 9e 3d 8b a0 1f 3d 92 b3 88 3c d0 5f 2a 3e
       0.077193685 0.038971465 0.016687188 0.16638112
000020 3e 7a d0 3b 80 6c f7 bd 20 04 85 bd cd e6 55 3d
       0.0063622287 -0.120812416 -0.064949274 0.052222062
000030 3f 0c f2 3d 2e 36 2c be 66 1b ec bd 45 47 47 3d
       0.11818742 -0.16817543 -0.11528663 0.048651952
000040 10 93 1a be 6b df 19 bd 5c 79 b5 bd 6f d2 12 be
       -0.15095162 -0.037566584 -0.08861038 -0.14338087
000050 5a e4 40 be 2d a3 44 be 0f 3b c3 bd e6 55 14 3e
       -0.18837109 -0.19202872 -0.09532749 0.14485893
000060 06 af 68 be 38 44 28 3e db f6 63 3e 95 72 92 3d
       -0.22723016 0.16432273 0.22262137 0.07150761
000070 62 cc 1b bb 91 0b 9c bd de 86 73 be e3 17 05 bd
       -0.0023772945 -0.076193936 -0.23781916 -0.032493483
000080 b2 b5 71 3b e9 f2 1f 3d 56 d2 93 bd 9b f2 f8 bd
       0.003688198 0.039050017 -0.07217853 -0.12155648
000090 f2 8d c5 3d 7d 34 81 bd 48 e3 b5 3d 29 a4 7a be
       0.096462145 -0.063088395 0.08881241 -0.24476685
0000a0 4f 5a ed bc 56 0d 94 3c 60 3c 16 bc 39 9f ae 3b
       -0.028973727 0.018072765 -0.009169668 0.0053290394
0000b0 03 43 1e 3e 70 97 23 b8 c3 e1 78 3d 91 5d 29 bd
       0.1545525 -3.9003266e-05 0.06076218 -0.041348998
0000c0 c7 8f 3e be a1 f2 fa bd a4 c9 af 3c 54 1a 3c bd
       -0.18609534 -0.12253309 0.021458454 -0.045923546
0000d0 18 69 75 bd 23 44 8e bd 16 20 9b 3d 6f 66 b4 bc
       -0.05991468 -0.0694659 0.07574479 -0.0220215
0000e0 29 b4 d9 3d f5 d7 aa bd 3e 86 bc 3d 04 95 96 3e
       0.10630066 -0.08341972 0.09205292 0.29410565
0000f0 2f 28 ac bb 18 9e 25 bd 50 6c 0a bd 1a 46 45 3d
       -0.0052538137 -0.040433973 -0.0337947 0.048162557
000100 cf 4c 1a be 49 c6 b8 bd 99 4c 04 be 5f 25 a3 3d
       -0.15068363 -0.09022195 -0.12919845 0.07966112
000110 fe 5c c6 3d 27 fa 24 3c be 38 9e bd ba fb 7c bd
       0.096857056 0.010069407 -0.077256665 -0.061763503
000120 6f 74 76 3d 53 9e 52 3d 2e ea 1b be 51 ba fd 3b
       0.060169633 0.05142052 -0.15226051 0.007743158
000130 46 93 80 bd 11 38 88 bd ca 10 38 3d e3 c8 22 be
       -0.0627809 -0.06651319 0.044937886 -0.15896945
000140 4f e2 55 be 2c 7d 8d bd 05 6c 86 3e 0e 5a c9 bc
       -0.20887111 -0.0690864 0.26254287 -0.024579074
000150 ef 5f b1 bd 0a 9d 00 bd 33 ce 30 be 2b ad 17 3e
       -0.08660876 -0.031399764 -0.17266159 0.14812152
000160 f3 c6 be 3e ed f0 8d 3d 8c f8 b2 3d 68 4f 49 3d
       0.3726116 0.069307186 0.08738813 0.049147993
000170 27 0c 1e be b6 17 7e be 18 09 40 bd 97 a6 b6 be
       -0.15434323 -0.24813733 -0.046883672 -0.35673973
000180 cb 2d 7d 3e 5d 13 6b 3e 3c 5c 2c bd c2 7f 0a 3e
       0.247245 0.22956605 -0.04208015 0.13525298
000190 72 9d 05 3c b8 75 87 3d f8 aa 9d 3d 1f c1 90 bd
       0.008155214 0.0661425 0.07698625 -0.07068085
0001a0 76 0e f9 3d 3f 9a 6a bd 59 f1 73 3d 3a 47 07 3e
       0.12160961 -0.057276007 0.05955634 0.13210765
0001b0 fc 18 cf bc 88 ab 2f 3c cf 97 01 be 11 06 4e be
       -0.025280468 0.010722049 -0.12655567 -0.20119502
0001c0 99 02 0c bd 84 38 b1 3c 0e 96 91 3e 7f 5d d3 3d
       -0.034182165 0.021633394 0.28434795 0.10320567
0001d0 4f fa c7 bc 0d ef 55 3c 23 1c 13 be 79 91 71 be
       -0.024411349 0.013057482 -0.14366202 -0.2359065
0001e0 91 fa 47 3b e0 86 26 bd 64 5d 9f be 99 ff 4a be
       0.003051434 -0.04065597 -0.3112594 -0.19824065
0001f0 dd 3d 42 3d 2d e5 f7 bd 31 ef 0e 3e c4 42 1c 3e
       0.04742228 -0.12104259 0.13958432 0.15259844
000200 c9 84 22 3e 5b f7 72 3e 30 93 c6 bc b7 ce 8b bd
       0.15870966 0.23727171 -0.024240106 -0.06826537
000210 60 97 99 3c fb 87 77 bd c7 9f 5e bb 06 ef db 3d
       0.018748939 -0.060432415 -0.0033969746 0.107389495
000220 28 b3 85 3d 41 36 4a 3e 1e 3e ba bd ec b0 82 bd
       0.06528312 0.19747259 -0.09093879 -0.063814014
000230 88 98 1d bd 36 92 29 3e 91 fa 51 bd 38 98 81 3c
       -0.038475543 0.16559681 -0.05126435 0.015819654
000240 d2 9a 67 bd fb 1e af bc 60 60 b2 3c b2 91 00 3e
       -0.056544133 -0.021377077 0.02177447 0.12555578
000250 b3 ca 9d 3c 73 38 18 be eb 66 04 3e 90 a2 cc 3c
       0.019261694 -0.14865284 0.12929885 0.02497986
000260 d9 23 4c be fa 15 f4 3c d1 97 50 bd 45 f5 04 bc
       -0.1993555 0.029795635 -0.050926033 -0.008115117
000270 3c b1 3d be 42 bc 11 bd 0e 27 f3 3d 4a 97 6c 3e
       -0.18524641 -0.035579927 0.118726835 0.23104587
000280 92 9e 88 bc 7f 6a ec bb dd 5c eb bc eb a7 2e bd
       -0.016677175 -0.0072148438 -0.028730804 -0.042640608
000290 69 08 c8 bc e4 2e 11 3e 85 51 a4 bd a6 ae 8a bd
       -0.024418073 0.14178044 -0.08023361 -0.06771593
0002a0 a6 65 5b bd 62 98 93 bb 32 01 fa 3d 6e be e7 3d
       -0.053563736 -0.0045042494 0.12207259 0.113156185
0002b0 61 6a 20 bd 11 14 dd bc 73 d5 89 be 91 e5 d5 bd
       -0.03916395 -0.026987107 -0.2692066 -0.10444177
0002c0 41 68 2a bd e8 9f 9c bd d8 65 8e bd 8c 77 25 be
       -0.04160333 -0.07647687 -0.06953019 -0.16158885
0002d0 4e a8 9f bd 48 ce 1b 3c 34 23 c1 bc 02 a2 12 3c
       -0.077957734 0.0095096305 -0.023576356 0.0089497585
0002e0 04 bf 95 3d 64 5f ef 3d d2 7c 13 3e 03 33 e8 3d
       0.07311824 0.11688116 0.14403084 0.11337855
0002f0 f1 e1 67 be e1 f2 d2 3c 7c cb 24 bd 56 1c 8f bd
       -0.22644784 0.02575058 -0.04023312 -0.069878265
000300 db b1 46 3d ac 8c 43 bd eb 0d a5 3d a2 54 3e be
       0.04850946 -0.047741577 0.08059295 -0.18586972
000310 af 22 aa bd 22 f9 12 3e 8c 8b 3e be 39 17 17 be
       -0.083073966 0.14352849 -0.1860792 -0.14754952
000320 67 4f cf bc 26 60 80 3c 12 5a dd 3b f5 9e 58 bd
       -0.025306417 0.015670847 0.006755122 -0.05288597
000330 af f1 95 3e cd 74 72 3d 63 f4 2a be 20 89 98 3d
       0.29285952 0.05919342 -0.16694789 0.074480295
000340 90 ab b3 3d f9 d1 91 3c 84 3e 00 3d fe 5b 81 3d
       0.08772957 0.017800318 0.03130962 0.06316374
000350 15 8f c8 3d 61 69 19 be 11 c7 46 bc 7d 3b 9b 3d
       0.09792916 -0.14981605 -0.012132422 0.07579706
000360 dd 57 6f 3e d7 89 2f 3d 52 c0 03 bc d2 40 20 3d
       0.23373361 0.042856064 -0.008041458 0.039124317
000370 ea 65 e3 bc be 2b 72 bd 74 37 0a 3e a7 7c 9b 3d
       -0.027758557 -0.059123747 0.13497716 0.07592135
000380 3f eb e1 bd 1b 67 90 bd ca 83 91 bd f3 25 8c 3c
       -0.11031198 -0.07050916 -0.07105215 0.01710794
000390 ad a7 fb bc 07 fd 98 3b ec 89 91 3a fe 84 3b 3d
       -0.030719602 0.004668835 0.0011103726 0.045781128
0003a0 b8 79 3a 3c 6e 6f bd bb 89 38 25 be f3 b2 a0 3d
       0.011381559 -0.0057811057 -0.16134848 0.07846632
0003b0 d1 e1 5c 3d 05 96 6c bd 17 87 09 bd b4 7b f3 bd
       0.053926293 -0.057760257 -0.033576097 -0.11888829
0003c0 ed 50 8b 3d f9 43 91 3d 1f 13 7f 3d f2 25 9b bd
       0.06802545 0.07093043 0.062274095 -0.07575597
0003d0 7d 8d 08 be 89 19 fa 3b 34 a8 cb 3d b5 6b a3 3d
       -0.13335223 0.0076324386 0.099441916 0.07979528
0003e0 ea 0d 04 3e bf bb b1 bc 9b 34 af bd 23 b4 a3 bd
       0.12895933 -0.02169597 -0.085549556 -0.07993343
0003f0 91 ef 60 bd 3d 2b f8 bd 8e 5d 04 be 68 1e 0f be
       -0.05491597 -0.12117622 -0.12926313 -0.13976443

conv2.bias f4 [20]
000000 01 b8 05 b8 df 35 f1 b8 7d 6e 94 b8 30 2d 28 b8
       -3.1881038e-05 -0.0001150181 -7.07777e-05 -4.0096405e-05
000010 ef e9 04 b9 6c 13 05 b8 f0 d5 a2 36 28 70 be 38
       -0.00012675648 -3.172776e-05 4.852882e-06 9.080797e-05
000020 44 a8 36 39 30 c9 35 b9 3d bf 79 39 e1 4b 88 38
       0.00017419556 -0.00017336453 0.00023817732 6.499119e-05
000030 02 33 0a b9 d8 ca ec 37 8f 6b 07 b9 df 86 28 b8
       -0.00013179707 2.8227849e-05 -0.00012914672 -4.017993e-05
000040 90 03 ed b7 cb e0 32 38 d1 90 32 38 c8 f4 03 39
       -2.825426e-05 4.2647862e-05 4.2573378e-05 0.00012584322

bn2.weight f4 [20]
000000 16 d5 b9 3e 41 3d 2e 3f 9b ed 01 3f 14 68 cf 3e
       0.36295384 0.68062216 0.5075318 0.40509093
000010 7f 5e db 3e 31 e1 f0 3e 9d 24 c5 3e 03 ee ff 3e
       0.42845532 0.47046807 0.38504496 0.49986276
000020 0a f3 fa 3e 65 23 f3 3e 78 31 f5 3e 16 08 bf 3e
       0.4901355 0.4748794 0.47889304 0.37310857
000030 70 0d f1 3e 04 b9 06 3f dd d2 09 3f f0 d3 ec 3e
       0.47080564 0.5262606 0.53837377 0.46255445
000040 98 d9 cb 3e 36 6a e4 3e 6c 0f 0a 3f 4b 9b e3 3e
       0.39814448 0.44612283 0.5392978 0.44454417

bn2.bias f4 [20]
000000 1a 4e fe be be 81 bf be 3d 85 9d be 41 bb dc be
       -0.49668962 -0.37403673 -0.30765715 -0.43111613
000010 72 00 75 be e9 5a f8 be d0 d8 35 be 66 df 89 be
       -0.23925951 -0.4850686 -0.17758489 -0.26928252
000020 3a 3a 39 be b8 a7 a7 be 0e 7a f3 be 5c 76 e3 be
       -0.18088618 -0.32745147 -0.47554058 -0.4442624
000030 0d 7b 43 be 69 24 41 be f0 b2 c9 be e3 66 21 be
       -0.19089909 -0.18861546 -0.3939433 -0.15761904
000040 c3 3f 98 be 2e c1 10 be 7f 52 6d be 68 ee 6d be
       -0.29736146 -0.14136192 -0.23176001 -0.23235476

bn2.running_mean f4 [20]
000000 f7 7e d8 be bc 39 2b be de 4f 90 be 92 0f b4 3d
       -0.42284366 -0.16721243 -0.28185934 0.08792032
000010 c2 1d a3 be 2d d2 cc be d5 97 9d be 07 1c a0 be
       -0.3185864 -0.400041 -0.307799 -0.31271383
000020 7a f5 59 be c4 07 25 be 68 52 7e be 92 f6 98 bd
       -0.21285048 -0.16116244 -0.24836123 -0.074689046
000030 76 35 f3 bd 3f db 81 be 20 44 f4 be 98 b1 d6 be
       -0.11875431 -0.25362584 -0.47708225 -0.41932368
000040 da 61 cd be 0f bc b2 3d 53 6e 15 be ef 29 13 3b
       -0.40113717 0.087272756 -0.14592867 0.0022455414

bn2.running_var f4 [20]
000000 6f 2d e4 3d 7b f3 5e 3e 24 d9 92 3e 55 bd 3d 3e
       0.11141478 0.21772568 0.2868129 0.18529256
000010 f1 e7 21 3e 10 f9 8a 3e 35 2e a6 3e 4c da 9d 3e
       0.15811135 0.27143145 0.32457128 0.3083061
000020 fc 18 7f 3e 14 e9 8e 3e fa a3 36 3e a7 2b f3 3d
       0.24911875 0.279122 0.1783599 0.118735604
000030 e6 f9 8d 3e 15 ae 1e 3e 76 7f 85 3e 67 9e 4d 3e
       0.2772972 0.15496095 0.26073807 0.20079957
000040 d3 89 86 3e c0 f0 80 3e 74 f3 97 3e f8 cc ef 3d
       0.26277027 0.25183678 0.29677927 0.117090166

fc1.weight f4 [256, 100]
000000 7e fa 06 01 33 2a ef 2c b0 93 8e ae 4c 2f bc a8
       2.4791632e-38 6.7974736e-12 -6.483647e-11 -2.0892705e-14
000010 68 7b 64 a5 07 9b b9 31 84 e1 6a a0 26 8d 09 80
       -1.9817659e-16 5.401833e-09 -1.9895188e-19 -8.77154e-40
000020 af b1 2d 80 8d 04 35 00 a9 2d 9d 24 c8 70 a6 89
       -4.196338e-39 4.868914e-39 6.816525e-17 -4.0069105e-33
000030 e4 a7 1c 9f 98 85 b6 a3 c0 c8 76 a7 f7 a6 01 a1
       -3.317316e-20 -1.9789059e-17 -3.4248185e-15 -4.3927876e-19
000040 ce 68 65 32 f1 96 2a b0 cf ea 18 22 1d d6 16 a8
       1.3353384e-08 -6.206014e-10 2.0724148e-18 -8.373101e-15
000050 ea 99 d9 32 80 d5 1e b1 4d 3e 53 2e 29 d8 4f a1
       2.5332117e-08 -2.3113387e-09 4.803118e-11 -7.0420414e-19
000060 32 fe 4c 03 46 14 d0 8b b3 18 ba 9e bc 26 92 a4
       6.0242014e-37 -8.014919e-32 -1.9703731e-20 -6.3383025e-17
000070 b4 3c 9c a8 ca 96 a4 a2 f2 b2 07 80 20 fd 22 ab
       -1.7345805e-14 -4.4611943e-18 -7.07042e-40 -5.7905243e-13
000080 e7 9c 30 9f 44 91 d7 a8 6b 87 e6 ae 2a 39 6b a3
       -3.7399236e-20 -2.3932794e-14 -1.0483244e-10 -1.27514805e-17
000090 fe 05 1e 9a dd 9f 65 8c a7 65 e0 a0 21 b9 9b a9
       -3.2678475e-23 -1.7689625e-31 -3.8014344e-19 -6.9154975e-14
0000a0 b9 ba 9c b2 e1 ef 38 af 32 2a 3b a7 bb aa 24 1e
       -1.8245702e-08 -1.6819925e-10 -2.5974337e-15 8.717394e-21
0000b0 3f 9c be 27 19 e5 50 ae 8b 6a bf a4 e4 d2 49 99
       5.2904996e-15 -4.7497204e-11 -8.301354e-17 -1.04340455e-23
0000c0 d8 38 36 0b ea a4 1a a0 63 cf 35 a5 97 f9 f1 ac
       3.509469e-32 -1.3098873e-19 -1.5769513e-16 -6.877342e-12
0000d0 a3 b5 45 ae ba d6 d6 9c 3c 84 40 00 94 66 63 06
       -4.495394e-11 -1.4216838e-21 5.924909e-39 4.2769317e-35
0000e0 d8 33 84 2f e3 fd e7 31 ef 0a 6a ac 87 fa d3 aa
       2.4047497e-10 6.7518484e-09 -3.325947e-12 -3.7654968e-13
0000f0 e9 5a 3a 80 a6 77 d0 85 c7 6c 56 a7 c6 b2 8c a7
       -5.359071e-39 -1.9604178e-35 -2.9757434e-15 -3.9051632e-15
000100 13 a0 83 a8 8f 4e 88 b4 ad 1c 32 33 c2 1d 2b 00
       -1.4613343e-14 -2.5389133e-07 4.1469935e-08 3.959601e-39
000110 73 54 24 80 8f 84 90 91 c2 d9 8b 34 9c 3b 8c 2e
       -3.336373e-39 -2.280089e-28 2.6049207e-07 6.377052e-11
000120 70 1f 85 ab 4e a1 9c 9e 5a fe 86 9d 9a 28 e9 b5
       -9.458944e-13 -1.6583857e-20 -3.57325e-21 -1.7371669e-06
000130 5f d9 58 34 c2 2e 13 33 ca 57 bf 27 39 cd 48 00
       2.0195647e-07 3.426863e-08 5.310833e-15 6.685776e-39
000140 d0 f5 06 a6 10 92 94 a9 31 e4 e4 25 39 e0 25 90
       -4.6823727e-16 -6.597858e-14 3.9706324e-16 -3.2713247e-29
000150 97 1d e3 a7 7f 11 e3 2e b3 dc a8 a6 55 9d 34 2a
       -6.303724e-15 1.0325873e-10 -1.1717162e-15 1.6041797e-13
000160 2c 00 ca 2a 10 49 16 b1 87 cf 74 b3 bd a7 70 b0
       3.5882527e-13 -2.1869404e-09 -5.6999422e-08 -8.754986e-10
000170 e7 17 1a a7 58 31 9b b1 1e 80 93 9e cb 15 f5 a9
       -2.138475e-15 -4.5167035e-09 -1.5617218e-20 -1.0883966e-13
000180 8c 6d 8e a4 af 91 ca a0 c6 fb 99 ac 7d dc 4f af
       -6.176826e-17 -3.4316536e-19 -4.376474e-12 -1.8904873e-10
000190 32 d7 8d 3d 67 49 1f 3b 28 ac 61 bd b2 1f 73 bd
       0.06925811 0.0024305226 -0.05509582 -0.0593564
0001a0 4f 34 eb bd 3b 66 db 3b 87 f3 a7 3d 03 29 91 3d
       -0.114845864 0.0066955364 0.08200746 0.070879005
0001b0 61 0b 25 3c 8e b2 44 3a 04 40 b7 3d 03 2b c4 3d
       0.010073514 0.00075034134 0.08947757 0.09578516
0001c0 b4 80 a5 3d 31 47 93 3c 7b 01 9e 3b 55 6e 86 3a
       0.08081189 0.017978283 0.004821954 0.001025627
0001d0 b0 e4 e2 bc 89 49 77 bd f3 24 89 bd ba 3d 54 bd
       -0.027696937 -0.060372863 -0.06696501 -0.05181668
0001e0 88 c0 4d bd c9 3c fd 3c 8a b6 cc 3d ed 08 c8 3d
       -0.05023244 0.030912774 0.09995754 0.097673275
0001f0 7c 91 aa 3d 81 c3 11 3d 48 96 bc bc d4 d0 a6 bc
       0.0832853 0.035586838 -0.023020878 -0.020363249
000200 17 47 80 bd 7d 90 ee bb 05 c7 c6 3d 25 d1 01 3d
       -0.06263559 -0.007280408 0.09705929 0.031693596
000210 04 58 b0 3d 4f 5c 95 3b 9d 7c 0e ba 83 67 30 3d
       0.08610538 0.004558123 -0.0005435439 0.043067466
000220 5e 3b ae 3b 91 d1 11 3d 41 3b 09 3d f7 fb 5f bd
       0.0053171357 0.03560025 0.033503775 -0.05468365
000230 28 08 f8 3c fe 95 44 3d cd fe 8a 3d fd 0d 69 3d
       0.030277327 0.047994606 0.06786881 0.056898106
000240 e3 ab 2d 3d 5b d8 1b 3b d3 15 54 3d d0 69 6b 3d
       0.042400252 0.002378008 0.051778626 0.057473958
000250 bd bf 0e 3d ec 5f 69 3d af d7 95 3d 48 5c 2a 3d
       0.034850825 0.056976244 0.07316529 0.041591913
000260 02 9d 8a 3c 2f 73 c7 3d 15 e4 d8 3d 9c ad 1e 3d
       0.01692057 0.097387664 0.10590378 0.038739786
000270 f4 31 f3 bd 83 71 71 bd d6 f8 a5 bd d3 ab ef bd
       -0.11874762 -0.058946144 -0.08104102 -0.11702695
000280 3d bc 8e 3d 41 92 e9 3c 17 f9 77 bc 90 3a 9f 37
       0.06969497 0.028512122 -0.015135071 1.8981547e-05
000290 c7 a3 81 3c 16 8b 80 bd 36 b0 68 3d 25 54 d2 3d
       0.015825165 -0.062765285 0.056808673 0.102699555
0002a0 13 aa a0 3d 82 8a d1 3c 27 cd b2 ba 49 a9 8e 3c
       0.07844939 0.025578741 -0.0013641462 0.017414706
0002b0 5b 94 4b 3d fc 4c 05 3d 20 7c 06 3e 5b 24 9a bc
       0.04970203 0.03254412 0.13133287 -0.018816164
0002c0 c6 76 03 39 38 c8 8c bc 2f 7e 15 3d 0f e8 fb 3d
       0.0001253738 -0.017185315 0.03649729 0.12300121
0002d0 40 92 79 3d 8b 41 92 3d 6a e7 08 3d d2 23 36 3d
       0.06093049 0.071414076 0.03342382 0.044467755
0002e0 e0 b8 50 bb f8 d5 57 3c 36 81 6a bc 1e e3 aa 3d
       -0.0031848475 0.013173573 -0.014313033 0.083441004
0002f0 57 0a 93 bb fc 57 48 bd 5e 99 ce bc 6f cc 1c bb
       -0.0044873166 -0.048912033 -0.025219616 -0.0023925563
000300 32 25 fc 3c 21 0b 84 bb ae f8 c6 bb e2 bc db 3d
       0.030779455 -0.004029647 -0.0060721254 0.10729386
000310 1f 95 db 3c c4 bc 4a bb b6 3b 8e bc 64 6f d3 bc
       0.026804505 -0.0030935267 -0.017362457 -0.025809951
000320 95 b3 4d bd 87 f7 73 bd ca 96 df ba 65 a2 a6 3d
       -0.05022009 -0.059562232 -0.0017058488 0.08136443
000330 3f f1 1b 3e 3f 46 44 3d fa fe 88 ba 32 05 e1 bc
       0.15228747 0.047918554 -0.0010451965 -0.027468298
000340 d2 6a b3 bd ec 84 c3 bd 60 4d 8e bd 70 17 d8 bc
       -0.08760609 -0.09546837 -0.06948352 -0.026378363
000350 26 eb c7 bd 03 16 a4 bd f0 6e 05 bd 88 56 8d bc
       -0.09761648 -0.08012011 -0.0325765 -0.017253175
000360 52 b5 7d bd f6 7a 8c bc e3 74 72 3d dc 8f 7e 3d
       -0.0619405 -0.017148476 0.059193503 0.062148914
000370 80 c0 94 3c 39 53 0c 3d 91 4a 20 bc 6e a3 2f bb
       0.018158197 0.034259055 -0.009783403 -0.0026800293
000380 44 16 c6 bd 90 8b 01 3c 24 db ba bc 6c ec 61 bd
       -0.096722156 0.007906809 -0.022809573 -0.05515711
000390 60 2c e0 bc 04 54 9b 3d 0c ed 8b 3d 16 3c a5 3b
       -0.02736491 0.07584384 0.068323225 0.005042563
0003a0 bc 38 ac bd f7 d6 18 be af f4 40 bc c1 32 06 3e
       -0.08409259 -0.14925753 -0.011777087 0.13105299
0003b0 41 d3 25 3d 75 f5 4f bd 8d 63 f1 bd 76 ad 1b bd
       0.04048467 -0.050771195 -0.11786566 -0.038007222
0003c0 b8 45 47 3d f9 77 3c 3c 8f 73 5c bd 76 47 d9 bd
       0.048650473 0.011503213 -0.053821143 -0.10609333
0003d0 fe 1b 92 bd 93 97 b8 3d 3a 08 87 3d 0b 46 52 bd
       -0.07134245 0.090132855 0.06593366 -0.05133633
0003e0 40 3b b3 bd 15 59 2c bd 27 56 f8 bc aa 79 d6 bb
       -0.087515354 -0.042077143 -0.030314518 -0.006545265
0003f0 55 b1 1c 3d c8 de 0b bd 14 de aa bd 12 ef c7 bc
       0.038255055 -0.034148008 -0.08343139 -0.02440599

fc1.bias f4 [256]
000000 ca 17 a7 b9 b3 4b e5 bb 3b 93 a8 3d 49 7d b4 a8
       -0.00031870446 -0.0069975494 0.08231207 -2.0038348e-14
000010 2c f5 cd bc ec 24 0e 3d a1 fe 87 bd d5 5a ce bc
       -0.025141321 0.03470318 -0.066403635 -0.025189796
000020 35 1f cb bb 12 7f 7e bb 3c 28 51 bd 69 09 9e b9
       -0.0061987885 -0.0038833064 -0.05106376 -0.0003014312
000030 ca 0d 44 b0 2a 63 7f 3d 66 f9 80 b4 81 84 92 87
       -7.132398e-10 0.06235043 -2.402332e-07 -2.2045517e-34
000040 45 03 44 bc f7 27 80 bd a1 0b 32 bc 12 c6 98 bd
       -0.01196367 -0.06257623 -0.01086703 -0.07459654
000050 f2 5b 8a b3 3b d8 c5 bb b1 ee c2 b8 be 58 58 ac
       -6.4428505e-08 -0.0060377396 -9.2951006e-05 -3.0744708e-12
000060 49 93 34 b3 29 02 01 be af e5 a3 ba 31 33 72 3c
       -4.204347e-08 -0.1259848 -0.0012504364 0.014782713
000070 70 1d 06 bd ed 5d 0d 3c 76 87 20 bd a8 97 8e 3d
       -0.032742918 0.008628351 -0.039191686 0.0696252
000080 d4 f1 46 bd 81 f6 aa bd 13 3c c3 bc e3 55 55 bc
       -0.04857047 -0.08347798 -0.023832357 -0.013020965
000090 61 67 67 95 d5 cf 11 bd 20 80 00 3d 2b bf 60 bc
       -4.673163e-26 -0.035598595 0.03137219 -0.013717453
0000a0 0a 8f ac b9 1a 79 9b 3c 44 10 85 bc f8 88 aa ba
       -0.0003291297 0.018978644 -0.016243108 -0.001301079
0000b0 d6 66 77 bd 61 e4 0a bd c6 14 f0 bb 28 b0 d6 2c
       -0.060400806 -0.033909205 -0.007326695 6.101803e-12
0000c0 3e 43 85 bd 19 24 23 bd 7c 46 94 3c ee 80 a0 bd
       -0.06506966 -0.039829347 0.018100016 -0.078370914
0000d0 10 53 18 3d 0b 1a 4f bc f4 d3 4f 3d 5a 71 ae 3c
       0.03718859 -0.0126404865 0.050739244 0.021294285
0000e0 b1 4b 40 3d f0 09 0b bd 9d c6 14 3c f8 f5 bb bc
       0.046947185 -0.033945024 0.009080556 -0.022944435
0000f0 45 ab 05 3d a3 0e fe 9b b3 ab 65 bd 62 e3 86 3d
       0.03263404 -4.2030234e-22 -0.05607195 0.065863386
000100 c2 e6 bd 3b c5 30 16 bd 20 43 ac 3d 17 40 fe bc
       0.0057953307 -0.036667604 0.084112406 -0.03103642
000110 04 0c b3 bc 42 7e 7f 8e 72 82 88 bc 9b f6 86 bc
       -0.021856315 -3.1491968e-30 -0.016663764 -0.016475013
000120 41 d4 5b b8 c2 14 01 a3 15 6f 26 bd 6a 9d 1b bd
       -5.2411346e-05 -6.9975e-18 -0.04063328 -0.03799192
000130 85 e8 34 bd 9e 62 b8 bc d1 fc ef 3c 47 eb 4f bd
       -0.04416706 -0.022507962 0.029295357 -0.050761487
000140 72 53 45 bd 40 70 17 b5 00 73 9e bb cf 35 42 bd
       -0.048175283 -5.641523e-07 -0.0048354864 -0.047414597
000150 8d 78 43 bd 54 d3 c7 bc 43 bf 38 bd d5 f2 e0 bc
       -0.047722388 -0.024392761 -0.045104276 -0.027459541
000160 ae f1 c5 bd 4c 54 df a5 d3 0e 14 bc 45 2d 25 3d
       -0.09665237 -3.8741455e-16 -0.0090367375 0.040326376
000170 65 7c 97 3b 3b b0 3a bd 36 c1 5e b9 89 b5 e8 ba
       0.0046229833 -0.045578223 -0.00021243547 -0.0017754297
000180 47 7a 4d a9 97 ec 49 3d b3 0c 82 ad e1 6f ad 3c
       -4.5625203e-14 0.049297895 -1.4784928e-11 0.021171512
000190 4a ac 24 bd 8b 9c 4e bc f2 f5 ac bc e4 61 23 bd
       -0.04020337 -0.012610565 -0.02111337 -0.039888278
0001a0 7f 35 ad b3 e1 b1 0f 3c f3 73 9d bb 5a b0 92 b8
       -8.065671e-08 0.008770437 -0.004805082 -6.9946705e-05
0001b0 f8 20 d4 bc 56 6b 89 bc a5 25 e7 3c c9 a5 31 bd
       -0.025894627 -0.016774815 0.028216192 -0.043370996
0001c0 e5 94 51 a4 b5 e7 d0 b7 5a ef c1 bc 44 50 a2 3c
       -4.544577e-17 -2.490343e-05 -0.023673702 0.019813664
0001d0 20 a1 4b bd fb 63 24 ac f6 18 f5 b4 36 b7 07 bd
       -0.049714208 -2.3361302e-12 -4.5652968e-07 -0.033133708
0001e0 9b 34 a5 bd 8a 0b 57 3d f6 f5 0d b0 b9 35 5f 3d
       -0.08066674 0.05250124 -5.164503e-10 0.054494593
0001f0 c8 0b 2e bc 1f 97 bc 3c b4 d3 58 bd d4 d9 68 bd
       -0.010622926 0.023021279 -0.05293627 -0.056848362
000200 dd e2 92 bd f7 f1 b0 b7 6c cd 29 bc 53 7a 96 bc
       -0.07172177 -2.1093509e-05 -0.010363918 -0.018368876
000210 a5 08 0d ae a9 90 33 3d 81 55 32 bd c3 ec fb bc
       -3.2067366e-11 0.04383913 -0.043538574 -0.030752545
000220 87 5b 0c bd 0d f2 0f bd 7c eb 9f bd ff 1b 69 3c
       -0.034266975 -0.035142947 -0.07808587 0.014227866
000230 82 f8 a3 3c b2 fe 95 bc 36 ce b5 3c 5c 94 99 3d
       0.020015959 -0.018309925 0.022193056 0.074990004
000240 0d fc 22 bd 7c c5 01 3d 40 a6 b6 bb f4 06 a5 3d
       -0.039791156 0.031682476 -0.0055740178 0.08057967
000250 ab b3 93 bd 2f 1f 3b 3c 22 03 39 bd a6 fc 0c bd
       -0.07212003 0.011421009 -0.045169003 -0.03442063
000260 a6 df a8 3d 26 27 99 a1 11 b3 e3 bc 14 72 b8 ab
       0.082457826 -1.0378046e-18 -0.027795346 -1.3105649e-12
000270 67 4e 9d bc ff cd 6d 3c 88 d0 2f bd 56 4f a1 bc
       -0.019202424 0.014514445 -0.04292348 -0.01969115
000280 b5 83 4a bc 1b f1 0f 3d 74 6f 0c ad 86 a0 e8 bd
       -0.012360503 0.035142045 -7.982826e-12 -0.113587424
000290 8d 28 52 bc d5 58 28 3c bc f7 2b 3d ec 47 b8 3c
       -0.012827051 0.010275085 0.041984305 0.022495233
0002a0 84 da 86 bd f3 e9 e4 bc 7e 7b fd bd 7c 47 20 bd
       -0.06584647 -0.027943587 -0.1237707 -0.039130673
0002b0 a9 7f 74 bc 86 a3 6b 3d 53 c7 0b 3c cf f7 7f 3d
       -0.014923015 0.057528995 0.008531409 0.062492188
0002c0 b4 b0 97 a4 1f c9 2a bc 18 d6 47 3d 8d 42 99 bb
       -6.578516e-17 -0.010423928 0.04878816 -0.004677123
0002d0 29 a5 b1 3d 9c cb 16 bb 9a ed 52 ba ae 3f fc bb
       0.0867408 -0.0023009544 -0.00080462696 -0.007698021
0002e0 04 51 a6 bd 6d f3 b1 3c ab 7c fe bd 40 88 8d bc
       -0.08120921 0.02172252 -0.12426122 -0.017276883
0002f0 1f 3c fc bc 1f 88 ef 3c 89 d6 3e bd dc fa 3a 3c
       -0.030790387 0.029239712 -0.046591315 0.011412349
000300 83 52 8c 3d 42 d1 8e b4 7a 27 b7 b6 4d 7e f5 bc
       0.06851675 -2.6601816e-07 -5.4584207e-06 -0.029967451
000310 1e 33 0f a3 2c 45 8e 99 3c 25 b1 bd f3 b6 70 bd
       -7.76287e-18 -1.4710394e-23 -0.0864968 -0.058768224
000320 9d d2 40 3d 37 ed 68 3c b3 36 17 be 55 d0 47 ac
       0.047075856 0.014216713 -0.1476696 -2.8395248e-12
000330 6f 7c 20 a4 bd 6d 04 bc 47 ec 5c bc 6c 71 cb b8
       -3.479987e-17 -0.008082804 -0.013484067 -9.700921e-05
000340 c6 1d d1 3d 13 f6 65 bd 81 26 12 3d 4a ea 2c b9
       0.10210757 -0.056142878 0.03568125 -0.00016490478
000350 95 46 d1 bd 35 e9 07 bd 8e 37 dc 95 4a d8 cb bc
       -0.102185406 -0.033181388 -8.894494e-26 -0.024883408
000360 39 4f a3 3d 0e f8 5d 3d 2d 56 0e bd d3 63 9a b5
       0.07974095 0.05419164 -0.034750152 -1.1502947e-06
000370 2d 3d 3d bc 47 15 9d bb 96 f7 90 b3 9e d4 a6 b9
       -0.01155023 -0.004793796 -6.750558e-08 -0.000318204
000380 e3 f1 d5 bd 9a 40 a3 bb 08 bd 09 be a0 8c 27 3d
       -0.10446527 -0.0049820663 -0.13451016 0.040905595
000390 c5 49 6d 3d 1a cc 62 bd 58 f6 40 bc d1 38 9a bb
       0.05793168 -0.055370428 -0.011777483 -0.00470648
0003a0 08 c7 ca bd 01 40 ed 3d a5 c9 89 3c 71 9c 08 3d
       -0.099012434 0.115844734 0.016819784 0.03335232
0003b0 c1 d9 b2 3b 76 48 1f bd f4 be e4 bd 33 8e 48 3d
       0.005458087 -0.038887464 -0.11169234 0.048963737
0003c0 cb 6e cd 3c cc ad 3c 3d 8e 48 e3 bd cc 78 2b 3d
       0.025077244 0.046064183 -0.11097823 0.041863248
0003d0 21 df 8c bc 93 ea 2d bc 4b 62 7a bb b9 9c 3c 3d
       -0.01719624 -0.010615009 -0.003820556 0.0460479
0003e0 9f cd ce b6 84 b6 34 b7 33 2a e1 3b 1f 7e b1 ba
       -6.163216e-06 -1.0771331e-05 0.0068714856 -0.0013541615
0003f0 65 ff 4a bd e3 e8 23 3d 17 b9 3c bd f9 31 9d bc
       -0.04955997 0.04001702 -0.046074953 -0.019188868

fc2.weight f4 [120, 256]
000000 13 5e 8e a3 93 51 f0 3c 2f 17 9b bd a3 6e 2e 80
       -1.5435513e-17 0.029335773 -0.07572781 -4.264122e-39
000010 43 15 da 3c 30 5e 95 bc 25 97 ed bb 01 29 02 3c
       0.026621467 -0.018233389 -0.007250684 0.007944346
000020 0f 4b 19 3c cc cb 84 31 e7 8a 96 bc e2 07 b8 a3
       0.009356274 3.8648746e-09 -0.01837678 -1.9952658e-17
000030 ec 49 03 00 64 f9 f7 bc a2 bc c2 9c dc 2a 39 80
       3.02025e-40 -0.030270286 -1.2886604e-21 -5.249998e-39
000040 ea 5a f9 3c 5a 2b 89 3c ce e7 97 33 4d 1b 84 3d
       0.030438859 0.016744304 7.0736505e-08 0.0645052
000050 ca b5 54 80 8e 50 c5 3c a8 60 42 a0 97 40 17 00
       -7.779395e-39 0.024086263 -1.646442e-19 2.135387e-39
000060 56 e0 3e af d5 31 b5 bb 59 a7 8a 26 33 0a 19 3d
       -1.73601e-10 -0.005529622 9.621033e-16 0.037363242
000070 77 97 12 bb f9 4f 42 3c 94 95 65 3c 63 8b 37 3d
       -0.0022368112 0.011859887 0.014012713 0.044810664
000080 2d 35 4e 3b f3 41 4e 3c a8 b2 1c 3d 1e b8 19 3d
       0.00314648 0.012588966 0.038256317 0.037529103
000090 63 b8 02 00 b5 3a 2c 3c 16 2b 1a 3b cf 49 6f 3c
       2.49816e-40 0.010512044 0.0023524216 0.014605
0000a0 b6 b6 22 29 15 e5 8a 3c 7f d9 1c 33 bb 03 44 3c
       3.6129702e-14 0.016954938 3.6519392e-08 0.01196378
0000b0 d8 23 b7 ba f8 dd 53 3b c2 e6 ce 3c fa 1e 81 2b
       -0.0013972474 0.0032328349 0.025256518 9.174599e-13
0000c0 dc f7 0d 3d 8d eb 25 3c fc 83 29 3b 35 90 a2 bc
       0.034660205 0.01012696 0.0025866022 -0.019844154
0000d0 9b e3 ce bd 64 75 8c bb 99 84 19 bd f5 31 a9 3c
       -0.10102006 -0.004286455 -0.03747997 0.020653704
0000e0 d4 03 04 bd f3 6d 3f 3d 02 10 07 3d 48 d2 8d 3c
       -0.032230213 0.046735715 0.03297425 0.017312184
0000f0 f8 60 21 3c 74 f8 0b 80 86 dc 80 bc f5 33 db bc
       0.009849779 -1.099319e-39 -0.015730154 -0.026758173
000100 dd 2a 44 bd 78 99 64 3d f5 b9 f9 bc f8 ed c3 bb
       -0.04789244 0.05581042 -0.030484179 -0.005979296
000110 1d 4d 4a 3c b4 ea 05 00 74 81 c4 3c 5f 03 34 ba
       0.012347487 5.43373e-40 0.02398751 -0.00068669574
000120 0e 86 1e 80 0d 3a 01 80 ad 72 70 b9 eb 42 36 3d
       -2.803155e-39 -1.1266e-40 -0.00022930904 0.04449741
000130 d2 61 51 3c d3 0a 32 3d ed 9a 1a bd 55 34 39 3b
       0.01277967 0.043467354 -0.037745405 0.0028259952
000140 1c 35 8d bb 88 03 0b 00 01 94 4f b2 af 1f 58 3c
       -0.0043093096 1.011457e-39 -1.2082638e-08 0.013191148
000150 11 6a 98 3c b7 d9 45 3d 30 df fd bc ca dc 5a 3d
       0.018605264 0.048303332 -0.030990213 0.053433217
000160 10 49 90 ba eb a2 2a 80 5f 7d d2 b3 57 6b be bc
       -0.0011008102 -3.915535e-39 -9.801692e-08 -0.023244543
000170 16 84 cf ba 92 ca 81 3b b2 61 05 3d 78 ea b1 a3
       -0.0015832211 0.003960916 0.032563873 -1.928968e-17
000180 3d 28 15 00 c1 45 bf bc 71 d4 0f 80 98 89 b4 bc
       1.94298e-39 -0.023348691 -1.453742e-39 -0.022038266
000190 f1 dc 1f 3d 5b 76 27 b5 a3 fd 3d 36 2b ed b1 3a
       0.039029066 -6.238458e-07 2.831083e-06 0.001357471
0001a0 94 98 25 00 4a 9a d4 3c dd e7 24 3d 2e a4 89 99
       3.452648e-39 0.025952477 0.040260185 -1.423178e-23
0001b0 bb f6 0b 3d 85 c7 cb 3c 1f cc 32 3d df 26 25 bc
       0.034170847 0.024875412 0.043651696 -0.010080068
0001c0 40 de 4b 23 04 67 51 35 6e 29 59 3d 81 fd 5a 3d
       1.1051715e-17 7.8008475e-07 0.053018026 0.053464416
0001d0 1a 17 15 3d 16 ae 04 00 29 97 16 80 13 4d 6a bb
       0.036398984 4.29792e-40 -2.074607e-39 -0.0035751506
0001e0 9f 1d f3 bb 73 de ca bc 28 ce 18 00 be 13 1a bd
       -0.0074193026 -0.024764275 2.278007e-39 -0.037616484
0001f0 7b 61 13 b0 62 3e 8d 3c 18 41 86 ba 0f f4 31 bc
       -5.3616817e-10 0.01724166 -0.0010242788 -0.010861411
000200 1a 86 9e 3c 37 1c 24 80 5b 25 74 b6 87 4e 12 ba
       0.019351054 -3.3162e-39 -3.6380577e-06 -0.00055811595
000210 7c 10 2f 00 87 b6 0d 3d 4b 41 ef bb b0 32 58 3d
       4.322182e-39 0.0345979 -0.0073014847 0.052782714
000220 18 b2 11 ba 0b 91 24 3a 9e 2e df 3c f1 1d 0e 3c
       -0.0005557849 0.00062777166 0.027243908 0.008674131
000230 96 65 75 3c e6 7e 0f 3d 5a c1 cb bc 4a 8f b2 bc
       0.014977833 0.03503313 -0.02487247 -0.021796841
000240 35 44 00 bc 1e 7c ed 3b 1f e7 a3 32 fd d3 36 bc
       -0.007828762 0.007247462 1.90808e-08 -0.01115894
000250 96 fa 93 ba 1f 96 14 3d f0 fe 44 39 b2 61 07 bc
       -0.001128989 0.03627598 0.00018786988 -0.0082630385
000260 8e 9c 3f bd 9a 92 06 00 b7 34 d6 3c c4 18 4a 00
       -0.04678016 6.03604e-40 0.026148183 6.804711e-39
000270 99 fd 37 bd d4 7c 64 3d 6c f8 09 bd 3a 7b 62 b7
       -0.044919584 0.055783108 -0.03368418 -1.3499341e-05
000280 06 59 67 3b 58 1f be bc 34 41 1d 80 d1 56 81 bc
       0.0035300865 -0.023208305 -2.68662e-39 -0.015788468
000290 b6 97 c0 bc 57 d1 65 3c 0c fe 78 bc 30 fa 25 3d
       -0.023509841 0.014026961 -0.015197288 0.0405218
0002a0 5a 57 87 ba 21 82 6e 3a 7a 7c 9e 3a 74 bf dd bc
       -0.0010325715 0.000909837 0.001209154 -0.027068831
0002b0 fb 1c 29 3d dd 87 ed bc f6 35 c6 3c 1d 47 7e bb
       0.041287404 -0.028995449 0.024195652 -0.003879971
0002c0 1f e9 07 80 4d f1 f4 b3 2e d2 36 bc 2d fe 00 3d
       -7.26477e-40 -1.1406028e-07 -0.011158509 0.0314924
0002d0 d6 8f 17 bd c5 82 64 25 52 89 f6 27 59 16 10 3d
       -0.037002407 1.9820154e-16 6.84276e-15 0.035177562
0002e0 ba 9f 64 3a 06 62 6d 3d c2 5f 6d 3c d0 2a 94 3b
       0.0008721311 0.05795481 0.0144881625 0.004521705
0002f0 71 be 22 3c b6 f3 ed 39 7b 1d 3c bc fd 19 19 3c
       0.0099331 0.0004538574 -0.011481638 0.009344575
000300 9c 3c 48 bd 9b db 02 80 ce 97 0a 80 cf ad 0c bd
       -0.048885927 -2.6245e-40 -9.72812e-40 -0.034345444
000310 fa 9e 0d 00 14 55 11 00 b5 c3 b4 3b 1d cb 92 b9
       1.250891e-39 1.591724e-39 0.005516494 -0.0002799862
000320 c9 b4 b6 3c eb 8f 20 3c 49 e0 f8 3c af c8 0f 80
       0.022303002 0.009799938 0.030380385 -1.449524e-39
000330 ee f4 19 80 a3 06 18 39 19 0e f0 bc a6 a5 00 a1
       -2.383752e-39 0.00014498322 -0.029303597 -4.358732e-19
000340 eb e2 3f bd 73 96 44 3b 4b ee e2 bc 73 36 81 12
       -0.046847265 0.0029996901 -0.027701518 8.154467e-28
000350 fe 66 bf 3c 1d 88 8c 3b a9 3b 1c 00 bb 6b 3c 3d
       0.02336454 0.004288687 2.592796e-39 0.046001177
000360 40 04 a8 bc 97 a5 8a bc 04 19 4f 3a 10 e3 33 80
       -0.020509839 -0.016924663 0.0007900151 -4.765065e-39
000370 82 04 0c 35 45 be 91 2f 57 35 1f 00 a9 91 00 23
       5.2160624e-07 2.651054e-10 2.866035e-39 6.969739e-18
000380 c7 3a ce 3b c8 76 09 3d 3c a7 de 3c c4 a5 5b bd
       0.006293628 0.033560544 0.027179353 -0.053624883
000390 cf b3 74 3b 5e 1b 01 3d 42 24 07 b4 6c 46 c2 21
       0.003733862 0.03152024 -1.2586045e-07 1.3164592e-18
0003a0 8e 94 a1 3c 1d 62 b1 bd 9c a1 d3 3c 69 39 ac 3c
       0.019724157 -0.08661292 0.025833897 0.021023469
0003b0 09 6a 12 3d 13 3a c8 3c 2a f7 b9 bb d5 2a 4e bc
       0.035745654 0.024441754 -0.005675216 -0.012583454
0003c0 92 19 35 bd 49 96 b8 bc 70 69 de 3c ef ab 71 bd
       -0.04421384 -0.022532599 0.027149886 -0.05900186
0003d0 20 63 85 3d c2 45 66 31 66 9d 1d b5 1b 53 2a bc
       0.06513047 3.3509058e-09 -5.87161e-07 -0.01039579
0003e0 a6 84 82 04 c6 08 1c 00 38 13 ab bc 07 fd 2d 3d
       3.068467e-36 2.574541e-39 -0.020883188 0.042477634
0003f0 7a 39 e1 3c 98 8c 67 bc b6 6a 8a 3a 8f 5f 80 3d
       0.027493227 -0.014132641 0.0010560367 0.06268226

fc2.bias f4 [120]
000000 39 9f bf 3d a0 20 e6 3d 85 d8 f7 3d c2 8f b6 3d
       0.09356541 0.112366915 0.12101845 0.089141384
000010 16 9a e6 3d 99 6f da 3d e4 1d de 3d e7 77 95 3d
       0.11259858 0.10665817 0.10845545 0.0729826
000020 6c 1b c7 3d f8 26 f9 3d 37 06 99 3d ed 26 b2 3d
       0.09722027 0.12165636 0.074718885 0.08698831
000030 1c b6 aa 3d 06 31 dd 3d b2 4c c0 b2 af ff a2 3d
       0.08335516 0.10800366 -2.2386619e-08 0.07958924
000040 b8 ae f1 3d 1d 2e 88 b9 64 f3 db 3c 9c d7 bf 3d
       0.11800903 -0.00025974298 0.026849456 0.09367296
000050 29 e6 e6 3d 64 42 cf 3d eb 9d 94 3d 50 d0 cd 3d
       0.11274368 0.10120085 0.07256683 0.10049498
000060 77 aa 8e 3d fc b7 e5 3d 9e 66 b4 3d 4c 2d 6c 3d
       0.06966107 0.11216733 0.08808635 0.057660386
000070 a3 be c1 3d c4 4e a9 3d 22 11 8f 3d 46 cf f1 a4
       0.09460189 0.082669765 0.0698569 -1.04868224e-16
000080 cc c7 9a 3d 06 77 fd 3d 20 4a 85 3d b4 fb ea 3d
       0.075576395 0.123762175 0.06508279 0.1147379
000090 04 67 c7 3d bb 86 a4 3d 47 6e fc 3d 98 b5 d0 3d
       0.097364455 0.0803351 0.12325721 0.10190886
0000a0 a6 e7 e0 3d dc be d0 3d c4 ed 94 3d 97 5a 8e 3d
       0.109816834 0.101926535 0.07271913 0.069508724
0000b0 6b d8 f2 3d 32 a1 ed 3d 34 ea 8e 3d f2 bb af 3d
       0.11857685 0.11603011 0.069782645 0.085807696
0000c0 74 86 80 3d 2b 64 2a 3d fc 78 ca 3d 4e 47 b7 3d
       0.06275645 0.041599434 0.09886357 0.08949147
0000d0 07 ab e3 3d 06 d6 cc 3d 30 cb 8f 3d 7e cb c7 3d
       0.11116605 0.10001759 0.07021177 0.0975561
0000e0 7f 4e b1 3d 91 dd 11 3e 54 b9 86 3d bc 25 05 3e
       0.0865755 0.14244677 0.06578317 0.13002676
0000f0 8d 1a 08 3e d9 48 e7 3d 75 5f b3 3d 87 32 a4 3d
       0.13291378 0.112931915 0.08758441 0.0801745
000100 c3 e7 8c 3d 5e 6c 24 3d 83 5c 99 3d 3f bf cb 3d
       0.068801425 0.04014241 0.07488348 0.09948587
000110 88 a6 8b 3d e7 68 ac 3d 58 98 b2 3d 66 38 8b 3d
       0.06818873 0.08418446 0.087204635 0.067978665
000120 2b 2e d3 3d 12 8e 02 3e dd 87 b9 3d 32 ac e9 3d
       0.1031154 0.12749508 0.09059117 0.11409797
000130 b3 c0 bb 3d 8c 13 d4 3d 77 dd c0 3d e8 01 96 3d
       0.09167614 0.10355291 0.09417241 0.07324582
000140 ae f3 04 3e 2c 59 b3 3d 90 38 00 3e 16 fa ad 3d
       0.12983581 0.087572426 0.12521577 0.08494966
000150 95 09 ba 3d d5 e7 c4 3d 5c 61 a0 3d 79 15 91 3d
       0.09083859 0.09614531 0.0783107 0.07084174
000160 ae 3a c3 3d 5a cf 19 3e 34 0b 63 3d cf 39 dc 3d
       0.09532677 0.15020505 0.055430606 0.107532136
000170 b7 65 b7 3d 72 ba 99 3d dc 87 83 3d 73 f7 fb b6
       0.089549474 0.07506265 0.064223975 -7.50919e-06
000180 68 c8 d6 3d 46 a1 c0 3d c6 02 e8 3d 56 e7 de 3d
       0.10487443 0.094057605 0.11328654 0.108839676
000190 fa 70 db 3d 71 22 9e 3d 73 3a d4 3d 95 43 9d 3d
       0.10714908 0.07721413 0.10362711 0.07678906
0001a0 77 d9 aa 3d 48 92 ad 3d b1 8e a6 3d 2d 3c db 3d
       0.083422594 0.084751666 0.08132685 0.10704837
0001b0 23 2e 80 3d e7 81 b7 3d 7a 61 d9 3d 7b 7f a1 3d
       0.062588 0.08960324 0.10614295 0.07885643
0001c0 6b 7a b7 3d 2d 48 85 3d bd f2 96 3d 9b 37 ac 3d
       0.08958896 0.06507907 0.073705174 0.084090434
0001d0 e9 3c 8d 3d ce 66 b0 3d cf 6b a7 3d 93 83 a8 3d
       0.06896383 0.086133584 0.0817486 0.08228221

fc3.weight f4 [1, 120]
000000 21 3f 1c be c3 51 4e 3e 3d 1c 1e be 55 cb 0b be
       -0.15258457 0.20148377 -0.1544046 -0.13651784
000010 42 d1 80 3e 2e cb 1b be 22 93 6d 3e ef 73 11 be
       0.2515965 -0.15214226 0.23200658 -0.14204381
000020 b9 a3 28 be 56 f7 56 be 37 61 18 3e 05 bb 18 be
       -0.16468705 -0.20992789 0.14880835 -0.14915092
000030 e8 e0 2f 3e 55 b0 05 be ae ff 1b b8 90 68 ff bd
       0.17175639 -0.13055547 -3.7193e-05 -0.124711156
000040 e2 fa 81 3e 79 e5 f5 ba ca f2 c6 bc 5c 68 02 be
       0.2538672 -0.0018760405 -0.024285693 -0.12735122
000050 6a b2 85 3e 9c b2 3e 3e 13 26 f4 bd 29 a6 20 be
       0.26112682 0.18622822 -0.119213246 -0.15688385
000060 a7 46 f7 3d 54 a7 17 be c7 61 0b be 6c d2 0e 3e
       0.12074023 -0.14809924 -0.13611518 0.13947457
000070 32 29 b4 bd 82 cd 49 3e dd ed ac bd e4 75 e2 b2
       -0.0879692 0.19707301 -0.08443806 -2.6363473e-08
000080 83 7b 0a be 10 07 0f be e7 b1 06 be 50 e5 6b 3e
       -0.13523678 -0.13967538 -0.13153802 0.23036695
000090 41 ef 07 be 98 72 12 be 46 ab 7f 3e 4e 1f 2b 3e
       -0.13274862 -0.14301527 0.2496768 0.1671116
0000a0 67 a1 18 be 90 40 0e be ae 6e 09 be 8c 24 fa bd
       -0.1490532 -0.13891816 -0.13421127 -0.12214002
0000b0 b1 72 23 be 1e d9 18 be 85 5e ff bd b2 e0 09 be
       -0.1596172 -0.14926574 -0.124692 -0.1346462
0000c0 9e b3 2c 3e 0e 0a c8 bd f5 c7 18 be 19 03 0a be
       0.16865394 -0.09767543 -0.14920028 -0.13477744
0000d0 fb e7 41 3e f2 a2 60 3e 68 20 02 be 29 0f 12 be
       0.1893615 0.21937159 -0.12707675 -0.14263596
0000e0 d2 96 15 be 45 45 6a 3e b7 d9 fb bd 40 1c 1a be
       -0.14608315 0.22877987 -0.12297385 -0.15049839
0000f0 86 ab 53 3e b4 a8 30 be 73 b6 22 be 90 8d 22 be
       0.206709 -0.17251855 -0.15889911 -0.15874314
000100 f6 fa f9 bd 07 0d e6 bd be 00 49 3e d5 c2 4c 3e
       -0.1220607 -0.112329535 0.1962919 0.19996198
000110 58 cb bc bd 9c 0a 08 be 2d 5d 28 be 77 bd c7 bd
       -0.09218472 -0.13285297 -0.16441794 -0.097529344
000120 2b fc 6e 3e 18 35 84 3e d4 c4 59 3e ae 6b 63 3e
       0.23338382 0.25821757 0.2126649 0.22209045
000130 f9 cc 52 3e e1 6e 60 3e a3 b8 27 be ba ec 23 3e
       0.20586003 0.21917297 -0.16379027 0.16008273
000140 47 ff 67 3e ea b0 ba bd 26 82 26 be 1f c6 30 3e
       0.22655974 -0.09115775 -0.16260585 0.17263077
000150 e1 f9 10 be 6b 66 0b be 28 64 4f 3e fe 2e ec bd
       -0.14157821 -0.13613288 0.2025305 -0.115324005
000160 62 de 54 3e 21 65 73 3e 4d 3f d5 bd df 05 5b 3e
       0.20787957 0.23769046 -0.10412464 0.21388958
000170 ec 01 db bd de d4 19 be f6 a6 be bd 61 4e d3 b8
       -0.10693726 -0.15022609 -0.09309189 -0.00010075863
000180 99 de 22 be 06 2f 13 be 65 5f 19 be 31 59 11 be
       -0.15905227 -0.14373407 -0.14977796 -0.1419418
000190 bf ff 61 3e 7f 72 32 3e 3b d7 28 be 0f 5f 40 3e
       0.22070216 0.1742649 -0.16488354 0.18786262
0001a0 a5 30 29 be 92 7e e1 bd 40 7d 01 be 8d 91 20 3e
       -0.16522463 -0.110104695 -0.12645435 0.15680523
0001b0 64 ce bb bd c6 d0 60 3e 6d 71 02 be 15 55 02 be
       -0.09170225 0.21954641 -0.12738581 -0.12727769
0001c0 98 37 28 be 96 94 0f be 4a b4 fd bd a5 63 1a be
       -0.16427457 -0.14021525 -0.12387903 -0.15077074
0001d0 9f 53 ea bd 38 0d ed bd ce c2 0a be b2 53 53 3e
       -0.11441731 -0.11574787 -0.13550875 0.20637396
