k_fold_model_1/model7.pt (torch, 242935 bytes, 17 tensors)

conv1.weight f4 [10, 1, 15, 3]
00000000: 8942 22bd 83d4 a83d 09a3 34be eeaf 943e
00000010: fb4a 2fbe 681a 43bd 3a48 0d3d 9d84 083d
00000020: 6482 4bbe 2109 923d 3997 c1bd d45d efbd
00000030: 2c56 0a3e 14a1 3e3d 3b3f 82be 7bca 293c
00000040: f820 6e3e 0a0c 6fbe 020f d6bd c9db 3c3e
00000050: e48d 3fbd 5ae0 b2bd bea7 c83d 68a1 a1bd
00000060: 8fce 2ebd 1ca1 693e 2464 c8bc 57e1 98be
00000070: e643 bfbc 1922 1ebe 49be f7bd d563 ed3d
00000080: f058 0bbe 67d8 04bd 3332 dabd cf43 e8bc
00000090: 9a8d 8c3d 6de8 17be e473 863c 855a bbbc
000000a0: 9915 913e 0781 17bd e5b2 c9bd 8b3b 75be
000000b0: a953 b3bc fce6 363c e82c e13d a03b b4bd
000000c0: 28e7 853d b523 60be 2d7c b83e e4fd 48bd
000000d0: e25f 9ebd 8050 5e3e 88d9 2cbe aa6c 163e
000000e0: 5903 e6bd 6a88 9c3c f84d 0c3d 50a3 4ebe
000000f0: d17c c73d 811c 6bbc 753f 88bc 7c24 12ba
00000100: 23d5 83bd 07ab 803c 4002 843e 3740 d4bc
00000110: 4ee0 fcbb 366a 3dbe 1676 193d e0c0 733d
00000120: a7b5 9dbd 51f8 febc efde 4d3e b1b6 f73c
00000130: 777f 3a3c ef5e 3ebe 9aaa 193e d2a0 803e
00000140: 512d 47bd 4715 c1be 415f 163d 7a6f ccbe
00000150: 4710 aa3d ca93 923c f9af 64bc 5bef e03e
00000160: c788 f33b cd77 bb3e dea4 c23d abf3 02be
00000170: f870 07be 3b40 243d 0f8b aebd 2d3a 2fbe
00000180: ac72 4f3e 70fa 973d e55b 4d3e c086 77be
00000190: f5dd f2bd bbb8 2f3e dc33 4dbe a903 09be
000001a0: 39fd 80be 3fba f1bc 8918 d03c a86e f13d
000001b0: 0b9a 403d 66a3 bfbd c9b2 09bd 8c9e e03b
000001c0: 4621 d93d e933 843d 20fc 1ebe 8228 f43c
000001d0: 1caf 0f3d 733c 963c e5c2 443d 362c f7bd
000001e0: e582 233d 1dbb 393d 196f 643d 9a29 cd3b
000001f0: cba4 a4bd bed2 393e e434 893d 1cf1 bfbd
00000200: 159d 143e 8a51 023f ce16 b83d eb8d 913e
00000210: c688 503e 9743 2c3e d1bf 40bd c77f b73e
00000220: 5de9 ff3d cbaa 44bc 07ee af3c bc38 e1bc
00000230: d14b c7bd 54e8 cb3d 6e46 723d 179d 19be
00000240: 3090 4fbe 36da 41be 28f0 8dbe 028b 18be
00000250: c1ec 173c 9901 8bbe 6320 29be fb2d 4a3c
00000260: ef8c 48bc 10d6 343b 2cc3 cf3d 1e73 013e
00000270: 1f36 853e 240f 853e 10e3 843e f243 6bbd
00000280: 8f35 6cbb 4b23 283d f268 1cbd a11f 7fbc
00000290: 18fd 673d 6e7f c43d 78a1 29bd f431 8fbd
000002a0: 4ef2 1a3e 092d 8a3d 414c 7b3c a16d 633d
000002b0: d123 083e da93 bbbd 04d7 0e3d f673 c8bd
000002c0: 98a8 17bd 16be 423e e4fb b63d d200 a13e
000002d0: 3a39 233e f80f 9abd eda3 1c3e 52ab 973e
000002e0: 6977 52be 3675 a7be 3545 573e 8fe8 3e3e
000002f0: adaf 673d 292b 16be 7444 453d a16a 5e3e
00000300: 4463 c33d 6168 f83d 99ad c83d 6e63 19bd
00000310: ce01 50bd 36a7 10be 18f0 bbbd b37c adbc
00000320: 5183 a0bd e054 72bd f93d 2d3d 2be9 723e
00000330: fee0 2bbe ddd3 ee3d 4f77 cc3d 437a 3a3d
00000340: 6d78 093e a74e 0bbd e2dd d73d a5db e03d
00000350: 5ac1 a53d 5f22 70be 701d aebc 4c4b 19be
00000360: d5ba 46bb 5a4c 68be 99cc 77be ebb8 813d
00000370: e46f 223d 2164 893e dbe6 b2be 8454 7fbb
00000380: fe5d 1cbe d76b 81bd b680 223e d765 5e3e
00000390: 73f2 06be 197b 543e 7b26 73be c2ca 56be
000003a0: 97de 033e 8f1a 873d bac7 cdbd 0851 edbb
000003b0: ee42 33bd 4f43 8e3e 3134 83be 5e94 4c3e
000003c0: 9a0a 533e 220a fbbc c023 8abb dde4 143e
000003d0: 5712 183e 65d7 47bd abaa 84be a8b1 15bd
000003e0: 23fd 903c a997 613d 3e29 523d 4ff1 52be
000003f0: 2cf8 88be d572 563c 68a0 2c3e 30e6 1abe
-0.039614234 0.082436584 -0.17640318 0.29040474 -0.17118447 -0.047632605 0.03449271 0.033329595
-0.19873959 0.071306475 -0.094526716 -0.11687818 0.13509434 0.046540335 -0.25438866 0.0103632165
0.23254764 -0.23344436 -0.10452081 0.18443216 -0.046766177 -0.08734198 0.09797619 -0.07892114
-0.04267746 0.22815365 -0.024461813 -0.2985942 -0.023347806 -0.15442695 -0.12096841 0.11591307
-0.13608146 -0.03243294 -0.10654106 -0.028352646 0.06862946 -0.14834757 0.016412683 -0.022870312
0.2833679 -0.036988284 -0.098485745 -0.23948495 -0.021890478 0.011163469 0.10994893 -0.08800435
0.0653823 -0.21888621 0.3603224 -0.049070254 -0.07733132 0.21710396 -0.16879857 0.1468989
-0.11231107 0.019108016 0.034254044 -0.20179486 0.09740604 -0.014350058 -0.016631821 -0.00055748946
-0.06437137 0.015706552 0.25782967 -0.025909526 -0.007717169 -0.18497548 0.03746613 0.05951011
-0.07700663 -0.031124266 0.20104574 0.030238481 0.011382929 -0.18590902 0.15006486 0.25122696
-0.0486272 -0.37711546 0.036711935 -0.399288 0.08303886 0.017892737 -0.013957971 0.43932614
0.0074320766 0.36614838 0.09504102 -0.12788264 -0.13226688 0.040100317 -0.08522617 -0.17112036
0.20258588 0.07420814 0.20054586 -0.24172497 -0.11858741 0.17160313 -0.20039314 -0.13380302
-0.25193194 -0.029507754 0.025402324 0.11788684 0.047021907 -0.09357338 -0.03361777 0.0068548378
0.106020495 0.064552136 -0.15525866 0.029804472 0.035079107 0.018339371 0.04803743 -0.120689794
0.039919753 0.04534446 0.055770013 0.006261063 -0.08039244 0.18146798 0.06699541 -0.0937216
0.14513047 0.5090567 0.08988725 0.28428587 0.20364675 0.16822658 -0.04705793 0.35839674
0.124956824 -0.012003611 0.021475805 -0.027492873 -0.09731258 0.099564224 0.0591492 -0.15001331
-0.20269847 -0.18930897 -0.27722287 -0.14896777 0.009272755 -0.27149656 -0.16516261 0.012340064
-0.012240632 0.0027593412 0.10144648 0.1264157 0.26017854 0.25988114 0.25954485 -0.057437845
-0.0036042666 0.041049283 -0.03818602 -0.015571506 0.056637853 0.09594618 -0.041413754 -0.0699195
0.15131494 0.06746871 0.015338005 0.055524472 0.13294913 -0.0915906 0.034873024 -0.09787743
-0.037026018 0.19017825 0.08934763 0.31445938 0.15939799 -0.07522577 0.15296908 0.29622895
-0.20553364 -0.32706612 0.21022494 0.18643402 0.05656402 -0.14664902 0.048160985 0.21720363
0.09540418 0.12129284 0.09798736 -0.03744834 -0.05078297 -0.14126286 -0.091766536 -0.021177625
-0.078375466 -0.059162974 0.04229543 0.23721759 -0.16785046 0.116615035 0.09983694 0.045526754
0.13424845 -0.034010556 0.10540368 0.10979394 0.080935195 -0.23450612 -0.021254271 -0.1497013
-0.0030323763 -0.22685376 -0.24199142 0.063340984 0.03965749 0.26834205 -0.34941754 -0.0038960287
-0.1527023 -0.06319397 0.15869412 0.21718536 -0.13178425 0.20750083 -0.23745148 -0.20975783
0.1287788 0.065968625 -0.100478604 -0.0072423257 -0.043765 0.27785727 -0.25625756 0.19978473
0.20609513 -0.03064448 -0.0042156875 0.1454043 0.14850746 -0.0487894 -0.2591146 -0.03654638
0.01769883 0.055076275 0.051308863 -0.20599864 -0.2675184 0.0130889015 0.16858065 -0.15126872

conv1.bias f4 [10]
00000000: 1444 d638 fafb 0239 b1bd f1b8 c5c0 123a
00000010: 9df0 bc38 1c0d 2b39 85ae d13a 1e14 da39
00000020: 8849 f539 c226 1f3a
0.00010216996 0.00012491635 -0.00011527108 0.0005598183 9.009356e-05 0.00016312714 0.0015997445 0.0004159519
0.00046784827 0.0006071144

bn1.weight f4 [10]
00000000: a1e8 383f 1eaf 1b3f 7d96 453f ef41 2e3f
00000010: 8f6d 0a3f 9fbf 0d3f 7d16 3c3f f7fb 2f3f
00000020: 427d 1c3f 3373 273f
0.72229964 0.6081408 0.7718275 0.68069357 0.54073423 0.55370516 0.73471814 0.6874384
0.6112863 0.65410155

bn1.bias f4 [10]
00000000: 356c 7abe c950 aabd 1c16 b0be 657d bbbe
00000010: e9a8 ccba 07db fdbd 622c bcbe ace9 14be
00000020: d032 52be f308 a1be
-0.2445534 -0.0831619 -0.34391868 -0.36619106 -0.0015614304 -0.12395292 -0.3675261 -0.14542264
-0.20527196 -0.3145214

bn1.running_mean f4 [10]
00000000: 6989 27bf 5211 af3e e1c5 ee3e bfd5 fc3e
00000010: a2f7 0f3e d5fd 4f3d 119a fc3d 1a89 973d
00000020: c92d e73e 2083 0b3f
-0.65444046 0.34192902 0.46635345 0.49381825 0.14059308 0.050779182 0.12334073 0.07399197
0.4515212 0.54496956

bn1.running_var f4 [10]
00000000: 25eb 393d 29bc 023d db32 b13d 571f de3d
00000010: b317 113d 918f ab3c 6006 c73c b5e5 a43d
00000020: 8e8a d53d 77db 9b3d
0.045390267 0.031917725 0.08652278 0.10845821 0.035422992 0.020942481 0.024295032 0.08051626
0.10426818 0.07610219

conv2.weight f4 [20, 10, 3, 3]
00000000: 077b d43c cda5 a93d 357e 8c3d 7bc0 0a3d
00000010: 2bf3 f0bd 9955 af3d d3a1 1f3e 26a4 0d3e
00000020: 314a 1f3e ec12 143e f3f3 b93c 0426 4fbe
00000030: 8e22 e23d 29ff dbbc e712 0cbe 1895 e4bc
00000040: 2114 4abd 8c5b aabc 78f5 053e aaf0 b83b
00000050: 6c60 1abd 6f8d 3f3d b058 763d 61c0 90bd
00000060: dbe2 153e 108f 1bbd 6ca2 5ebe 8dd7 063e
00000070: 03dd 463d efa1 a9bd 158a b03d f5cd 4cbd
00000080: 90cb d8bd 81aa 0cbd 7ca4 06be 6417 8bbe
00000090: 7b7b 413e 7bdb b13d 4e46 9d3c c361 383d
000000a0: 1d74 dd3d 3f4e 423d bcf6 0dbe 5446 79bd
000000b0: a242 eabc ba97 3c3d b809 02bd 9f50 a43d
000000c0: babc fc3d 951c 2f3e 4b07 573e 3aee 433d
000000d0: 169b 173d 581a ff3c 1fe7 873c 390e 3ebd
000000e0: fc2f cabd 63d8 853d 1e8a 013d b2d7 71bc
000000f0: 2462 3d3c 6b7e 9fbc 8158 533b e374 9c3d
00000100: f526 7abc 4074 febd 4a7a 5abb ea06 c73d
00000110: 652f 3f3d cc8d 74bd afd0 e3bd 5d0a 3cbe
00000120: 3de3 62bd cae6 80bd 81a3 20be 8f20 c73d
00000130: 6eb3 9f3d daf3 80bd 252e efbd 06c0 ecbd
00000140: 8968 07be a1e8 013d 7d54 9f3c ee71 dcbd
00000150: df2e 1fbe 5629 19be b039 4dbd 150b a53d
00000160: 57aa b2bd f625 6fbe 07a7 233c d629 ec3d
00000170: 13cc 9e3c 8fd4 013e 6c5d 92bc b0e1 df3d
00000180: 71ed 2cbe 1286 c83d 1760 bb3d 5769 473d
00000190: 8178 203e 553e 2e3e 96fd 8bb8 25ba c93d
000001a0: 504a 10bd 955a bf3e 2111 253e 86f6 42bc
000001b0: bd91 aebb ffa2 3c3b bc46 583c 0ef1 17be
000001c0: 754a 3fbd 1253 dc3d b45f 0f3e 4837 9c3d
000001d0: a417 f1bd 69c1 02be f7f4 22be 2467 5abe
000001e0: 7c5e 30bd 01b4 e5bc b95d a53a 6bbc 8c3e
000001f0: 00fa 20bd df5b 53be 7155 d93d 0a7d c9bd
00000200: 0d5f 4a3d 8682 88bb 07c1 0bbe 0c56 6e3c
00000210: 898c 8abe 79a6 093e 3d53 96bd 7364 993e
00000220: c140 52bd 5c55 e03d 786b 76bd 54b9 46bd
00000230: 3706 613a e4bc c9bd c013 7d3c 7732 a43c
00000240: 673b f2bc ec45 35be 03c9 16bd 6b0c 4ebd
00000250: d5df b53d 3051 62bd 29a3 5dbd f363 b33c
00000260: 8c55 923d cc68 893e 92be f4bb 4ac7 e2bc
00000270: 131b e33d d3cb 38bd b50c 8cbe 86b9 b23c
00000280: b3c6 1b3e 1a57 9f3c 3276 e2bc 31b1 04bd
00000290: 6661 62bc e580 923d a198 143e 87cf 11be
000002a0: 9fa8 6cbe d9cb 003e 5c71 bcbd fc68 813d
000002b0: d33e e13c 32be 4dbe 5633 2bbe 1781 1abd
000002c0: 634e cbbc 3d8c bf3d d904 fbbc 5aee 00be
000002d0: 36fc 533e 4d32 abbd 9779 2abe 7e27 603e
000002e0: 9684 c43d 731d 173e 895d 43bd 8214 7cbd
000002f0: df7d 7e3e 9367 d03d 4c8c b83d 83a9 b63d
00000300: faa4 bc3d 158c 6fbd 62a5 e7bc dd5c 223d
00000310: 8c6c a63c 47f0 94bd cf00 143e 7e05 2cbd
00000320: 99e0 adbd e7b8 24be b0aa c33d f3f5 203e
00000330: 684c 053e debf 88bd f94d ebbc c3f8 b43c
00000340: af52 05bd 35f7 04be becf 02bd 0319 9ebc
00000350: 2c1f 85bc 4a5c 4dbd b404 4abd 6059 cdbd
00000360: fda7 17be 0bb7 1cbe c8e9 31be a1f5 233e
00000370: 6b23 e8bd fd36 12be 5445 3f3e 7726 9a3d
00000380: 7369 e23c c900 52bd 7a5f d03d 0a75 533b
00000390: 9821 3dbe 8013 f0bd a048 94bd 1fae 91bc
000003a0: 3964 8d3b cb21 733d 3910 e7bc 9552 1e3c
000003b0: dbc7 1dbd 3763 babd 6654 a43d 71ff 003e
000003c0: 6fdc 75be efcb 87be 5364 69be f08e 013e
000003d0: 29a8 803d 242d 8bbb 3ed7 efbd 861a 1abe
000003e0: 6ab1 28be 2fdc 2a3d e928 81bd 1d1e d1bd
000003f0: 0b42 5dbe f7d6 10be aa70 b2be 6a30 ea3d
0.02593757 0.08283577 0.068600096 0.03387497 -0.117651306 0.08561248 0.15589075 0.13832149
0.15555646 0.14460343 0.022699332 -0.20229346 0.11041747 -0.026855068 -0.13679086 -0.027903125
-0.049335603 -0.020795606 0.1308192 0.0056439238 -0.03768961 0.04676574 0.060143173 -0.07067943
0.1463732 -0.037978232 -0.21741647 0.13168164 0.048550617 -0.082828395 0.08620087 -0.050001103
-0.105857015 -0.034342293 -0.13148683 -0.27166283 0.1889476 0.08684441 0.019198563 0.045015108
0.108131625 0.047437903 -0.13863653 -0.060858086 -0.028596226 0.046043135 -0.03174755 0.0802319
0.12340684 0.17100747 0.20998876 0.047834612 0.037013136 0.031140491 0.0165897 -0.046400283
-0.098724335 0.06535413 0.03162586 -0.014760898 0.011559043 -0.01946946 0.0032248797 0.07639482
-0.015268077 -0.12424517 -0.003333705 0.09718116 0.04667606 -0.05970554 -0.111237876 -0.18363328
-0.055392493 -0.062940195 -0.15687372 0.09723007 0.07797895 -0.06296511 -0.11678723 -0.11560063
-0.13223471 0.031715993 0.019449467 -0.10763918 -0.15545224 -0.14957175 -0.050103843 0.08058754
-0.08723896 -0.23354325 0.009988553 0.11531417 0.01938442 0.12678741 -0.017866813 0.10931718
-0.16887452 0.09791197 0.09149187 0.048684444 0.15670969 0.17015965 -6.6752706e-05 0.098499574
-0.03522712 0.37373796 0.16119815 -0.011899596 -0.005327432 0.0028783677 0.013200458 -0.14838049
-0.046701867 0.10758032 0.14001352 0.076277316 -0.11772087 -0.12769093 -0.15913759 -0.21328408
-0.043058857 -0.028039934 0.0012616433 0.27487502 -0.03930092 -0.20640515 0.10612 -0.098383024
0.049407054 -0.00416595 -0.13647853 0.014546882 -0.27060345 0.1344241 -0.07340095 0.2995945
-0.051331285 0.10953781 -0.060161084 -0.048516586 0.0008583995 -0.09850481 0.015446603 0.020043595
-0.02956934 -0.17702454 -0.036812793 -0.05030481 0.08880583 -0.055253208 -0.05411068 0.021898245
0.07145223 0.26837766 -0.007469007 -0.027682919 0.11089148 -0.045116257 -0.27353445 0.02181698
0.15212516 0.019450713 -0.02764425 -0.032395545 -0.013817167 0.07153491 0.14511348 -0.14239322
-0.23111199 0.12577762 -0.09201309 0.06318852 0.027495777 -0.20092085 -0.16718802 -0.037720766
-0.024817651 0.0935292 -0.03064196 -0.12590924 0.2070168 -0.083592035 -0.16647945 0.21890065
0.09595601 0.14757328 -0.047696624 -0.061542995 0.24852704 0.10176005 0.090111345 0.089190505
0.09211154 -0.058483202 -0.028277103 0.039639343 0.020315431 -0.07272392 0.14453433 -0.041997425
-0.08490104 -0.1608616 0.095540404 0.15718822 0.13017428 -0.06677221 -0.028723704 0.022091275
-0.032549556 -0.12984927 -0.0319364 -0.019299036 -0.016250215 -0.05013684 -0.04932089 -0.100268126
-0.14810176 -0.153042 -0.17374337 0.16011669 -0.113348804 -0.14278789 0.1867879 0.07526868
0.027638173 -0.05127028 0.10174461 0.0032265806 -0.18469846 -0.11722469 -0.072404146 -0.017783223
0.004314926 0.0593584 -0.028205978 0.009663244 -0.038520675 -0.09100955 0.0802391 0.12597443
-0.2400987 -0.26522776 -0.22792177 0.12652183 0.06282074 -0.0042473245 -0.11710976 -0.1504918
-0.16473928 0.04171389 -0.06306631 -0.10210822 -0.21607225 -0.14144503 -0.3485158 0.114350155

conv2.bias f4 [20]
00000000: 8ad6 87b7 14d3 e337 49bc 9b38 8047 8537
00000010: 0859 a4b6 954e 3e38 6acd f138 d856 02b9
00000020: 3179 8438 e63b c238 c82c 3339 19b3 ed38
00000030: ce43 ed38 ce6a e1b8 2e5b 02b9 1af3 5638
00000040: ced4 04b8 1cfa 3fb8 68e3 8ab8 deee fab8
-1.6193157e-05 2.71588e-05 7.426047e-05 1.588813e-05 -4.8979455e-06 4.5372715e-05 0.00011530037 -0.00012430118
6.316824e-05 9.261798e-05 0.00017087453 0.000113344 0.0001131367 -0.0001074873 -0.00012431733 5.1247982e-05
-3.1669442e-05 -4.577088e-05 -6.6227105e-05 -0.000119654214

bn2.weight f4 [20]
00000000: 7337 d13e 63c6 053f c1dd 003f 22f2 e73e
00000010: 0385 073f 8c02 c23e 021f fb3e 21db e93e
00000020: 5fa1 d73e 7c50 fc3e b23a bd3e cb19 f13e
00000030: 1012 e63e 0616 273f c2cb dc3e 041f ca3e
00000040: b53d cb3e 4de8 2b3f b7f2 fb3e 5e89 c43e
0.40862617 0.5225584 0.5033837 0.4530192 0.52937335 0.37892568 0.49047095 0.45674995
0.42115304 0.49280155 0.36958843 0.4708999 0.44935656 0.6526798 0.43124205 0.39476788
0.39695516 0.6715134 0.49208614 0.38386053

bn2.bias f4 [20]
00000000: f5a1 26bd 399b 3fbe 0dd0 96be 1588 e1bd
00000010: ca44 9cbe a3a7 69be 26c5 26be 3454 18bf
00000020: fb60 60be 4959 d0be bbb4 cbbe c8b1 47be
00000030: 406d 3ebe 6461 86be de50 80be 8465 e8be
00000040: 3f27 cabe d72c bfbe fba3 8dbe 6e3d 1ebf
-0.040681798 -0.18711556 -0.29455605 -0.11012284 -0.30521232 -0.22817855 -0.16286144 -0.59503484
-0.21911995 -0.4069312 -0.39786324 -0.19501412 -0.18596363 -0.26246178 -0.25061697 -0.4538995
-0.39483067 -0.37338898 -0.2766417 -0.61812484

bn2.running_mean f4 [20]
00000000: cbd0 63bd 9d1a 193e 0400 94be c122 d7bd
00000010: b1ea 0a3e 306c c9be 64be af3e 973f 173e
00000020: 6a5f 88be f208 fabe acb9 3fbd a8ad a03d
00000030: 5c4a a6be 9f3f 45be b6db 3ebe 03da 20be
00000040: e73d 9ebe f6e2 dbbd 44ad 6bbe 9808 cb3c
-0.055619042 0.14951558 -0.28906262 -0.10504676 0.1356609 -0.39340353 0.34324944 0.14770351
-0.26635295 -0.4883495 -0.04680793 0.07845622 -0.32478607 -0.19262551 -0.186385 -0.15708165
-0.30906603 -0.10736649 -0.23015314 0.024784371

bn2.running_var f4 [20]
00000000: 5700 b93e 67ec 333e 8dce ab3e b305 5e3e
00000010: b18e a73e 2804 4f3e 24de 6e3e b9c4 fb3d
00000020: 5bcd 4d3e 0ec4 5d3e 2c97 2a3e 2216 ad3e
00000030: fb63 2d3e 2df3 723e ecfc 113e df18 1b3e
00000040: 8869 0e3e 954a 423e d2d1 9c3e 3360 d03d
0.36133072 0.17570649 0.33556023 0.21681862 0.32726052 0.20216429 0.23326927 0.12293381
0.20097868 0.2165682 0.1665923 0.33805948 0.16932671 0.23725577 0.14256638 0.15146206
0.13907444 0.18973763 0.3062883 0.101745985

fc1.weight f4 [256, 100]
00000000: 2b0c 303d aea9 1d3c 70a0 a23b 109b b1bb
00000010: 3af3 833d e035 a83d 78a9 feba 71e8 123c
00000020: 53aa 3bba 8316 093d 0adf 0c3d 0381 4cbb
00000030: a87a a23b b662 b73c 4853 0dbc 2f66 df3c
00000040: c8c4 193d 4821 0a3d aa82 b43c 6497 7d3d
00000050: 2f38 af3d 8713 9c3c c338 d63d 24a2 1fbc
00000060: 2636 9dbc 69fb aa3d 000f 7138 836f 99bc
00000070: d4b7 adbd 4754 2e3d 7fd2 fc3d cedf ca3d
00000080: 2efc 4f3d 56df 4abc af6d bc3c a2f6 3e3b
00000090: 5e2d a43c 6e07 babb 2d9e 03bd c88e afbb
000000a0: 8bed ef3c 98e4 54b9 4dd9 773b 249f 0a3d
000000b0: a5b9 a13d c8db ba3c ac43 f3bc cbf4 173c
000000c0: 9762 863d 6ae8 033d 88c9 af3c bb9e eebc
000000d0: b222 b5bc 0149 de3c 7030 ccbb 5ba5 043d
000000e0: 6c42 083e dc68 303d 9588 593d 9470 adbc
000000f0: 4472 b83c 0d68 ba3b 0a40 093d 6954 103c
00000100: a5ec c63d f9bc 4abc 3311 dcbc 58b8 b23c
00000110: 2c1d 7a3d d7d7 803d 4862 ae3d 33fc 943d
00000120: 7ead 433d 7174 5fbc 16a7 833c b181 a13c
00000130: 5015 8abc 2ab8 f3bc 2515 74bd ace7 20bd
00000140: 6c08 993b 3f67 d1bb 33d7 b9bc 365c 37bd
00000150: bbd2 97bb 050b 883d dc36 13bc 980a 653d
00000160: 917f d03d 1aae ac3d 36bb 303d 3743 053d
00000170: 56af b43c de9d 433c eb9c 9abd 2fe0 a2bd
00000180: 86b0 ddbd 315c 83bd 79c4 b13c d9a4 a0bd
00000190: 249a c83d 5387 f73c f5f7 9e3a fd87 d7bc
000001a0: 314d 4bbd 07e1 aabc c7b7 413d 2adc 363e
000001b0: b708 e43d a110 0d3b 4d05 ff3b 832a 74bc
000001c0: 7191 763d dd76 823d 190c f63c 632d 0a3c
000001d0: e686 1ebd 24bc ba3d ed75 59bb ac84 6e3d
000001e0: 8730 9dbc f25b 3b3c 3171 483d ad76 9c3d
000001f0: f856 463c 7b09 3cbd 3a48 e2bc 7bb8 f5bb
00000200: 68c3 82bc 05bf f63c 7191 3dbc 6f5e 973d
00000210: 6ce3 193c a25c 1a3b b42c 2fbd 2a5e a03d
00000220: 0ad8 cb3c 3cd7 8b3d 32bb 133d cf71 b7bc
00000230: 695c bb3c c427 023d 0669 5ebb cf75 1f3d
00000240: 3e57 9e3d eb42 7a3d bb06 9a3d 3661 d33c
00000250: 7a4f 043e 880d b13d 68a5 463d 3d1b 3a3d
00000260: 1ec8 b1bc c9ef 0dbd 26d3 003d d07c 3cbb
00000270: 1071 e83c fe58 5c3d ff9c 1ebd f901 e7bc
00000280: 590c df3c 4b9e cdbc 7c81 a93d 7638 0f3e
00000290: 83ff b03c 54e8 383c db89 393d c0f5 cd3d
000002a0: f711 d83d faea b93d d041 013d d20e 6dbc
000002b0: 343a 9f3c 5f2b 343d 3b23 26bd cbf0 a43d
000002c0: c6f4 46bb aee7 9cbb fa17 16bd 7a77 b23c
000002d0: a928 63ba 9065 183c e69f 003d eda6 9d3d
000002e0: 9c21 ba3d 0b92 c63c ef2a 513d 7104 b23c
000002f0: 524d 783d 6cd1 9d3c a369 d0ba 9e77 1b3d
00000300: 402c 213d d983 343d d4d5 c9ba 8a56 683d
00000310: 3b7b 5ebd a63f 4ebd c6ef e1bb a405 813b
00000320: 248e 753c 416d ea3c b750 103d a396 68bd
00000330: a469 eebd c377 843d 3ef0 573d 6806 91bd
00000340: b92d bcbd 4c46 aabd aeb4 793d 8498 1d3d
00000350: 3176 22bd 1900 6fbd 957a b2bd e3f4 593d
00000360: 05f7 e73d 6613 7cbc 10c4 7fbd 13c7 04be
00000370: 4c71 c83d 65eb 203d 3802 5cbd 2e9e 3dbd
00000380: 1c5b e2bc a316 bcbc 86b1 e53d b345 783d
00000390: fa0e 613d b262 abbd bbab a03d b3a8 1b3d
000003a0: 964c 1dbd d870 4fbd 6373 37bd bbbb 063b
000003b0: 0c74 58bc 7b49 3cbc a10d 53bd 0321 aabc
000003c0: f39c 7bbd 2701 483d 118a c03c 77e8 413c
000003d0: e3fd 95bd 8162 9ebd 6455 99bd 235e cc3d
000003e0: 7532 cd3c f2f0 afbd c6e6 b0bd 53ae 46bd
000003f0: ff8e 5bbd 4fd1 693d be8f a23c 476d 883d
0.042980354 0.009622974 0.0049629733 -0.005420096 0.06442876 0.08213401 -0.0019429168 0.008966551
-0.0007158864 0.033468734 0.034392394 -0.0031204827 0.0049584694 0.022385936 -0.008625813 0.027270405
0.03754118 0.033723146 0.022034962 0.061911955 0.08555638 0.01905228 0.10460045 -0.009743247
-0.019190859 0.08348734 5.7472847e-05 -0.01872993 -0.08482328 0.042560842 0.123448364 0.099059686
0.050777607 -0.012382349 0.02300152 0.0029138704 0.020041164 -0.005677155 -0.03213327 -0.005357597
0.029288074 -0.00020303053 0.003781873 0.033843175 0.07896737 0.022809878 -0.029695354 0.009274672
0.06561773 0.03220407 0.021458402 -0.029128423 -0.02211127 0.02713442 -0.00623136 0.032384258
0.13306588 0.04306875 0.05310877 -0.021171845 0.022515424 0.0056886734 0.033508338 0.008809187
0.09713105 -0.012374156 -0.02686367 0.021816418 0.061062977 0.06291168 0.085148394 0.07274666
0.047772877 -0.013638602 0.016070884 0.019715162 -0.016855866 -0.029750902 -0.059590477 -0.03928344
0.0046701934 -0.0063904817 -0.022685623 -0.044765674 -0.0046332753 0.06642727 -0.008985247 0.055918306
0.10180581 0.08431645 0.04314729 0.032534804 0.022056263 0.011939494 -0.07549461 -0.07952916
-0.10824685 -0.064140685 0.02170013 -0.07843942 0.09795025 0.030215895 0.001212834 -0.026309961
-0.049634162 -0.020859255 0.047294404 0.17857423 0.11134475 0.0021524804 0.0077826143 -0.014902714
0.060197297 0.063703276 0.030035065 0.008433673 -0.038702868 0.09117916 -0.0033181862 0.058231995
-0.019188179 0.011435496 0.048936073 0.07639823 0.012105696 -0.04590748 -0.027622331 -0.0074987984
-0.015962318 0.030120382 -0.01157032 0.07391059 0.0093926005 0.0023553749 -0.04276724 0.0783046
0.024883289 0.06828162 0.036067195 -0.022393135 0.022871213 0.031776205 -0.003393711 0.03893071
0.07731484 0.061098974 0.07520815 0.02580319 0.12920943 0.08645159 0.048497587 0.045436133
-0.021701869 -0.034652505 0.031451367 -0.0028760917 0.028374225 0.053795807 -0.038723942 -0.028199183
0.027227568 -0.025099894 0.0827665 0.13986382 0.021606212 0.01128586 0.045297485 0.10056639
0.105503015 0.09078021 0.031556904 -0.0144688655 0.019436933 0.043986674 -0.040560942 0.0805374
-0.0030358299 -0.0047883606 -0.03664396 0.021785486 -0.00086654216 0.009301558 0.03140249 0.07697854
0.09088442 0.02423956 0.051066335 0.021730633 0.060620613 0.0192649 -0.0015900623 0.037955873
0.03934884 0.044071052 -0.0015398809 0.056723155 -0.05431674 -0.05035367 -0.0068950383 0.00393744
0.014987502 0.02861655 0.035233226 -0.056784283 -0.11641243 0.06468155 0.052719347 -0.070813
-0.091884084 -0.08314189 0.060963325 0.03847553 -0.039663497 -0.058349703 -0.08714787 0.053212058
0.11326412 -0.015385484 -0.06244284 -0.12966566 0.09787235 0.03928699 -0.053713053 -0.04629343
-0.027631335 -0.022960013 0.112155005 0.060613345 0.054945923 -0.08368434 0.07845255 0.03800268
-0.038403116 -0.050644726 -0.044787776 0.0020558673 -0.0132112615 -0.0114921285 -0.05152667 -0.020767694
-0.061428975 0.048829224 0.023503335 0.011835209 -0.07323816 -0.07733632 -0.0748699 0.09978893
0.025048474 -0.085908785 -0.086377665 -0.048506092 -0.05360317 0.057084378 0.019843932 0.06661468

fc1.bias f4 [256]
00000000: 2c9e 93bb 6446 a0bd 6fe2 dbbc 654a a191
00000010: da02 9c3c 7f8c 06bd 6c66 473c ba7c bbbc
00000020: 2e2f e2bb d4f5 52bc b5c1 743d b1c4 1fbd
00000030: 7b7a 24a2 dd25 e43c 1a56 e0b7 e4d9 7a3d
00000040: 8675 123c 251b 5abc 9b5c 5fbd 4b13 9bbd
00000050: 4038 953d ca6c 2a3d faac 9d3d d415 e93c
00000060: af1c c23d 3d84 c4bd f23b f896 fb59 aebc
00000070: 927d 58bc 9cdc 5eae d7a6 2a93 0877 6bbc
00000080: 5c36 04bb 695f 023d f4c1 47bd eb3e 37ab
00000090: 6a72 4cbc 0f79 02bd e712 99bc d06b 24ae
000000a0: d09c f2bd efe5 42bd 5cef eebb 928a adbd
000000b0: 301c 0fbd 8659 d4af 108d 263b 253b 93bb
000000c0: 5175 e5b4 f4e9 1d3d 2848 0bbc 9848 91bd
000000d0: dba0 60b7 dd1e 38ba 648f b8ba c99c f1bd
000000e0: 9e81 89bb 4ed9 7a3d 1066 d8bb 0566 f1a9
000000f0: 171f 7a3d aca3 5eb3 49f7 a8bd 7442 003d
00000100: 9276 4abd 3da0 48b9 81a4 afb2 fa4e 0c3a
00000110: 8f1c 453d d219 a6b8 e0dd eabc d9e7 e2bc
00000120: a882 c1bc c1f2 75bb 987e e03c 74fa d4bc
00000130: 9b9e 94bd 0e03 de3c 20e9 e5bd 20a4 07b6
00000140: fcfb 81bc 53e7 fab8 ad00 bebd 4f1d 8ab8
00000150: 5b3c c9bb 0fec 5a3d ce7d d13c 6c8a fa3b
00000160: 75d0 063d cc7a 9cba 48d1 35bd bc06 7ba0
00000170: b543 51a6 62af fb39 8220 25bd 249b 60bd
00000180: 0515 133c 0c44 27bb d73d 853d dfc3 4ebc
00000190: de8b 0ebe bf97 22bd 0cb9 01af 0fd7 c9bd
000001a0: 4b29 4d3c 1214 25bb 20b0 733d 5751 83bd
000001b0: 5e6d 5abd 81cc 263c 451f dbb6 b0d8 5bbb
000001c0: a149 89b6 a7b7 06bd 3053 60b7 1525 9cb8
000001d0: f35c 8ebd d172 19bc 8f42 c6bb f25d 2b3d
000001e0: 84c1 833d 54ae 673c 5d85 d7bc 87d7 bcaa
000001f0: 989b 5c3b dba8 e2bc 4783 c9bd bfde ae3d
00000200: 86fc 4e3b e88b 0dbc ae0b 023b 7aaf afba
00000210: aa24 843c 1590 92bd 02b1 0dbd 4314 e1bb
00000220: b9fe 8b3d 436d 083d 4880 0abb 9775 8c3d
00000230: ad4d e2ac d16d ab3b f8de ca34 d2d1 2c3d
00000240: 8e70 80bd 167f 8a3c 0bb3 8fbd 23d4 a0ba
00000250: 9a97 123d c11e da3c 9536 99b0 76e9 48bc
00000260: ddee 823d 25b8 03bd e571 7cbd 76fa ec3c
00000270: cf35 1fae fa88 663d a4fe ca99 cca6 b8bc
00000280: f154 62bb ecb2 eabd d6c7 983d 981e 99a7
00000290: 13ed b33d 658a 843c 589d 343c ee21 283d
000002a0: 9bff f63c 74f4 a43a c0a8 8ca2 38a3 c3bc
000002b0: 2747 36bc 6784 603d 629c 71ab c6cb 6fba
000002c0: 3af5 423d c2fe cd3c 9972 6dbc 8eba 763d
000002d0: 3187 e694 f234 b4bc 82f0 2bae 43d1 76bc
000002e0: 3df9 77bc 0c53 3bb5 65f6 953d 5dcc 3d3b
000002f0: 1030 05bd c36b 373c 70f7 87bb 65fc bdbc
00000300: 2361 bcbc 85b0 c0bd 27db f7b8 bd54 9f3d
00000310: fffb 813c 0b26 2dbc da78 a3b8 6de1 41a3
00000320: adb2 b83a 7fef 559b 3673 22bd 365b 4ca8
00000330: 1a7b d0bc a0ca 7d3c 37a6 d2bc 97f8 a43d
00000340: acf2 0e3c 61ea f639 e57e 233d 176d c3bb
00000350: 3848 6ba3 151f 4bbd bea6 e1bc 6646 9c3d
00000360: f302 e53b d916 4aba f25a 87bb d66c b33d
00000370: 43bb 3a3d a08d 863c 1200 a1bd 6197 88bb
00000380: fd62 0fad d519 0bbb 1c6d 22b8 35a4 15bd
00000390: 06dc d939 8a82 9db9 c21b bebc 3766 9abb
000003a0: 2639 163c 1291 01b9 86fe 32b3 52cd d63b
000003b0: f02b 73b9 fbe9 47bd 669a 3fbc 6848 2cbd
000003c0: c02e b33b 6d6e f23b e05c e9ba 1a6c 4d3d
000003d0: 7cf9 6d3c e247 a8bc 3ea9 c03b e177 03bb
000003e0: db25 b3bc bc8d 6fbc 2131 edbc 9a71 933a
000003f0: 7d85 623d 6331 673c 9f87 d3bc ddbe 98bc
-0.0045049395 -0.07825926 -0.02684137 -2.544717e-28 0.019044328 -0.03284883 0.012170415 -0.022886623
-0.006902597 -0.012875993 0.059755046 -0.03900594 -2.2290985e-18 0.027850086 -2.6742975e-05 0.061242953
0.008939153 -0.013312136 -0.054531675 -0.07572039 0.072861195 0.041607656 0.07699008 0.028452791
0.09478127 -0.09595535 -4.0104392e-25 -0.02128314 -0.013213532 -5.0672896e-11 -2.1539275e-27 -0.014371641
-0.0020174002 0.03182927 -0.048768952 -6.5101977e-13 -0.01247845 -0.03185373 -0.018685771 -3.738504e-11
-0.11846316 -0.047582563 -0.0072917175 -0.08473696 -0.03493899 -3.8626186e-10 0.002541367 -0.0044931346
-4.2739933e-07 0.038553193 -0.00850109 -0.07093924 -1.33888925e-05 -0.0007023642 -0.001408082 -0.117974825
-0.00419636 0.061242394 -0.0066039637 -1.07202475e-13 0.061064806 -5.183726e-08 -0.08250291 0.031313375
-0.049429484 -0.0001913318 -2.0447489e-08 0.00053523446 0.04812294 -7.920306e-05 -0.028670251 -0.027698444
-0.023621872 -0.0037528726 0.027404115 -0.025998332 -0.07256814 0.027101066 -0.11226106 -2.02121e-06
-0.015867226 -0.000119640164 -0.09277473 -6.585812e-05 -0.006141228 0.05344778 0.025572684 0.0076458957
0.032913644 -0.0011938452 -0.04438904 -2.1262755e-19 -7.26032e-16 0.0004800512 -0.040314205 -0.054835454
0.008977179 -0.0025522737 0.06505936 -0.0126199415 -0.13920543 -0.039695498 -1.1798224e-10 -0.09855472
0.012522052 -0.0025188965 0.059494138 -0.06411999 -0.053326957 0.0101805935 -6.530349e-06 -0.0033545904
-4.0914897e-06 -0.03288999 -1.3370809e-05 -7.445567e-05 -0.069513224 -0.009365753 -0.006050415 0.04183764
0.064333946 0.014140684 -0.02630871 -3.354506e-13 0.0033662077 -0.027668407 -0.09839492 0.08538579
0.0031583621 -0.008639313 0.0019843387 -0.0013403737 0.016130764 -0.07156388 -0.034592636 -0.0068688705
0.06835694 0.033307325 -0.002113359 0.06858366 -6.43193e-12 0.005231597 3.7787663e-07 0.042192288
-0.06271468 0.016906302 -0.070165716 -0.0012270253 0.03578911 0.026625993 -1.1147728e-09 -0.012262693
0.06393216 -0.032158036 -0.061632056 0.028928023 -3.6200206e-11 0.056282975 -2.0989159e-23 -0.022540472
-0.0034535492 -0.11459908 0.07459991 -4.24992e-15 0.08785453 0.016179273 0.011023842 0.041047983
0.030151179 0.001258506 -3.8125747e-18 -0.02388154 -0.0111253625 0.05481377 -8.5837424e-13 -0.0009147491
0.047597148 0.025145892 -0.014492654 0.060236506 -2.3277389e-26 -0.021997903 -3.9094512e-11 -0.01506454
-0.015135107 -6.978378e-07 0.07322387 0.0028960921 -0.03251654 0.011195126 -0.00414937 -0.02319164
-0.022995537 -0.094086684 -0.00011818698 0.077798344 0.015867231 -0.010568152 -7.794956e-05 -1.0510287e-17
0.0014091335 -1.7696332e-22 -0.039660655 -1.1344053e-14 -0.025449324 0.015490204 -0.025714023 0.08055227
0.00872485 0.00047095402 0.039915938 -0.0059639323 -1.27546684e-17 -0.04959019 -0.02754533 0.07630615
0.006988877 -0.0007709093 -0.0041307146 0.08760993 0.045588743 0.016424954 -0.078613415 -0.0041684364
-8.150589e-12 -0.0021225114 -3.8725426e-05 -0.036533553 0.00041553396 -0.00030042633 -0.023206595 -0.004711892
0.009168899 -0.00012356442 -4.1675342e-08 0.006555238 -0.00023190654 -0.048807126 -0.011694526 -0.04206124
0.0054682195 0.0073984177 -0.0017804168 0.05015192 0.014524814 -0.020542089 0.0058795502 -0.0020060467
-0.021868637 -0.014621194 -0.02895409 0.0011249066 0.055303086 0.014110896 -0.025821505 -0.018645698

fc2.weight f4 [120, 256]
00000000: 4af7 143d ccdd a73b 7e77 9ebd 6728 0280
00000010: e915 d23c 25ca 3e3b a853 96ba d3de d33b
00000020: a35e 6d34 7a29 e1a7 9eb4 18bd 1179 893c
00000030: 1be3 1880 20dc 94bd 6a67 2180 fa26 87bc
00000040: c2b2 143d cdc6 dbb6 16a2 d73c 7d6e 853c
00000050: 0808 05bd 8bb2 42bd 671f 5abc 3de6 483d
00000060: f314 09bd c1ac e13c 50e4 0100 ff8d 90b9
00000070: b023 f93c 52d8 1400 8f7a 4a00 6da2 ad3c
00000080: 1bed 3f3d 62fe bebb cd59 9d3c 3b80 0b80
00000090: 0a02 62bc d92f ce39 1ced afba 872f 1f00
000000a0: c23b fe3c 968c 873c 1483 2d31 8d40 57bc
000000b0: a69c 063b 719d 2780 f8d6 ea3c bb33 d6b7
000000c0: 151a 1100 8a33 4dbd cf0e 9f38 6c70 e93c
000000d0: 8464 0080 ad96 4c3b e49a b12b 9eba a73c
000000e0: a1c9 82b1 4fea 3cbc 8f25 b4b1 f70e f026
000000f0: fc19 a4bc 83f1 1c80 0328 823a 83ef c23c
00000100: 3674 a5b9 e693 fa8e 83c6 1e00 afe7 8f3c
00000110: b0dc 19bd 60e5 4a23 4498 51ba cc55 813b
00000120: 6c9a 4c3b e81c 562a 75a5 f7bc 0862 933c
00000130: 1347 62bd d4d4 8abd a578 fe3b 25cd c483
00000140: 9177 73bb 42d7 d895 562f bb3c d8f1 7495
00000150: ac99 9fbc 46ec 74bc 0683 c0bb 2655 4fbc
00000160: 95b5 9e3a 06ba e0ae 3723 38bb 55f9 0e00
00000170: 74f0 0580 81e4 393d 763c 693c ec87 fe3b
00000180: 772d 1a3d 2376 6faa e33e 03bd 7d9c 2f38
00000190: 5dca 2a3d 590b 79b7 139a 1e80 26e4 9f3c
000001a0: 4be5 cb3c 9328 cb2b ced0 bdbb a6bf 473c
000001b0: 4c91 4e3a a432 2e3c 9765 ef0b 6d2f d7b0
000001c0: 720d 1680 c356 843c 4869 8625 c86b 8317
000001d0: 7d28 30bc dc12 062a 5d71 c9bb 976d df3c
000001e0: b30e 28bd 3e27 48bc 1b19 f83c 3191 e9a8
000001f0: f99d 7c3b 7587 303b 6644 053d c541 99bc
00000200: 5ed1 1ebb 98bf 573c 803d 64bb b61b bc3b
00000210: 3a9b 213b 366d 3f3c a667 b53b 3783 9133
00000220: a9fb 46bd 2b54 9fbd bf44 be3c 9c92 edbc
00000230: 2603 0c00 bab6 25bb 381d e535 28f2 e7bb
00000240: 1cdd af3b d4ba 8a3c ad61 e43c f60b 48af
00000250: 8998 9aba 450c 8d3b 47c8 1800 d096 6db5
00000260: 3a8a 84bc ddaf e93c 5691 1c3d 4f0b 8e3b
00000270: 53fa 0e00 6a8f 1bbd 1299 1c00 ed3c 533b
00000280: cdb0 9aa2 ed18 d33c 9b8c 2cbc 3435 1f00
00000290: 8467 52bd 20df b9bc 0155 be3b 099c 2cbc
000002a0: 133d d0bb 58ef 5abc 89b2 0f00 e1b7 703b
000002b0: 214d 1dbc 989a 05bb d131 1e80 00b5 c884
000002c0: 42e2 35bd 2622 e4bc 4946 943c 0f93 80bd
000002d0: d0bc 6f93 d9c4 173d fe8f 1800 877e 6535
000002e0: 0ca8 eaba 2957 1000 0222 1ebc 6492 983b
000002f0: 60f4 9aba 2ddf 86bc f0a2 78b0 5190 873a
00000300: 516a 9e3c ae75 d43c 6581 e813 c064 1bbd
00000310: 7cef 313c a3a9 f13c 8ac0 0500 994e 2b80
00000320: e9e2 043d 5bcd 0f80 1221 c83a 6f0f 2980
00000330: 0716 8638 491f cabc 03bc 753d 7bf7 4ebd
00000340: 56d3 06bd b214 d53b b131 e8bc 0f80 b3bc
00000350: c799 2e80 440f 8cbb 27a0 81bc c12c fdbc
00000360: 05e0 503c b5b9 09bc aa07 2b3d df5b 15bc
00000370: bb54 d7bc e132 28bc fa35 4c3d 3841 fcb3
00000380: 03e9 1100 63e4 11ab 7daf 0700 3cff 113c
00000390: a43a a43c ec81 0514 2443 0fbb 14a7 27bd
000003a0: ef41 62bc 3cde 849b 69f1 0600 3c18 db3b
000003b0: fa2d 4424 a940 69bc d5c1 9430 f304 81ba
000003c0: ca07 96bc 68bb dabb 3836 2caa 6279 3f3c
000003d0: 03f1 903b 03ff 08b9 ccbc 82ba a082 443c
000003e0: 0925 eebc 5120 623c 2ab7 0c3a e8bc adbd
000003f0: 6663 693c ad86 aa3a 0684 653c 6c78 abbc
0.036368646 0.005122876 -0.07737635 -1.98165e-40 0.025645213 0.0029112187 -0.0011469023 0.0064657717
2.2106774e-07 -6.2495014e-15 -0.037281625 0.016781362 -2.285522e-39 -0.07268548 -3.06767e-39 -0.016498078
0.03630329 -6.549852e-06 0.026322406 0.016288036 -0.032478362 -0.047533553 -0.013313151 0.049047697
-0.033467244 0.027548196 1.73739e-40 -0.00027571616 0.030412525 1.914311e-39 6.839792e-39 0.021195615
0.04685698 -0.0058286646 0.01920786 -1.056191e-39 -0.013794431 0.0003932703 -0.0013422105 2.86395e-39
0.031034354 0.016546529 2.5249323e-09 -0.013137949 0.0020540147 -3.638064e-39 0.028666958 -2.5534877e-05
1.57056e-39 -0.05009798 7.584469e-05 0.02849599 -3.6058e-41 0.003121774 1.2619597e-12 0.020474728
-3.8064205e-09 -0.011530473 -5.2429594e-09 1.6657402e-15 -0.020031922 -2.658032e-39 0.0009930137 0.023795849
-0.00031557836 -6.177218e-30 2.826277e-39 0.01756653 -0.03756398 1.0999014e-17 -0.00079954066 0.0039469954
0.0031219972 1.9017047e-13 -0.030230263 0.01799108 -0.055243563 -0.06778875 0.007765847 -1.15669435e-36
-0.0037150125 -8.758132e-26 0.02284972 -4.946619e-26 -0.019482456 -0.01494891 -0.005874994 -0.012654578
0.0012108559 -1.0219385e-10 -0.0028097162 1.37514e-39 -5.45436e-40 0.045383934 0.014235606 0.007767668
0.037641015 -2.1268451e-13 -0.032042395 4.1868992e-05 0.041696895 -1.4844199e-05 -2.810336e-39 0.01951797
0.024889609 1.4435279e-12 -0.0057927137 0.012191689 0.0007879927 0.010632191 9.2212307e-32 -1.5656788e-09
-2.025204e-39 0.016154652 2.3316636e-16 8.492884e-25 -0.010751841 1.1908134e-13 -0.006147547 0.027273936
-0.041029643 -0.012216387 0.030285409 -2.5931163e-14 0.0038546307 0.0026936207 0.032535933 -0.01870812
-0.002423368 0.013168238 -0.0034826696 0.005740608 0.0024659173 0.011683753 0.0055360375 6.7759565e-08
-0.048579846 -0.07779726 0.02322614 -0.029000573 1.103155e-39 -0.0025285915 1.7070333e-06 -0.007078428
0.0053669345 0.01693479 0.027878607 -1.8194143e-10 -0.0011794727 0.004304441 2.275898e-39 -8.850884e-07
-0.016179193 0.028526241 0.03822454 0.004334844 1.375496e-39 -0.037978567 2.626305e-39 0.003223236
-4.192898e-18 0.025768721 -0.01053157 2.865986e-39 -0.05136825 -0.022689402 0.005808473 -0.010535249
-0.006354937 -0.013362728 1.441579e-39 0.0036730694 -0.0096009085 -0.0020386335 -2.772936e-39 -4.7185996e-36
-0.04440523 -0.027848314 0.01809992 -0.06278049 -3.0259133e-27 0.037052963 2.255707e-39 8.549327e-07
-0.0017902865 1.500635e-39 -0.009651663 0.004656123 -0.0011822097 -0.01646384 -9.045342e-10 0.0010342692
0.019337805 0.02593502 5.8692626e-27 -0.03793788 0.01086032 0.029499834 5.28247e-40 -3.977122e-39
0.03244296 -1.4512e-39 0.0015268645 -3.770792e-39 6.393721e-05 -0.024673121 0.059993755 -0.050528985
-0.03291639 0.006502711 -0.028344007 -0.021911649 -4.279598e-39 -0.0042742807 -0.015823437 -0.03090513
0.012748723 -0.008406092 0.041755356 -0.009116142 -0.02628552 -0.010266037 0.049856164 -1.1746528e-07
1.644792e-39 -5.18313e-13 7.05802e-40 0.00891095 0.020047493 6.7404066e-27 -0.0021860087 -0.040930822
-0.013809665 -2.1981184e-22 6.37615e-40 0.0066862386 4.253967e-17 -0.014236608 1.0823508e-09 -0.0009843394
-0.018314261 -0.0066751726 -1.529548e-13 0.011686655 0.004423262 -0.0001306497 -0.0009974479 0.011994034
-0.029070394 0.01380165 0.000536787 -0.08483297 0.01424489 0.0013010107 0.014008528 -0.020931445

fc2.bias f4 [120]
00000000: fb05 c63d 75ff 0c3e 48e3 d53d 819b 923d
00000010: d5ec 843d d56c aa3d d424 8c91 bfc8 d13d
00000020: bf8c 983d cc6a fa3d 60f6 003e 5893 f03d
00000030: 048d d63d f152 a73d d899 a53d 2c25 873d
00000040: b647 bf3d 71e7 c43d bfb4 d73d ee4b e83d
00000050: 72fb ad3d 0ffe c53d 51a5 b43d c54c ac3d
00000060: df80 db3d 5f95 a83d 2b1a ae3d f5a4 cc3d
00000070: d857 d13d 6251 c53d 32a6 583d 2702 143e
00000080: 691f bc3d a08a 033e 8a2c f03d 750a 093e
00000090: 9862 8d3d 4fe0 c43d f92b e03d 88b4 e43d
000000a0: 657e 083e 1186 c13d e2c0 ae3d a71c af3d
000000b0: 630f d43d af57 bd3d b265 ea3d a237 e43d
000000c0: b88a ab3d 2868 133e dd54 0b3e a441 c53d
000000d0: 5b17 7c3d 374c 973d c02f b73d ad2e 3cb2
000000e0: c48e c53d c1a9 203e dbbd df3d 0938 c53d
000000f0: 7552 d13d bad0 f03d 6a5a e33d f22a 003e
00000100: 3ca6 b33d 9cbf d43d f2b7 ff3d 3985 dd3d
00000110: b679 0e3e c835 b33d 44a8 f13d 7b4c c93d
00000120: 5791 973d 09da 8c3d 8f61 093e 0f2a 043e
00000130: bbf3 033e ff47 ca3d 1f84 053e 1b38 ae3d
00000140: 61a4 7f3d 8ab3 b53d d90e c73d a440 33b5
00000150: 235f b03d 1ca6 ae3d 660d 003e 9330 923d
00000160: 9df5 f23d f44d dd3d 8c23 aa3d 6d29 ad3d
00000170: 35a2 853d f29c d03d b11e 6fb3 f86b c83d
00000180: 958a b73d 1871 803d 05fc d23d a9f9 f13d
00000190: ecd3 db3d d903 823d 8e59 08a9 64ea 0a3e
000001a0: 33a4 923d 1064 c83d 6047 b63d 7547 0b3d
000001b0: 269e da3d f414 983d 85c7 f03d 69ac dd3d
000001c0: cfa0 a33d e855 9a3d 16a9 a63d 0a59 8eb0
000001d0: 449b e03d 24a0 013c 838a b33d 1a22 913d
0.096691094 0.13769324 0.10443741 0.07158566 0.064904846 0.08321539 -2.2110802e-28 0.102433674
0.0744872 0.12227401 0.12593985 0.117468536 0.10476115 0.08170117 0.08085984 0.06598887
0.0933985 0.096144564 0.105325215 0.113426074 0.08495225 0.096675985 0.08820594 0.0841308
0.107179396 0.08231615 0.08501085 0.099924006 0.10221833 0.09634663 0.05289287 0.14453946
0.091856785 0.1284585 0.11727245 0.13382895 0.06903571 0.09613096 0.10945887 0.11167246
0.13329466 0.09449399 0.08532883 0.08550387 0.10354497 0.0924524 0.11445178 0.111434236
0.08376068 0.14395201 0.13606592 0.096316606 0.06154571 0.07387584 0.089446545 -1.0953653e-08
0.09646371 0.15689756 0.10924884 0.096298285 0.102208056 0.117585614 0.111012295 0.12516382
0.08771941 0.10388109 0.12486257 0.10816426 0.13913617 0.08750492 0.11799672 0.098290406
0.07400768 0.068775244 0.13416122 0.12906669 0.12885945 0.098770134 0.13038681 0.08506795
0.062412623 0.08872135 0.09719629 -6.677676e-07 0.08611896 0.085277766 0.12505111 0.07138171
0.11863253 0.10805884 0.08307561 0.08455167 0.06525079 0.10186185 -5.5674438e-08 0.097862184
0.08961979 0.06271571 0.10301975 0.11815197 0.1073378 0.0634839 -3.0275743e-14 0.13565975
0.07160225 0.097847104 0.089003325 0.034003694 0.10674696 0.074258715 0.11756805 0.108239
0.07989656 0.075359166 0.08137719 -1.0357166e-09 0.109671146 0.007911716 0.087666534 0.070865825

fc3.weight f4 [1, 120]
00000000: ef74 0cbe 2497 40be 1ed5 1cbe e592 0bbe
00000010: 2fd2 373e f298 dfbd 50a6 6d1c 3db2 1ebe
00000020: dbbf bfbd b40e 18be 6e58 7c3e e1fc 5bbe
00000030: bdb0 1bbe 3c6d 5e3e 66aa 113e 1331 0fbe
00000040: f299 15be 8877 623e 2b53 6a3e cfd4 15be
00000050: db01 203e 6d35 773e a314 0bbe 86f3 193e
00000060: ccae 0bbe 0277 5e3e a0a9 03be 26e4 f1bd
00000070: 5f3c 2c3e fb47 ffbd 0b48 b8bd 3cc1 23be
00000080: c507 32be 61c1 25be 545f 19be 78fb 30be
00000090: f500 1dbe 74ec 463e 463d fdbd 6ae5 693e
000000a0: 130a 20be 4194 543e 7b95 08be ed6c e2bd
000000b0: 51d0 0abe fe78 ebbd d19c 1dbe 03b2 3abe
000000c0: a0f6 333e 28a7 793e 9537 34be 9389 0fbe
000000d0: b75b 143e bbb0 f1bd 1cc9 19be ac85 1839
000000e0: 3895 29be 09be 903e 84d7 7b3e cf6e 0cbe
000000f0: c423 0bbe db57 503e a808 473e c445 0cbe
00000100: d538 00be 427c 11be 74af 583e 7a7d 353e
00000110: 9937 12be 8c21 00be 8a6d 28be 9394 12be
00000120: 8eef 25be 9fc7 4b3e a843 603e 979c 5d3e
00000130: fe29 683e efe1 493e 1814 603e ab3a 1ebe
00000140: 8981 d3bd 4c44 d0bd bfa7 04be 7589 1c3c
00000150: 343a 583e 83da 04be 0fa7 433e daa1 05be
00000160: b276 1bbe c149 0ebe 1931 d5bd f3c2 13be
00000170: 6e9c 00be a0a7 613e 6b56 9338 1be8 ebbd
00000180: 428f 27be 3bb1 d1bd 3f75 603e 0c27 fabd
00000190: 47fc febd d47e 10be 1e5b 28b6 87f8 523e
000001a0: 397f 5e3e 0093 373e d7c2 20be 4e28 8dbd
000001b0: c637 1abe 7a42 37be 00ef 09be 4e42 753e
000001c0: d8c8 1fbe 3a0f 02be 715a 03be 1300 1a37
000001d0: 0014 5b3e a11f 083b 75ee d6bd 61d6 eebd
-0.13716482 -0.18807656 -0.15315673 -0.13630255 0.17951272 -0.10917844 7.8631676e-22 -0.1549768
-0.093627654 -0.14849359 0.24643108 -0.21483184 -0.15204139 0.21721357 0.14225158 -0.13983564
-0.14609507 0.2211591 0.22883289 -0.14631961 0.15625708 0.24141474 -0.13582091 0.15034303
-0.13640898 0.21725085 -0.12857676 -0.11811094 0.16819905 -0.12464901 -0.08998116 -0.15991682
-0.17385776 -0.1618705 -0.14977771 -0.17283428 -0.15332396 0.19426137 -0.123652026 0.22841421
-0.15628843 0.2075968 -0.13338272 -0.11055932 -0.13556029 -0.11497687 -0.15391852 -0.18231969
0.17574549 0.24380171 -0.17599328 -0.14017324 0.14488111 -0.11801287 -0.15018123 0.00014545646
-0.16560829 0.28269985 0.24593931 -0.13714145 -0.13587862 0.20346014 0.19436896 -0.13698488
-0.1252168 -0.14207557 0.2116068 0.17723647 -0.14279021 -0.12512797 -0.16448036 -0.14314489
-0.16204664 0.19900368 0.21900809 0.21641766 0.22672269 0.19715093 0.21882665 -0.15452068
-0.10327441 -0.101692766 -0.12954615 0.009554257 0.21115953 -0.1297398 0.19106697 -0.13050023
-0.15181997 -0.13895322 -0.10409755 -0.14429836 -0.12559673 0.220366 7.025603e-05 -0.1151888
-0.16363242 -0.10238882 0.21919726 -0.12214479 -0.12450462 -0.14110881 -2.5086988e-06 0.20602618
0.21728219 0.1792717 -0.15699326 -0.06892453 -0.15060338 -0.17896453 -0.13470078 0.23951074
-0.1560396 -0.12701121 -0.1282747 9.179133e-06 0.21394348 0.0020770805 -0.10494701 -0.11661983
