k_fold_model_1/model6.pt (torch, 242935 bytes, 17 tensors)

conv1.weight f4 [10, 1, 15, 3]
0	0xbdde913c	-0.10867545
1	0x3d11fa75	0.035639245
2	0x3da28693	0.07935824
3	0xbda96b5f	-0.082724325
4	0xbcc13833	-0.023586368
5	0x3cb32c6f	0.021871774
6	0xbd0b0544	-0.03394057
7	0x3e16230c	0.14661807
8	0x3dc32f5b	0.09530517
9	0xbd1c9c52	-0.038235016
10	0xbcb08261	-0.021546545
11	0xbdaa2ac4	-0.08308938
12	0xbe08a9c4	-0.1334601
13	0x3d954c11	0.07289899
14	0x3e10abcc	0.14128035
15	0x3e47e41b	0.19520609
16	0x3de95cea	0.11394675
17	0xbe9175f4	-0.28410304
18	0xbd24aa45	-0.040201444
19	0xbdfe26d5	-0.1240975
20	0x3d841833	0.06449928
21	0xbdc9b16e	-0.09848295
22	0x3e5fc615	0.21852906
23	0xbcbc31de	-0.022972997
24	0xbca7d7d8	-0.020488665
25	0x3d1069e7	0.035257246
26	0x3c773905	0.015089278
27	0xbc1cf039	-0.009578758
28	0xbe6c3675	-0.23067649
29	0x3e121bd0	0.14268422
30	0xbe96b3e5	-0.29434124
31	0x3db97839	0.09056134
32	0x3eae8e2a	0.34092838
33	0xbef0ec19	-0.47055128
34	0x3ca605e7	0.020266486
35	0x3f15278e	0.5826348
36	0xbe9796c2	-0.29607207
37	0xbd6db7af	-0.058036502
38	0x3e946a92	0.28987557
39	0xbe396a45	-0.18106945
40	0x3d5e8d0a	0.054333724
41	0x3e7b5038	0.2454232
42	0x3d3a4428	0.045475155
43	0x3c952569	0.018206315
44	0xbdc57cd5	-0.096429504
45	0x3e5657fa	0.20931998
46	0xbe1173ad	-0.14204283
47	0xbe1cecca	-0.15324703
48	0x3d5d12cf	0.053973015
49	0xbe4c5da1	-0.19957592
50	0x3da1511c	0.078767985
51	0x3e483cbb	0.19554417
52	0x3d8ed4da	0.06974192
53	0xbafadc7c	-0.0019139196
54	0xbe149739	-0.14510812
55	0x3de1b393	0.11020579
56	0xbe47c1a0	-0.19507456
57	0x3c9e4b9e	0.019323166
58	0x3b009a09	0.0019623062
59	0x3d776c88	0.060406238
60	0x3d04d1aa	0.032426514
61	0xbd319e51	-0.043363873
62	0xbcb0b474	-0.021570422
63	0xbb12ac42	-0.0022380506
64	0xbe4aec3a	-0.19816676
65	0x3d777be7	0.060420897
66	0xba35d7f1	-0.000693678
67	0x3dc65dc7	0.09685855
68	0x3e5e90a1	0.21734859
69	0xbde18aff	-0.110128395
70	0x3c8f7846	0.017513406
71	0x3dc22ca3	0.0948117
72	0xbebb84ac	-0.36624658
73	0xbd925ecb	-0.071469866
74	0xbded8c78	-0.11599058
75	0xbdc3adc1	-0.09554625
76	0xbd8fe9a4	-0.07026985
77	0xbd239c6a	-0.03994409
78	0x3e90647e	0.2820167
79	0x3d492d6f	0.049115594
80	0x3ebe2a07	0.3714144
81	0x3d75f759	0.060050342
82	0xbd8fc445	-0.07019857
83	0x3e813dab	0.2524236
84	0xbd5d0069	-0.05395547
85	0xbe374dbb	-0.17900746
86	0x3de1ab88	0.11019045
87	0xbdc19b24	-0.09453419
88	0xbdf5751a	-0.11985226
89	0xbee9b0e1	-0.4564276
90	0x3c81288d	0.015766406
91	0xbd957c02	-0.07299043
92	0x3db37518	0.08762568
93	0xbe3daf6d	-0.18523951
94	0x3d1cd660	0.03829038
95	0x3e4265f8	0.1898421
96	0xbe08cc24	-0.13359123
97	0x3d3083e8	0.043094546
98	0xbda7c223	-0.081913255
99	0xbdb2ea73	-0.08736124
100	0x3e162e2b	0.14666049
101	0xbec14388	-0.37746835
102	0xbba49ab2	-0.005023324
103	0xbe1d87c6	-0.15383825
104	0x3c2ae124	0.010429654
105	0x3d9b7270	0.075901866
106	0x3dbb3587	0.09141069
107	0xbe10a62b	-0.14125888
108	0x3e1a4519	0.15065421
109	0x3e204d86	0.15654573
110	0xbe09ebda	-0.13468876
111	0x3da7d12f	0.081941955
112	0x3d696df5	0.05698963
113	0xbe273dd0	-0.16332173
114	0x3e137c62	0.14402917
115	0xbeafb8d6	-0.34320706
116	0xbe97ef54	-0.2967478
117	0xbd84be33	-0.0648159
118	0xbe2c7bcb	-0.16844098
119	0x3d380331	0.04492492
120	0xbd5d56c0	-0.05403781
121	0x3e124bc0	0.14286709
122	0x3e148dc7	0.14507209
123	0xbd7cc5e9	-0.06171218
124	0x3e8fd9c6	0.28095835
125	0xbdbfef91	-0.093718655
126	0xbd9b7042	-0.07589771
127	0x3e326c67	0.17424165
128	0xbe96bcd9	-0.29440954
129	0xbe3e2703	-0.1856957
130	0x3d6eb2cb	0.05827598
131	0xbe527a8d	-0.20554562
132	0xbc157d31	-0.009124086
133	0x3da9f930	0.08299482
134	0xbe461a27	-0.19345914
135	0x3dc52e0b	0.096279226
136	0xbe21d58a	-0.15804115
137	0x3cfb4b7f	0.030675648
138	0x3e262d38	0.16228187
139	0x3c4b306b	0.01240168
140	0xbe708be4	-0.23490864
141	0xbe5346ab	-0.20632426
142	0x3e6e3c1a	0.23265114
143	0xbd5f98ff	-0.054589268
144	0xbd95b9e8	-0.073108494
145	0xbdede97a	-0.11616798
146	0x3e20275a	0.15640011
147	0x3df08795	0.1174461
148	0xbe0cfc96	-0.13768229
149	0x3db03a49	0.08604867
150	0xbe4a48d8	-0.1975435
151	0x3c052a53	0.008127767
152	0xbebe9aa4	-0.37227356
153	0x3b10d220	0.00220979
154	0x3e62d443	0.22151284
155	0x3d775314	0.060381964
156	0xbe440b36	-0.19144902
157	0x3e0748f1	0.13211419
158	0x3ea00d17	0.31259987
159	0xbd64efa4	-0.0558926
160	0xbd98f775	-0.07469074
161	0x3de228e6	0.11042957
162	0xbe897010	-0.2684331
163	0xbdb57e1e	-0.088619456
164	0x3c031661	0.008000941
165	0xbb40c108	-0.002941193
166	0x3e0e1e81	0.13878824
167	0x3e40a2d5	0.18812115
168	0xbb3388e2	-0.002739482
169	0xbe1454fa	-0.14485541
170	0xbc1a9378	-0.009434573
171	0x3de7634c	0.11298236
172	0xbe289f9a	-0.16467133
173	0x3d4ff144	0.0507672
174	0xbe76cc02	-0.2410126
175	0xbd5b3051	-0.053512875
176	0x3d078134	0.033082202
177	0x3f1f59af	0.6224622
178	0x3df295b3	0.11844959
179	0x3d5b5ab7	0.05355331
180	0xbe880934	-0.2656952
181	0x3c05bb66	0.008162355
182	0xbdf9503f	-0.12173509
183	0xbe2ff6e0	-0.17184019
184	0xbda561cc	-0.08075294
185	0xbe3a8687	-0.1821538
186	0xbe4a0d2f	-0.19731592
187	0xbda8e5eb	-0.08246978
188	0xbe865d89	-0.26243237
189	0x3dbc4b03	0.09193995
190	0xbc724eda	-0.0147893075
191	0xbd9d0629	-0.076671906
192	0xb994e40e	-0.00028398674
193	0x3e020b77	0.12699686
194	0x3e966e82	0.29381186
195	0x3e0b2bac	0.13590878
196	0x3c8d53e4	0.017251916
197	0x3e779b1f	0.24180268
198	0x3e29520d	0.16535206
199	0xbca8b872	-0.020595763
200	0x3e01f25e	0.12690112
201	0x3c8e553e	0.017374631
202	0xbcd542a3	-0.026032751
203	0xbe98ba9a	-0.29829866
204	0x3e00c625	0.12575586
205	0x3d3f7fc8	0.04675272
206	0x3d74f70f	0.059805926
207	0xbdb43afd	-0.088003136
208	0x3c0ed99b	0.008718873
209	0xbe53c1ff	-0.20679472
210	0x3dc93dec	0.09826264
211	0x3da084bc	0.07837817
212	0xbe9fc62c	-0.3120588
213	0x3db9e878	0.09077543
214	0x3d1efd7e	0.038815968
215	0x3d0794b9	0.033100817
216	0x3d0f9a51	0.035059277
217	0xbded3680	-0.11582661
218	0x3e42c931	0.19022061
219	0x3e56c6cf	0.20974277
220	0x3d7ab247	0.061205175
221	0x3d758e44	0.05995013
222	0x3da2e465	0.07953719
223	0x3d0bbfc0	0.034118414
224	0x3dd7bb0e	0.10533725
225	0x3eed438f	0.46340606
226	0xbd068621	-0.03284276
227	0xbe556ab9	-0.20841493
228	0x3e6e7fff	0.23291014
229	0x3e279a63	0.16367488
230	0x3e908058	0.2822292
231	0xbd967327	-0.07346182
232	0xbe001899	-0.12509383
233	0x3dc41640	0.09574556
234	0xbdbcfe92	-0.09228243
235	0xbdf0b0f8	-0.11752504
236	0xbd0df613	-0.034658503
237	0x3c8b6b3a	0.017018903
238	0x3da588d0	0.080827355
239	0xbe0565fa	-0.13027182
240	0x3e534df8	0.20635211
241	0xbd8ad008	-0.0677796
242	0xbc567f5f	-0.013091891
243	0xbe60dde3	-0.21959643
244	0xbd630e1f	-0.05543339
245	0x3e55a324	0.20863014
246	0xbe7e1d1b	-0.2481579
247	0xbc5d66f4	-0.0135133155
248	0xbdd246ac	-0.10267386
249	0xba3fd57c	-0.00073178834
250	0x3e758eae	0.23980209
251	0x3e127316	0.14301714
252	0xbe0b528a	-0.13605705
253	0xbe1c8ac1	-0.15287305
254	0xbde8ab66	-0.11360817
255	0x3d84e5a3	0.06489112

conv1.bias f4 [10]
0	0x3997641f	0.0002887556
1	0xb9906229	-0.00027538955
2	0x3a94fa88	0.0011366168
3	0x3a743108	0.00093151676
4	0x39d7bae4	0.0004114724
5	0x37e5c1c4	2.7389156e-05
6	0xb91e1bc5	-0.00015078399
7	0x3a30cf63	0.000674477
8	0xbaa3a952	-0.0012486374
9	0x3998fd23	0.000291803

bn1.weight f4 [10]
0	0x3f31ea60	0.6949825
1	0x3f08f340	0.5349617
2	0x3f4c52d0	0.7981386
3	0x3f34a1d8	0.70559454
4	0x3f3788d1	0.7169314
5	0x3f06fa1a	0.52725375
6	0x3f092da4	0.5358527
7	0x3f294df9	0.661346
8	0x3f49f509	0.7888952
9	0x3f2a8ba9	0.66619354

bn1.bias f4 [10]
0	0xbec085fb	-0.3760222
1	0x3c6c3342	0.014416518
2	0xbe7d5bdd	-0.24742074
3	0xbe8cae0b	-0.27476534
4	0xbe85105d	-0.25989047
5	0xbc861f0f	-0.016372232
6	0xbe095fbe	-0.13415429
7	0xbeaaf0e0	-0.33386898
8	0xbeff9cec	-0.4992441
9	0xbec9ff8e	-0.39452785

bn1.running_mean f4 [10]
0	0x3e197016	0.14984164
1	0xbe9c4b05	-0.30525985
2	0xbf406fe3	-0.75170726
3	0x3dca8c98	0.098900974
4	0x3cae3ff5	0.021270731
5	0x3ea208ba	0.31647283
6	0x3e9d71e3	0.3075095
7	0x3e17633c	0.14783949
8	0x3f4afc65	0.79291373
9	0xbcf32448	-0.029680386

bn1.running_var f4 [10]
0	0x3ceab71b	0.028651765
1	0x3d050ebf	0.032484766
2	0x3d66c582	0.056340702
3	0x3ccd2142	0.025040273
4	0x3e0667b0	0.13125491
5	0x3d37131e	0.044695966
6	0x3dbf8d5d	0.09353135
7	0x3dc0017e	0.093752846
8	0x3e04a95e	0.12955233
9	0x3cc5521e	0.024087008

conv2.weight f4 [20, 10, 3, 3]
0	0xbe48ed10	-0.19621682
1	0xbe6d7322	-0.23188451
2	0xbda4d1c4	-0.08047822
3	0xbe0ee887	-0.1395589
4	0xbe822929	-0.25422028
5	0xbd9a6beb	-0.07540115
6	0xbe1fe783	-0.15615658
7	0xbe89bdb3	-0.26902542
8	0xbd8a079e	-0.06739734
9	0x3c9d1460	0.019174755
10	0xbe3fcda2	-0.18730786
11	0xbd9239e9	-0.07139952
12	0xbbfc8e91	-0.007707425
13	0xbd60eca7	-0.05491319
14	0x3c93b22e	0.018029299
15	0x3cb54f81	0.022132637
16	0x3cb3d09e	0.021950062
17	0xbdb140b0	-0.08654916
18	0xbdb0e2a1	-0.08636976
19	0xbd8dfd8e	-0.06933127
20	0x3d89ebfa	0.06734462
21	0xbe2f7ec6	-0.17138204
22	0xbc972880	-0.01845193
23	0x3db0fcd0	0.0864197
24	0xbe520c5e	-0.2051253
25	0xbda9761c	-0.08274481
26	0x3e31d0f1	0.17364861
27	0x3bbbb8db	0.0057288236
28	0xbccbc227	-0.024872852
29	0xbdfc23be	-0.12311505
30	0x3c303007	0.010753638
31	0xbe029fc7	-0.12756263
32	0xbe33416c	-0.17505425
33	0x3eaf24cc	0.3420776
34	0x3d3006ff	0.042975422
35	0xbe13bfb6	-0.144286
36	0xbcf12e3d	-0.029440993
37	0x3dd167d4	0.10224882
38	0x3d4f1338	0.050555438
39	0x3d7bcd6d	0.061475206
40	0xbcb904a5	-0.022585222
41	0xbe39a60f	-0.18129753
42	0x3e86761b	0.26261982
43	0x3dda8f5c	0.10671875
44	0xbd449b04	-0.047999397
45	0xbd8b39fe	-0.067981705
46	0xbd9a74fe	-0.07541846
47	0x3d8470dd	0.064668395
48	0x3e631479	0.22175778
49	0xbc452cfb	-0.01203465
50	0x3d8551d5	0.06509749
51	0xbcd24eea	-0.025672395
52	0x3d1e3477	0.038624253
53	0xbda91086	-0.08255105
54	0x3d9ba45f	0.07599711
55	0x3dd666d8	0.10468835
56	0x3dbc2df3	0.091884516
57	0x3e12f352	0.14350632
58	0x3cf87bfd	0.03033256
59	0x3cd2ad60	0.025717437
60	0x3d1b2a76	0.03788229
61	0x3c2012ae	0.009770079
62	0xbdfd6a75	-0.12373821
63	0x3ca236bd	0.019801492
64	0x3d96f1e0	0.07370353
65	0x3e0cb4a6	0.13740787
66	0x3d16433e	0.03668522
67	0x3dfcb8b7	0.12339919
68	0x3e008813	0.12551908
69	0x3e421d9c	0.18956608
70	0x3b28a485	0.0025732827
71	0xbde16613	-0.11005797
72	0xbd9fdcf6	-0.07805817
73	0xbe1bd743	-0.15218835
74	0xbd1b034b	-0.037844937
75	0x3d0af3e1	0.033923987
76	0xbba15a49	-0.004924093
77	0x3d9ce465	0.0766075
78	0xbd837bba	-0.06420083
79	0x3cbc6182	0.022995714
80	0x3cf18b5a	0.029485393
81	0x3e759ba6	0.23985156
82	0x3da7cec0	0.08193731
83	0xbde185cd	-0.110118486
84	0x3d88e890	0.06684983
85	0x3dc97ad5	0.098378815
86	0xbd491935	-0.049096305
87	0x3b057d1e	0.0020368765
88	0xbd84b403	-0.06479647
89	0x3d2c1d4b	0.042020123
90	0x3d668bbb	0.0562856
91	0x3d7483c5	0.059695978
92	0xbcafb36e	-0.021447863
93	0xbe4ef128	-0.20209181
94	0xbe0ab995	-0.13547356
95	0xbcc38155	-0.023865381
96	0xbe95fcad	-0.2929434
97	0xbe000b3c	-0.12504286
98	0xbe2d7a5a	-0.16941205
99	0xbe2f1a70	-0.17099929
100	0xbcb2fa30	-0.021847814
101	0x3cde0e6e	0.02710649
102	0x3dd91c45	0.10601095
103	0xbdc35236	-0.09537165
104	0xbe17a22f	-0.14807962
105	0x3e18b25d	0.1491179
106	0x3d4b8ccb	0.049694818
107	0x3d93b947	0.07213073
108	0x3d831bc7	0.064017825
109	0xbd07ac04	-0.03312303
110	0x3dbcfc43	0.092278026
111	0x3e540d5d	0.20708223
112	0x3d8bfd67	0.06835442
113	0x3d831605	0.06400684
114	0xbdf004d0	-0.11719668
115	0xbd9ecb75	-0.0775365
116	0x3c9ec909	0.01938297
117	0x3d2b9bda	0.04189668
118	0x3bc7df8e	0.006099648
119	0xbc8bb93c	-0.0170561
120	0x3e933877	0.28754017
121	0x3c09ac45	0.008402889
122	0xbe1b6039	-0.15173425
123	0xbc33024e	-0.010925842
124	0xbe0a424d	-0.13501854
125	0xbdcaaaac	-0.09895834
126	0x3dcb76c6	0.099347636
127	0x3d72529c	0.059160814
128	0xbdf71e24	-0.12066296
129	0x3e19cc01	0.15019228
130	0xbb17981a	-0.002313143
131	0xbe7732e9	-0.24140514
132	0x3d9f1c98	0.07769126
133	0x3d33c133	0.04388542
134	0xbd37fa96	-0.04491671
135	0x3e029476	0.12751946
136	0xbca3b5c9	-0.019984143
137	0x3d86339f	0.06552815
138	0x3dde7983	0.1086302
139	0x3e2a92b9	0.16657533
140	0x3dc8437a	0.09778495
141	0xbcee6651	-0.029101523
142	0xbd6bbd99	-0.05755386
143	0xbd61d23c	-0.055132136
144	0xbbeab8b4	-0.0071631316
145	0xbc004bc5	-0.007830565
146	0xbe1d608e	-0.15368864
147	0xbd6293eb	-0.055316847
148	0x3c5672c6	0.013088888
149	0xbcd38052	-0.025818024
150	0x3d32961f	0.043600198
151	0xbdb10864	-0.086441785
152	0xbe7c15b7	-0.24617659
153	0xbd7a680c	-0.061134383
154	0xbda218d8	-0.07914895
155	0xbe76fa62	-0.24118951
156	0xbc44739e	-0.011990456
157	0x3db3d534	0.087809
158	0x3d629ffc	0.055328354
159	0xbdb3c064	-0.0877693
160	0xbd552d6c	-0.05204527
161	0xbd93bc89	-0.072136946
162	0xbe163adc	-0.1467089
163	0xbe0d28bc	-0.1378507
164	0x3c0a5948	0.008444138
165	0xbc160fb3	-0.009159016
166	0xbc723fc8	-0.014785714
167	0xbd4cfdae	-0.050046615
168	0x3e1f2244	0.15540415
169	0x3e14013a	0.14453593
170	0x3d970134	0.07373276
171	0x3dec3d14	0.11535087
172	0x3e3fd5e0	0.1873393
173	0x3e1d9f4f	0.15392803
174	0xbd17191a	-0.036889173
175	0xbc2baf75	-0.010478844
176	0xbe0d6040	-0.13806248
177	0x3d009ad1	0.031397644
178	0xbc5dd231	-0.013538883
179	0xbda8e6d6	-0.082471535
180	0xbc014dd5	-0.007892092
181	0xbca4eb09	-0.020131605
182	0x3e356880	0.17715645
183	0x3c3faf13	0.011699456
184	0xbb929ca7	-0.004474241
185	0xbd11d1ec	-0.035600588
186	0xbcd712aa	-0.026254017
187	0x3d8a03c7	0.06739002
188	0x3d9190fa	0.0710773
189	0xbd3cfe64	-0.046141043
190	0xbda5cd8d	-0.08095846
191	0x3d83f348	0.064428866
192	0x3e0f8777	0.1401652
193	0x3d1f36c4	0.038870588
194	0xbe73f781	-0.23824884
195	0x3d167b92	0.03673894
196	0xbcf30407	-0.029665006
197	0x3d87ac0b	0.066246115
198	0xbe8a631d	-0.27028742
199	0x3de932d3	0.11386647
200	0x3d618767	0.05506077
201	0xbe60dfd3	-0.21960382
202	0xbd7735bc	-0.06035398
203	0x3e35ca36	0.17752919
204	0xbbe20ee4	-0.0068987478
205	0x3df7b011	0.12094129
206	0x3ddc8e30	0.107693076
207	0x3deec326	0.11658315
208	0x3d37d560	0.044881225
209	0xbd6f0bff	-0.05836105
210	0x3d9b967a	0.075970605
211	0x3cc5cae5	0.0241446
212	0x3d76a1d5	0.06021293
213	0xbe2782a0	-0.16358423
214	0x3bb9581e	0.0056562563
215	0xbd87306f	-0.06601035
216	0x3dac7e4d	0.084225275
217	0xbc878aa6	-0.016545605
218	0xbe7df102	-0.24798968
219	0x3d1fb706	0.038992904
220	0xbd9291ec	-0.07156739
221	0xbeb0b6f3	-0.3451458
222	0xbe664b2d	-0.22489615
223	0xbe20db19	-0.15708579
224	0xbda1d536	-0.07901995
225	0xbba1e4d9	-0.004940611
226	0x3de138be	0.10997151
227	0xbd70aaab	-0.05875651
228	0x3e5fe061	0.21862938
229	0xbe260922	-0.16214421
230	0xbcde10b9	-0.027107583
231	0x3e821440	0.25406075
232	0xbcc5e648	-0.024157658
233	0xbddb22dd	-0.10700009
234	0x3e52c081	0.20581247
235	0x3e06a53a	0.13148966
236	0x3ca7911e	0.02045494
237	0x3d608d28	0.054822117
238	0x3da0aeba	0.078458264
239	0xbc77dc0b	-0.015128146
240	0x3dcdfae1	0.10057617
241	0x3d4ac14c	0.04950075
242	0x3941bc77	0.00018476123
243	0xbd66aac7	-0.05631521
244	0x3df03988	0.11729723
245	0x3df2e090	0.11859238
246	0x3d4d5ef7	0.050139394
247	0x3bcc86e4	0.006241666
248	0xbeb0d1ee	-0.34535164
249	0x3ca8add2	0.020590696
250	0xbe683eec	-0.22680253
251	0xbe4aecfa	-0.19816962
252	0x3e5061bb	0.20349781
253	0xbcc17308	-0.023614421
254	0xbe0cfe69	-0.13768925
255	0xbd9f75c3	-0.07786133

conv2.bias f4 [20]
0	0x38d7d376	0.000102913866
1	0x388a1a3b	6.5852386e-05
2	0x398a9c99	0.00026438085
3	0xb87eafe4	-6.072213e-05
4	0x3864a2ee	5.4511176e-05
5	0xb90d9a20	-0.00013504224
6	0x38d8d132	0.00010338648
7	0xb91f5a5a	-0.0001519708
8	0x36d4bc58	6.3400184e-06
9	0x38c832d3	9.54621e-05
10	0xb9630788	-0.00021651213
11	0xb8cc22c8	-9.7339565e-05
12	0x384583d0	4.709122e-05
13	0x38707e74	5.7338228e-05
14	0xb77489f4	-1.4575653e-05
15	0x38777866	5.900152e-05
16	0xb81cfc28	-3.7428137e-05
17	0xb8785fc3	-5.9216993e-05
18	0x39be9fe8	0.00036358763
19	0xb961827e	-0.00021506284

bn2.weight f4 [20]
0	0x3f04c953	0.51869696
1	0x3eccd65f	0.40007302
2	0x3efc9414	0.49331725
3	0x3f1eccdb	0.62031335
4	0x3ec5513c	0.3853854
5	0x3f05b033	0.52221984
6	0x3ed75800	0.42059326
7	0x3eda8161	0.42676833
8	0x3ee5cb9d	0.44881907
9	0x3eeb54fc	0.45963275
10	0x3ed76604	0.4207002
11	0x3f1f754d	0.6228836
12	0x3ee72200	0.45143127
13	0x3f0b3272	0.5437385
14	0x3ea5ad1f	0.32358643
15	0x3eecec36	0.46273965
16	0x3efd2027	0.49438593
17	0x3ec9fc70	0.39450407
18	0x3f16efbe	0.5895957
19	0x3ee06097	0.43823692

bn2.bias f4 [20]
0	0xbebbe40b	-0.3669742
1	0xbe2ac931	-0.16678311
2	0xbe9c94b1	-0.30582193
3	0xbe91e0a9	-0.28491715
4	0xbeed309f	-0.46326157
5	0xbea3aa18	-0.3196571
6	0xbde63a18	-0.11241549
7	0xbef7ce5a	-0.4839962
8	0xbe60c1d5	-0.21948941
9	0xbe4aa168	-0.19788134
10	0xbef36316	-0.47536534
11	0xbe5320b7	-0.20617948
12	0xbe316c43	-0.17326455
13	0xbeeb6f35	-0.45983282
14	0xbeb90ef7	-0.3614423
15	0xbda8a4ad	-0.082345344
16	0xbe3377f4	-0.17526227
17	0xbe4c17aa	-0.19930902
18	0xbdae04ef	-0.08497035
19	0xbf384604	-0.71981835

bn2.running_mean f4 [20]
0	0xbe1430fd	-0.14471813
1	0xbdca2804	-0.098709136
2	0xbe520cca	-0.20512691
3	0xbc979c3d	-0.018507117
4	0xbe5fe506	-0.2186471
5	0x3db16652	0.08662094
6	0xbdcacdc8	-0.09902531
7	0xbef6442f	-0.48098895
8	0xbe9ac022	-0.3022471
9	0xbe8ac1f2	-0.27101094
10	0xbe8d5b0b	-0.27608523
11	0xbe9d8331	-0.30764154
12	0xbe3fff6b	-0.18749778
13	0xbe9f5f36	-0.31127328
14	0x3da5cda9	0.08095867
15	0x3d8db5fe	0.06919478
16	0xbecd94df	-0.40152642
17	0x3e6c30f4	0.23065549
18	0xbdcae967	-0.09907799
19	0xbec8e777	-0.39239094

bn2.running_var f4 [20]
0	0x3e97361c	0.2953347
1	0x3e37314f	0.17889903
2	0x3e2698a5	0.16269167
3	0x3e39facb	0.18162076
4	0x3dfa2ba1	0.12215353
5	0x3e9b3a91	0.3031812
6	0x3e005dce	0.12535784
7	0x3e07b4ca	0.1325256
8	0x3e8f74e4	0.28018868
9	0x3e99c5d2	0.30033737
10	0x3dcbf0b3	0.09958019
11	0x3ea7819f	0.3271608
12	0x3e31bd22	0.17357305
13	0x3eb38529	0.3506253
14	0x3dd3f4c7	0.10349422
15	0x3e859fea	0.26098567
16	0x3e7bbce0	0.24583769
17	0x3e221f3a	0.15832224
18	0x3e9edb6c	0.3102678
19	0x3ded08f7	0.115739755

fc1.weight f4 [256, 100]
0	0x3daba1cc	0.0838047
1	0xbc8de55d	-0.017321283
2	0x3cd567aa	0.026050407
3	0x3d709420	0.058735013
4	0x3d1534ff	0.036427494
5	0xbc010822	-0.007875474
6	0xbca029c9	-0.019551175
7	0x3d2f2e80	0.042768955
8	0x3c1f02fa	0.0097052995
9	0x3d109ced	0.035305906
10	0x3d1b6020	0.03793347
11	0x3cf536fe	0.029933449
12	0xbd549630	-0.051901042
13	0x3d595238	0.053056926
14	0x3d1bd325	0.03804316
15	0x3d331cff	0.043728825
16	0xbb532065	-0.0032215354
17	0x3cd179cb	0.02557077
18	0x3d440414	0.04785545
19	0xbd127596	-0.03575667
20	0xbc3610fb	-0.011112447
21	0xbcb2fdcb	-0.021849534
22	0x3a69af7a	0.00089143927
23	0xbd51dcad	-0.051235843
24	0xbcd47fbc	-0.025939815
25	0x3c6fcd6e	0.014636381
26	0x3d1b6c34	0.037944987
27	0x3d6bdc4b	0.057583135
28	0x3c43bb03	0.011946443
29	0x3bc98ec6	0.006151053
30	0x3cbf6c80	0.023367167
31	0xbd201735	-0.039084632
32	0x39bc5ce7	0.00035927372
33	0x3d4a0e50	0.049330056
34	0x3d38102d	0.0449373
35	0x3c6cca60	0.014452547
36	0x3ca71e7d	0.02040028
37	0xbd3188b0	-0.043343246
38	0x3d82a708	0.06379515
39	0x3d83f0c7	0.06442409
40	0x3d9a8a1c	0.075458735
41	0x3bce8142	0.00630203
42	0x3c6ff6b0	0.014646217
43	0xbc8d2605	-0.017230043
44	0xbd1d7564	-0.03844203
45	0xbbf3299f	-0.007420733
46	0x3b8ffaee	0.004393927
47	0x3cc358ec	0.023846112
48	0x3d568559	0.052373264
49	0x3c18a2fe	0.009316204
50	0x3d8a3de2	0.067500845
51	0xbd9b5525	-0.075845994
52	0xbccbd2b2	-0.02488074
53	0x3d2b7afc	0.041865334
54	0x3cb3e93f	0.021961806
55	0x3d42c33d	0.047549475
56	0x3d94785e	0.07249521
57	0x3d6fbe05	0.058530826
58	0x3c757383	0.014981153
59	0x3d9338df	0.07188582
60	0x3db52b55	0.088461556
61	0x3d1a4a27	0.037668373
62	0x3b81d38d	0.0039619864
63	0xbd59ff12	-0.05322177
64	0xbcdd8d84	-0.027045019
65	0x3db3547e	0.0875635
66	0xbc8e95b5	-0.01740537
67	0x3d80e6c0	0.06294012
68	0x3c9db6d3	0.019252216
69	0xbd580870	-0.05274242
70	0xbcd8b437	-0.02645312
71	0xbc9129cc	-0.017720126
72	0xbd226868	-0.03965035
73	0xbd3bcd66	-0.04585018
74	0x3b0c6eaa	0.0021428266
75	0x3d1bcddc	0.03803812
76	0x3c87aefc	0.016562931
77	0x3d184214	0.037172392
78	0x3d5500b4	0.052002624
79	0xbbccfaa4	-0.0062554646
80	0xbd86be0f	-0.065792195
81	0x3cf063b8	0.029344425
82	0x3d29d45b	0.041462284
83	0x3c575349	0.013142415
84	0x3da671d7	0.08127182
85	0xbc4e263d	-0.012582359
86	0x3c0f2c9b	0.008738662
87	0xbd10cb6c	-0.03535025
88	0x3d18c54b	0.03729753
89	0x3cbd0e9d	0.023078257
90	0x3c7e33f7	0.015515319
91	0xbd9510cb	-0.07278594
92	0x3c980e69	0.018561559
93	0x3c785417	0.015156767
94	0x3db29694	0.08720127
95	0xbd4dde8b	-0.05026106
96	0xbd655c1a	-0.055996038
97	0xbd51d42a	-0.051227726
98	0x3d891939	0.06694264
99	0xbc5e59f1	-0.013571248
100	0x001c8fd2	2.622987e-39
101	0x0012f123	1.739542e-39
102	0x00202eda	2.955543e-39
103	0x0011b17e	1.624876e-39
104	0x0000c297	6.9806e-41
105	0x801abe84	-2.456067e-39
106	0x801a6727	-2.424727e-39
107	0x801193ed	-1.614269e-39
108	0x80033190	-2.93286e-40
109	0x80103cc7	-1.491171e-39
110	0x801c1a27	-2.580776e-39
111	0x00301cfa	4.418499e-39
112	0x80364945	-4.985401e-39
113	0x8010af7f	-1.532324e-39
114	0x00215b06	3.063224e-39
115	0x0049e285	6.785251e-39
116	0x800ad946	-9.96298e-40
117	0x00012363	1.0453e-40
118	0x802c2f9f	-4.057845e-39
119	0x000ddfce	1.274147e-39
120	0x00096722	8.63517e-40
121	0x001a794e	2.431239e-39
122	0x0020548f	2.96907e-39
123	0x80270f15	-3.586995e-39
124	0x8019bb8b	-2.363165e-39
125	0x00090d2f	8.31249e-40
126	0x8000a1f0	-5.8092e-41
127	0x003b9ae0	5.473853e-39
128	0x0011c694	1.63244e-39
129	0x001e7f6c	2.800775e-39
130	0x0031cdbe	4.573746e-39
131	0x8019dc3c	-2.374893e-39
132	0x000d47b1	1.21958e-39
133	0x801ad18e	-2.462897e-39
134	0x0015f877	2.017678e-39
135	0x8002f87c	-2.7281e-40
136	0x801853b2	-2.234076e-39
137	0x801bda7f	-2.55794e-39
138	0x804a5430	-6.826028e-39
139	0x801bf8c7	-2.568803e-39
140	0x8024e69e	-3.388808e-39
141	0x800689c5	-6.00435e-40
142	0x00383e26	5.165082e-39
143	0x801b5840	-2.511217e-39
144	0x8048a708	-6.672075e-39
145	0x8013b811	-1.810905e-39
146	0x8010e006	-1.549732e-39
147	0x800a02ef	-9.19407e-40
148	0x800298c2	-2.3847e-40
149	0x80167cd3	-2.06516e-39
150	0x003113db	4.507062e-39
151	0x000e934a	1.338534e-39
152	0x80133787	-1.764794e-39
153	0x8012fb23	-1.74313e-39
154	0x8017d1bf	-2.187459e-39
155	0x801cb60a	-2.636697e-39
156	0x001aaae2	2.449024e-39
157	0x801141b9	-1.58478e-39
158	0x8045db67	-6.415356e-39
159	0x8002364c	-2.03149e-40
160	0x80244a54	-3.332742e-39
161	0x000f0805	1.38041e-39
162	0x800f1f3e	-1.38874e-39
163	0x8004671f	-4.04335e-40
164	0x8013010b	-1.745249e-39
165	0x8012e11d	-1.733794e-39
166	0x0017eaba	2.19642e-39
167	0x0004a78c	4.27446e-40
168	0x80047cd2	-4.12119e-40
169	0x80187006	-2.244238e-39
170	0x00235ca1	3.247471e-39
171	0x00038e15	3.26476e-40
172	0x80191aff	-2.305572e-39
173	0x001d996c	2.718267e-39
174	0x8022801e	-3.168367e-39
175	0x800a915e	-9.70503e-40
176	0x00144aa8	1.863492e-39
177	0x800e1a60	-1.295159e-39
178	0x801ce0af	-2.651995e-39
179	0x80104406	-1.49377e-39
180	0x001f767c	2.889405e-39
181	0x802c9f6a	-4.097949e-39
182	0x801d1988	-2.672388e-39
183	0x800865ae	-7.7116e-40
184	0x0000a7fe	6.0264e-41
185	0x002b9c29	4.004946e-39
186	0x000e6432	1.32164e-39
187	0x0024c1c2	3.375585e-39
188	0x8000da86	-7.8391e-41
189	0x0021545e	3.060837e-39
190	0x001f9829	2.901485e-39
191	0x802341aa	-3.237798e-39
192	0x80142c8e	-1.852693e-39
193	0x002b9fde	4.006276e-39
194	0x0002fa74	2.73517e-40
195	0x800a517b	-9.47585e-40
196	0x800b787f	-1.053416e-39
197	0x0019e20d	2.376979e-39
198	0x8019dfb0	-2.376131e-39
199	0x00194522	2.320688e-39
200	0x396b718f	0.0002245365
201	0x398d9c07	0.00027009865
202	0x3bc127ba	0.0058946284
203	0xbc5dd69a	-0.0135399345
204	0xbc416edf	-0.011806219
205	0xba6d04e8	-0.00090415636
206	0xbb79c09a	-0.0038109184
207	0x3c164197	0.009170911
208	0x386aeca8	5.601035e-05
209	0xbcb6f0b8	-0.02233158
210	0x3cd679e3	0.026181167
211	0xbb46c850	-0.0030331798
212	0xbcace7b6	-0.021106582
213	0x3c4c0da8	0.012454428
214	0xbbb16e31	-0.005414747
215	0x3c1f8f01	0.009738685
216	0x3bf62286	0.0075114397
217	0x3b91b375	0.004446442
218	0xb9463814	-0.00018903642
219	0xbbc09884	-0.0058775563
220	0x3bba38b4	0.005683029
221	0x3b148848	0.0022664238
222	0x3aa20bbd	0.0012363117
223	0xbb92bf2c	-0.004478356
224	0xbcc000bc	-0.02343785
225	0xba906b70	-0.0011018347
226	0x3b12eaef	0.0022417863
227	0x3a82feb3	0.0009994119
228	0xbb987a59	-0.004653257
229	0xbc8cf843	-0.017208224
230	0x3c7364a6	0.014855539
231	0x394b2740	0.0001937421
232	0x3ba55a35	0.005046154
233	0xbb2acfa5	-0.0026063707
234	0xbb6216de	-0.0034498493
235	0xbaac0a46	-0.001312562
236	0x3b213897	0.002460038
237	0xbbce3d35	-0.0062939175
238	0xbc1de561	-0.009637208
239	0x3bedb3f7	0.0072541195
240	0xbb9b5cc5	-0.0047412836
241	0xbc16ef51	-0.009212331
242	0x3a256fec	0.0006310928
243	0x3c340dca	0.010989616
244	0x3c50891b	0.012728001
245	0x3a8ac948	0.0010588551
246	0xbc2e74b5	-0.010647942
247	0xbb1e239c	-0.0024130112
248	0x3be2939b	0.0069145686
249	0xba937612	-0.0011250398
250	0x3c0f4609	0.008744725
251	0x3caf1a11	0.021374734
252	0x3ce08dce	0.027411368
253	0xbc235fbc	-0.009971555
254	0xbb208907	-0.0024495737
255	0x3d1e3b00	0.038630486

fc1.bias f4 [256]
0	0xbd48d005	-0.049026508
1	0x9573c342	-4.922749e-26
2	0xbd2150cc	-0.039383695
3	0xb8715cbf	-5.7545254e-05
4	0x3d0b8813	0.034065317
5	0xbb0220de	-0.0019856016
6	0xaa156216	-1.3267889e-13
7	0x3cbf1901	0.023327352
8	0x3c5646cf	0.0130784055
9	0x3d94904a	0.072540835
10	0xa84b2fee	-1.1279157e-14
11	0x9ba28c4f	-2.6891324e-22
12	0xbd09bcd7	-0.033627357
13	0xb10958ed	-1.9986672e-09
14	0xbcfe9720	-0.031077921
15	0xba4d51c8	-0.0007832316
16	0x3b014b32	0.0019728658
17	0xbc3faf9b	-0.011699582
18	0xbd039972	-0.03212876
19	0xbb8766e3	-0.004132138
20	0xb9021fe7	-0.0001240965
21	0xbc0e70e0	-0.008693904
22	0xbd87f459	-0.066384025
23	0xbc285169	-0.010273316
24	0xb9e92e78	-0.00044475845
25	0xbdbd3d0e	-0.09240161
26	0x3c298e28	0.010348834
27	0xbbe3c1ab	-0.0069505773
28	0xaf568979	-1.9512027e-10
29	0xbd91603b	-0.07098433
30	0x3d981f7c	0.0742788
31	0xbc46ae09	-0.012126454
32	0x3d1c76ca	0.038199224
33	0xbd03805f	-0.032104846
34	0x3bca4aa4	0.0061734486
35	0xbcd87637	-0.026423557
36	0xbcb460ae	-0.022018757
37	0xbd34d3c2	-0.04414726
38	0x3c869967	0.01643057
39	0x3ce22266	0.027604293
40	0xbd55cdf7	-0.052198377
41	0xbc3cecf2	-0.011531102
42	0xbd3c3428	-0.045948178
43	0x3d01e2e6	0.031710528
44	0xa5e3f2ec	-3.9542833e-16
45	0xbd45482e	-0.04816454
46	0xbd38a6b6	-0.045080863
47	0xbd486d5b	-0.048932415
48	0xbccd3bda	-0.025052954
49	0xa4852e60	-5.775812e-17
50	0xbcc78690	-0.024356157
51	0xba0d4f03	-0.0005390497
52	0xa8827129	-1.4481975e-14
53	0xbce39412	-0.027780566
54	0xb249e92e	-1.1752759e-08
55	0xbcbda7fa	-0.023151387
56	0xbd3f950a	-0.046772994
57	0x3cceeb4d	0.025258685
58	0xbc918849	-0.017765181
59	0x3d45cb59	0.04828963
60	0x3c22b1fd	0.009930131
61	0xbc9560d4	-0.018234648
62	0xb96d3a23	-0.00022623739
63	0xbc444602	-0.011979582
64	0xbd27ed39	-0.040997718
65	0xbc07bdb3	-0.008284974
66	0x3d5ead90	0.05436474
67	0xb9080324	-0.0001297114
68	0xbcf8e3c0	-0.030382037
69	0xbc2ecaa2	-0.010668429
70	0x3d5e96d9	0.05434308
71	0xbbf6d87e	-0.007533132
72	0xbc95a6c5	-0.018267998
73	0x37028bc0	7.781142e-06
74	0x3c29e914	0.010370512
75	0xbd9f7487	-0.07785898
76	0xbd149eec	-0.036284372
77	0xbd2dcb85	-0.04243042
78	0xb8e42b4c	-0.00010879952
79	0xb5f6350b	-1.8343866e-06
80	0x3d8a96fd	0.0676708
81	0xbd08a762	-0.033362754
82	0x3cea21f3	0.028580641
83	0xbbe4445d	-0.0069661574
84	0xbceda2f0	-0.029008359
85	0xb086eb2d	-9.816624e-10
86	0xbd00200e	-0.03128057
87	0xbd519d8b	-0.051175635
88	0xbc90683d	-0.01762783
89	0x3b01a8d9	0.001978448
90	0x3d9c8322	0.07642199
91	0xb184b376	-3.862108e-09
92	0xba6a4fe4	-0.0008938296
93	0x3d8e52cd	0.06949387
94	0xbc47c4bc	-0.012192901
95	0x3b9433d4	0.00452278
96	0xb41c20b5	-1.4540531e-07
97	0x3d700865	0.058601756
98	0xbbbe6fc9	-0.0058116657
99	0x3d5fbc50	0.05462295
100	0xb3a6c69f	-7.766106e-08
101	0xbd30b2e8	-0.04313937
102	0xbb56bb4b	-0.0032765444
103	0x9e275596	-8.858605e-21
104	0xbdacac8d	-0.08431349
105	0xbd157911	-0.03649241
106	0xbd0df2d2	-0.0346554
107	0xa79a562c	-4.2837014e-15
108	0xbc716a65	-0.014734839
109	0x3d9ac11b	0.07556363
110	0xbd111649	-0.035421643
111	0xa58f34a8	-2.4842227e-16
112	0x3d9a64ff	0.07538795
113	0x9d33241a	-2.3709117e-21
114	0xbc781a3e	-0.015142975
115	0xbe01cec2	-0.12676528
116	0x3c26db31	0.010184095
117	0xbcf91082	-0.03040338
118	0xbab37ff5	-0.001369475
119	0xbdb70faa	-0.089385346
120	0xbb0bd605	-0.0021337282
121	0xb42995f5	-1.5793906e-07
122	0x3c936992	0.017994676
123	0xbc0a6e07	-0.008449084
124	0xbd2a16c1	-0.041525606
125	0xbd824ff3	-0.06362905
126	0xbc7d7965	-0.015470837
127	0x3d1f67e4	0.038917437
128	0xbd20c92a	-0.039254345
129	0xb8865c37	-6.406794e-05
130	0xbd4d050c	-0.05005364
131	0x3d68df55	0.05685361
132	0x95f2456d	-9.7852556e-26
133	0xbd2cb176	-0.042161427
134	0xa5848dda	-2.2994472e-16
135	0xbc676f31	-0.014125631
136	0xbcfdd11e	-0.030983504
137	0x3d33b6ff	0.04387569
138	0xbd938a35	-0.07204095
139	0xbb7845f2	-0.0037883488
140	0x3d6f3963	0.058404338
141	0xbb444126	-0.0029946058
142	0xbc1f5e3f	-0.00972706
143	0xaf909d0a	-2.630503e-10
144	0x3d36458e	0.044499926
145	0x8c63c779	-1.754747e-31
146	0x3d22bea9	0.03973261
147	0xbccd01e3	-0.025025314
148	0x3a57905c	0.00082231103
149	0xbd416c72	-0.047222562
150	0xbd8ad37e	-0.0677862
151	0x86b4b498	-6.7973833e-35
152	0x9a1303e8	-3.0402043e-23
153	0x3d6a8c45	0.057262678
154	0xbc704c4c	-0.014666628
155	0x3d2c4ecd	0.042067338
156	0xbd0b542f	-0.03401583
157	0xbcf122f9	-0.029435622
158	0xbd02f554	-0.031972244
159	0x3c97e208	0.018540397
160	0xbc792ffe	-0.015209196
161	0xbb9cd9d2	-0.0047867084
162	0xbb41b0b4	-0.0029554786
163	0x39e62a76	0.00043900654
164	0xbc18d173	-0.00932728
165	0xbc275273	-0.0102125285
166	0xbc6efb0e	-0.014586223
167	0xbc51eeb9	-0.012813264
168	0xbd2c3c84	-0.0420499
169	0xbcae8c7e	-0.021307226
170	0x3d5a1d2e	0.053250484
171	0xb9823f59	-0.0002484273
172	0x91e7a881	-3.6549222e-28
173	0xbcef5c4f	-0.02921882
174	0x3da9d8e5	0.082933225
175	0x3bbc9b50	0.0057558194
176	0xbcd6d689	-0.026225345
177	0x9f673cf0	-4.896656e-20
178	0xa73f468c	-2.6544818e-15
179	0x893d49c5	-2.2784734e-33
180	0xb88c2490	-6.6825305e-05
181	0xb9a2d18b	-0.0003105517
182	0xbc9d6f09	-0.019217985
183	0xb9b9b749	-0.00035422508
184	0xbca6c69d	-0.020358378
185	0x92dab043	-1.3801186e-27
186	0xa91a3ad3	-3.424589e-14
187	0xbc5b94c9	-0.013402172
188	0xbba60df0	-0.0050675794
189	0xb388063a	-6.334126e-08
190	0xbd3b73a1	-0.04576457
191	0xbca45d7f	-0.020064114
192	0xa3bc6c7c	-2.0428946e-17
193	0x3baacf21	0.00521268
194	0x3ba384e1	0.0049902056
195	0xaaeb8d4b	-4.1842427e-13
196	0x3c934380	0.017976522
197	0x3d56eb0f	0.052470263
198	0xbb58ca02	-0.003307939
199	0xbd58dba2	-0.052943833
200	0x8b205582	-3.0879208e-32
201	0xbd5651fd	-0.052324284
202	0xbd351579	-0.04420993
203	0xb80baf35	-3.3303357e-05
204	0xb9742d8b	-0.0002328662
205	0xbb065972	-0.002050009
206	0xbcdf3f83	-0.027251964
207	0xbc218c32	-0.009860085
208	0xb7d8e81d	-2.5857293e-05
209	0x3d5ae3cd	0.053439904
210	0xbd9af069	-0.07565386
211	0xb88bb323	-6.661403e-05
212	0x3da216bf	0.07914495
213	0xb34bd70e	-4.746021e-08
214	0xbc0a724b	-0.008450101
215	0xbd0929b2	-0.03348703
216	0xbb01da3c	-0.0019813916
217	0xb982957e	-0.00024906913
218	0x3dad9322	0.08475329
219	0xa68234a4	-9.03483e-16
220	0xa65968b0	-7.5428877e-16
221	0xbc4e19b4	-0.01257937
222	0xbd95b390	-0.073096395
223	0xbd017218	-0.03160295
224	0xbd1de556	-0.03854879
225	0x3ca6ee59	0.020377325
226	0xab83e7c2	-9.372436e-13
227	0xbad28327	-0.0016060815
228	0xbd1d0010	-0.038330138
229	0xbcb0032c	-0.021485887
230	0xbdf55ce3	-0.11980607
231	0xad085bad	-7.751061e-12
232	0xbb1c846f	-0.0023882648
233	0x3cf29b0b	0.029614946
234	0xbcd5b25c	-0.026086025
235	0xa027279d	-1.4158557e-19
236	0x9ef4dd5a	-2.5926054e-20
237	0xbb1cd6fb	-0.002393185
238	0xbd91372e	-0.07090603
239	0xbd1baa6b	-0.03800432
240	0xbd156ebc	-0.036482558
241	0xba22378c	-0.00061880867
242	0xbcf26bad	-0.02959236
243	0xbbf3123c	-0.007417945
244	0xb85d0819	-5.2698048e-05
245	0xbd445743	-0.04793478
246	0x3d212692	0.039343424
247	0xba56b188	-0.00081899064
248	0xb15dcbcd	-3.227558e-09
249	0x3d38683e	0.045021288
250	0xbd518806	-0.051155113
251	0xbb99c60f	-0.0046928
252	0xb71d5172	-9.376892e-06
253	0xbbd2d313	-0.0064338534
254	0xbc54144a	-0.01294429
255	0xbcaf4da2	-0.021399323

fc2.weight f4 [120, 256]
0	0xbb90df80	-0.0044211745
1	0x80391502	-5.24216e-39
2	0x3b835b7e	0.0040087095
3	0x001e1670	2.763114e-39
4	0x3c339a26	0.010962045
5	0x3d22b3e0	0.039722323
6	0x80192b2b	-2.311373e-39
7	0xbd5b80fc	-0.053589806
8	0xbc88a499	-0.016680049
9	0xbcc96228	-0.024582937
10	0x002097ff	2.993262e-39
11	0x00148c00	1.886932e-39
12	0x3c0057b8	0.007833414
13	0x801c2d93	-2.587743e-39
14	0x3bceb690	0.0063083842
15	0x00734022	1.0584089e-38
16	0x3c838a19	0.016057061
17	0x3dbab294	0.09116092
18	0xb58b3877	-1.037274e-06
19	0x377db57f	1.5122233e-05
20	0x8f158913	-7.372667e-30
21	0x3d1d8880	0.038460255
22	0x3c87d780	0.01658225
23	0x3cdd5f42	0.027022962
24	0x0033cbd9	4.756737e-39
25	0xbb56eee5	-0.00327962
26	0x3c48d983	0.01225889
27	0x322b8b5a	9.985195e-09
28	0x001838ee	2.224474e-39
29	0x3d3eeb90	0.04661137
30	0xbc4f3b12	-0.012648361
31	0xba1f1ff8	-0.00060701324
32	0xbb8f3e6d	-0.0043714554
33	0x3cbd3e47	0.023100985
34	0xbc0602ff	-0.008179425
35	0x3baf021e	0.0053408286
36	0x3c8e72a4	0.01738865
37	0x3d054c77	0.032543626
38	0x3d1e0e3e	0.0385878
39	0x3d6b98e2	0.057518847
40	0xbb80a0a3	-0.0039253994
41	0x3099befc	1.1186496e-09
42	0x3cfbafae	0.030723419
43	0xbaf1d5ca	-0.0018450555
44	0x803ea1c5	-5.751833e-39
45	0x3c0f9a90	0.008764878
46	0x39beb602	0.0003637523
47	0x3b076553	0.002065976
48	0x3ad979a3	0.0016592037
49	0x00091dcb	8.37207e-40
50	0x3d3e6a77	0.04648825
51	0x0039f755	5.323349e-39
52	0x800351aa	-3.04802e-40
53	0x3bb7c30c	0.005607968
54	0x001739a4	2.132894e-39
55	0x3bd0b4d1	0.0063692112
56	0xbaaee393	-0.0013342969
57	0x3c9d29e2	0.01918501
58	0x3cb79376	0.022409182
59	0xbce6b465	-0.02816219
60	0x3c0fcaff	0.008776425
61	0xbb95085e	-0.0045481166
62	0xbca4129b	-0.020028403
63	0x3cd07626	0.025446963
64	0x3ca70ed5	0.020392815
65	0x3d1d6f85	0.03843643
66	0xbbf007b7	-0.0073251384
67	0x801b7758	-2.522371e-39
68	0x3d086692	0.033300944
69	0x3d13c372	0.036075063
70	0x3a054add	0.0005084703
71	0x320d5160	8.225783e-09
72	0xbc133e0e	-0.008986963
73	0x3d2d1736	0.042258464
74	0xbbcb9235	-0.0062124976
75	0x3c4d8a72	0.012545215
76	0x3c958c48	0.018255368
77	0x3b2824f3	0.002565679
78	0x0042dc59	6.140189e-39
79	0x800df722	-1.282516e-39
80	0xbd1f2508	-0.038853675
81	0xb7e4ea66	-2.7288868e-05
82	0xbd4f5dab	-0.050626438
83	0x3c504f8c	0.012714278
84	0x3bbe40da	0.0058060708
85	0x8011f53e	-1.64918e-39
86	0x3cd59284	0.02607084
87	0x3b46961e	0.003030188
88	0xb49d146c	-2.9258388e-07
89	0xbb0bc70c	-0.0021328358
90	0xbd11d0fc	-0.035599694
91	0x002de883	4.216007e-39
92	0xaa023ddc	-1.1567781e-13
93	0xbb4a4c83	-0.0030868358
94	0x38248e92	3.9233426e-05
95	0x3c70aa55	0.014689048
96	0x8017a07b	-2.169786e-39
97	0x3c77c313	0.015122193
98	0x2cdd00c8	6.2812845e-12
99	0xbd733778	-0.05937907
100	0x8046b375	-6.492862e-39
101	0x3bc7186e	0.0060759103
102	0x8926a9be	-2.0061336e-33
103	0x802001bc	-2.939358e-39
104	0x3c65968c	0.014012944
105	0x3c3ec7f0	0.0116443485
106	0x3c568047	0.013092107
107	0x802f971b	-4.370475e-39
108	0x3d10afc2	0.035323866
109	0xbd52f2c0	-0.051501036
110	0x3b932e09	0.004491572
111	0x120f6608	4.5248607e-28
112	0xbd08c76f	-0.03339332
113	0x9ca42a4c	-1.0863543e-21
114	0x3d01cec9	0.031691346
115	0x3c47dfc6	0.012199348
116	0x3cdba59a	0.026812363
117	0x3d1004f1	0.035160962
118	0x3b84064f	0.0040290724
119	0x3ccd32d0	0.025048643
120	0x3d151bbe	0.03640341
121	0x80028349	-2.30767e-40
122	0x3bdfd73e	0.006831079
123	0x37256029	9.857155e-06
124	0x3b1a766f	0.0023569127
125	0x3d21983e	0.03945183
126	0x3d976867	0.0739296
127	0x3d4352fb	0.04768656
128	0xbc9d7831	-0.01922235
129	0x803ca5b7	-5.569577e-39
130	0xba588be9	-0.00082605943
131	0xbd5a4ed3	-0.05329783
132	0x800f4ab5	-1.404332e-39
133	0x380e009a	3.3856e-05
134	0x80113dde	-1.583397e-39
135	0x3c190a10	0.009340778
136	0x3b7126f1	0.0036796893
137	0xbc06ddf7	-0.0082316315
138	0x3a979280	0.0011564046
139	0x2f041520	1.2012835e-10
140	0xbc8323ee	-0.016008344
141	0x25517ef8	1.8170879e-16
142	0xb684a1f2	-3.9527595e-06
143	0x801cf9c0	-2.660987e-39
144	0xbce95b4b	-0.028485915
145	0x0911be31	1.7543168e-33
146	0xbcdb7ee8	-0.026793912
147	0xbc8c3640	-0.017115712
148	0x3c321150	0.010868385
149	0x3597ebbe	1.1318987e-06
150	0x3c9cb150	0.019127518
151	0x00111ab3	1.570781e-39
152	0x001bc5e8	2.550554e-39
153	0xbce85115	-0.028358975
154	0x3d5c0a9e	0.053721063
155	0xbb63e29d	-0.0034772523
156	0xbc0936e3	-0.008374902
157	0x356d20c3	8.8337055e-07
158	0x3cb9e450	0.022691876
159	0x3c604021	0.0136871645
160	0x3ce301d5	0.027710835
161	0xbc0c9548	-0.008580513
162	0xbd1f00e8	-0.038819224
163	0x3b878e92	0.0041368688
164	0x3c08d2e7	0.008351064
165	0xbd3edb6a	-0.04659597
166	0xbb54f312	-0.0032493514
167	0x386068f3	5.3503503e-05
168	0x3c9a213a	0.018814672
169	0x3abb4545	0.0014287612
170	0xbd201ec9	-0.03909186
171	0x955ed8ca	-4.500356e-26
172	0x802d562a	-4.163507e-39
173	0x3181e1d1	3.7800665e-09
174	0xbcd43aaf	-0.025906889
175	0x3d8266f7	0.06367295
176	0x3ce2e215	0.027695695
177	0x9e943f6f	-1.5696345e-20
178	0x800843a4	-7.58949e-40
179	0x06dd0f39	8.315333e-35
180	0x8024248d	-3.31919e-39
181	0x03a065f1	9.427359e-37
182	0x3c6abc0e	0.014327062
183	0x97142fbd	-4.7881633e-25
184	0x3d0695f9	0.03285787
185	0x8021d729	-3.107756e-39
186	0x00116598	1.597648e-39
187	0x388e40b8	6.7831425e-05
188	0x27a97eef	4.7044544e-15
189	0x001b253b	2.492914e-39
190	0x3c58b21d	0.013226059
191	0x3bedfce6	0.007262814
192	0x00058982	5.08506e-40
193	0x3c5c5e60	0.013450235
194	0x3ca5867f	0.020205734
195	0x2a864c88	2.3856286e-13
196	0x3c938164	0.018006034
197	0xbd430731	-0.04761428
198	0xa4086d35	-2.95828e-17
199	0x3c3794f4	0.011204947
200	0x000e1c03	1.295746e-39
201	0x3c5d9c72	0.013526069
202	0x3cd9656a	0.026537616
203	0x0039bcf6	5.30241e-39
204	0x311a01e7	2.241103e-09
205	0x24b9892a	8.0463326e-17
206	0x3d1ed6db	0.03877912
207	0x38757d91	5.8529495e-05
208	0x001b3be1	2.501039e-39
209	0xbd58d78c	-0.052939937
210	0x3cb878bb	0.022518506
211	0x0010402d	1.49239e-39
212	0xbb803b2d	-0.0039133043
213	0x32ab544c	1.9945354e-08
214	0x3cc80492	0.024416242
215	0x3cc5c049	0.02413954
216	0x309d4bc3	1.1444786e-09
217	0x8658a1fd	-4.0744095e-35
218	0xbc5159f9	-0.012777799
219	0x801cf9a3	-2.660947e-39
220	0x8030b6a6	-4.473626e-39
221	0x3d316a7c	0.043314442
222	0x3c3fa734	0.011697579
223	0x3c81a722	0.015826765
224	0xbaf36d9f	-0.0018572098
225	0xbd1a27cd	-0.037635613
226	0x00174436	2.136686e-39
227	0x3c50fa0b	0.012754927
228	0x3a10fe50	0.00055310596
229	0x3c2eb43f	0.010663091
230	0x3ba85651	0.005137243
231	0x000a9ec6	9.75312e-40
232	0x2bc9a36c	1.4327268e-12
233	0x3c00e3f6	0.00786685
234	0x3d23b2a5	0.03996529
235	0x00105606	1.500227e-39
236	0x00029456	2.36884e-40
237	0x801b288d	-2.494105e-39
238	0x3d7d1fe9	0.06179801
239	0xbb00707a	-0.0019598291
240	0x3b76f658	0.0037683453
241	0x8018b95b	-2.270545e-39
242	0x3a5e7019	0.0008485332
243	0x2a174f93	1.3439102e-13
244	0x847a7ab4	-2.9443701e-36
245	0x3cae2435	0.0212575
246	0xbcabfc46	-0.020994317
247	0x2089630c	2.3274246e-19
248	0x001b36cc	2.499216e-39
249	0x3b6c3e3a	0.0036047832
250	0x3d07d776	0.033164464
251	0xab9c2ede	-1.1097475e-12
252	0x00045799	3.98766e-40
253	0x3150b612	3.0371479e-09
254	0x3d088588	0.03333047
255	0xbc7705ba	-0.015077049

fc2.bias f4 [120]
0	0x3d5cfe60	0.05395353
1	0x3da80434	0.08203927
2	0x3d8332ea	0.064061955
3	0x3d419af9	0.047266934
4	0x3dea913f	0.11453485
5	0x3d0afe65	0.033934016
6	0xafa8a6e3	-3.0677602e-10
7	0x3dd21e64	0.10259703
8	0x3d7e4c2c	0.062084362
9	0x3d6f517f	0.05842733
10	0x3d96a296	0.073552296
11	0x3d5ee474	0.05441709
12	0x3dc69a1d	0.096973635
13	0x3e0af155	0.13568623
14	0x3de7fe74	0.1132783
15	0x3e140d25	0.14458139
16	0x3ddd5639	0.10807461
17	0x3ddc929a	0.107701495
18	0x3dfc27d1	0.12312282
19	0x3de4f611	0.11179746
20	0x3db354b5	0.08756391
21	0x3da38208	0.07983786
22	0x3db4f844	0.088364154
23	0x3dc613ad	0.096717216
24	0x3de5baa4	0.112172395
25	0x3daec8c8	0.0853439
26	0x3dcc7013	0.09982314
27	0xbb943176	-0.0045224978
28	0x3e2036aa	0.15645853
29	0x3dae5cc6	0.08513789
30	0x3dd587b2	0.104262725
31	0x3ddcfe5f	0.10790705
32	0x3ddf1a9b	0.108937465
33	0x3dbf55ec	0.0934256
34	0x3d9c1749	0.07621629
35	0x3d6c3619	0.05766878
36	0x3de859ae	0.1134523
37	0x3da040a2	0.07824828
38	0x3e093f28	0.13402998
39	0x3dad5b5f	0.08464693
40	0x3daffa11	0.08592618
41	0x3e055c38	0.1302346
42	0x3dd4f98e	0.10399161
43	0x3da009e3	0.07814386
44	0x3d41db8c	0.047328517
45	0x3d8cc12a	0.068727806
46	0x3dbedcd1	0.09319461
47	0x3ac2dc84	0.0014866744
48	0x3d431150	0.047623932
49	0x3d7b119f	0.0612961
50	0x3da635c4	0.08115724
51	0x3da01fe4	0.07818583
52	0x3de3cb86	0.111228034
53	0x3de18f94	0.110137135
54	0x3dfa1dd9	0.12212724
55	0x3dcda58c	0.10041341
56	0x3db466a5	0.088086404
57	0x3dc5706c	0.096405834
58	0x3d789486	0.060688518
59	0x3d96dcd9	0.07366342
60	0x3db131bb	0.086520635
61	0x3de87ba9	0.11351711
62	0x3d878d8a	0.06618793
63	0x3da1dc38	0.079033315
64	0x3d73af46	0.059493326
65	0x3dc38068	0.09545976
66	0x3dc98454	0.09839693
67	0x3dc03b80	0.09386349
68	0x3de79479	0.11307616
69	0x3d930bec	0.07180008
70	0x3dc35bcd	0.09538994
71	0x3d898861	0.06715465
72	0x3d9638fc	0.07335088
73	0x3db1ca43	0.086811565
74	0x3db87ac6	0.09007792
75	0x3e09f9f7	0.1347426
76	0x3dbb0f51	0.09133781
77	0x3ddf7a95	0.109120525
78	0x3dbc44e2	0.09192826
79	0x3dbaa546	0.09113555
80	0x3c507dba	0.012725288
81	0x3da48ffd	0.08035276
82	0x3d7039ab	0.058648746
83	0x3cb21cfe	0.02174234
84	0x3de28ef9	0.11062426
85	0x3dc55809	0.09635932
86	0x3db57e73	0.08862009
87	0x3e02272e	0.12710258
88	0x3daad9c6	0.08342318
89	0x3db62bec	0.08895096
90	0x3d4832f8	0.048876733
91	0x3e167b96	0.14695582
92	0x3da8e28d	0.08246336
93	0x3da13426	0.07871275
94	0x3dabcdec	0.08388886
95	0x3dc4268c	0.09577665
96	0x3d93e6cc	0.072217554
97	0x3d821aa3	0.06352737
98	0x3ddf1ca7	0.10894137
99	0x3dbb8348	0.09155899
100	0x3d7f43a3	0.062320363
101	0x3d8d71b7	0.06906455
102	0x3dae0d6d	0.084986545
103	0x3d6849f0	0.056711137
104	0x3dd89452	0.10575165
105	0x3ddeb670	0.10874641
106	0x3e0bc108	0.13647854
107	0x3dd3221a	0.10309239
108	0x3d971ef3	0.0737895
109	0x3d9041b0	0.07043779
110	0x3d896b8d	0.06709967
111	0x3dd0fadd	0.102040984
112	0x9288964e	-8.61986e-28
113	0x3d9c454c	0.07630405
114	0x3d7bf530	0.061513126
115	0x3df46e5a	0.119351104
116	0x3dba510b	0.09097489
117	0x3d888618	0.06666201
118	0x3da8dc03	0.08245089
119	0x3d492122	0.049103864

fc3.weight f4 [1, 120]
0	0xbde0f921	-0.109850176
1	0xbe00bef8	-0.12572849
2	0xbde42c3f	-0.11141252
3	0xbe0575e3	-0.13033251
4	0x3e5ad034	0.21368486
5	0xbdc23467	-0.09482651
6	0x2d831ac0	1.4904855e-11
7	0x3e4fdd32	0.20299223
8	0xbe1d69b8	-0.1537236
9	0xbddb83be	-0.10718487
10	0xbe25cdda	-0.16191807
11	0xbe0faf30	-0.14031672
12	0x3e505d3d	0.20348068
13	0x3e73a876	0.23794731
14	0x3e830c13	0.2559515
15	0xbe1a8713	-0.15090589
16	0xbe11ddb6	-0.14244732
17	0x3e6436d6	0.22286543
18	0x3e5197ce	0.20468065
19	0x3e4a5f2b	0.19762866
20	0xbe0e8f10	-0.13921762
21	0xbe04a72d	-0.12954397
22	0xbe1a5fee	-0.15075657
23	0x3e477ab7	0.19480406
24	0xbe063d45	-0.1310931
25	0xbe1e6614	-0.15468627
26	0xbe374f78	-0.17901409
27	0x3c3631c8	0.011120267
28	0x3e7b8c39	0.2456521
29	0xbe20904b	-0.15680043
30	0x3e6a13ac	0.22859067
31	0x3e73a6a8	0.23794043
32	0xbe1088d0	-0.1411469
33	0x3e426255	0.18982823
34	0xbe1431da	-0.14472142
35	0xbdedcc3d	-0.11611221
36	0xbe14123c	-0.14460081
37	0xbdfe189a	-0.12407036
38	0x3e6fc2b9	0.23414125
39	0xbe152167	-0.14563523
40	0xbe0e37e4	-0.13888508
41	0x3e7da766	0.24770889
42	0x3e488f33	0.19585876
43	0xbdf012a5	-0.11722306
44	0xbe03aecb	-0.12859647
45	0xbde09b53	-0.10967126
46	0x3e81cdd2	0.2535234
47	0x393080fa	0.00016832715
48	0xbd69cb4e	-0.057078652
49	0xbe082137	-0.1329392
50	0xbdfdfe5f	-0.12402033
51	0xbdc83f61	-0.097777136
52	0x3e67fbab	0.22654597
53	0x3e5b42aa	0.21412149
54	0x3e58541e	0.21125838
55	0x3e566ddc	0.20940346
56	0x3e3ffebb	0.18749516
57	0x3e48c3bf	0.19605921
58	0xbd745d81	-0.059659485
59	0xbdd49b5d	-0.10381196
60	0xbe011c5c	-0.12608474
61	0xbe0b1c71	-0.13585068
62	0xbe17d77d	-0.14828296
63	0xbde1a9b0	-0.110186934
64	0xbdfb8204	-0.12280658
65	0xbe156b98	-0.14591825
66	0x3e2a8453	0.1665204
67	0x3e41320d	0.18866749
68	0x3e5b9bd6	0.21446165
69	0xbe03dce0	-0.12877226
70	0x3e52f4de	0.20601222
71	0xbdd2442c	-0.10266909
72	0xbe329a35	-0.17441638
73	0xbdf49241	-0.11941958
74	0xbdcbae80	-0.099453926
75	0x3e6abd5d	0.22923799
76	0xbdf540e5	-0.11975268
77	0xbdee90f0	-0.116487384
78	0x3e3efbe7	0.1865078
79	0xbe05237d	-0.13001819
80	0x3ce4bf2b	0.027923187
81	0xbdcdd137	-0.1004967
82	0xbddb11e2	-0.1069677
83	0xbce182f1	-0.027528258
84	0x3e4d19c7	0.20029365
85	0xbdf97b88	-0.12181765
86	0x3e5fe109	0.21863188
87	0x3e6fe704	0.23427969
88	0x3e4c6c04	0.1996308
89	0xbdfa4056	-0.12219302
90	0xbdc34258	-0.095341384
91	0x3e8537de	0.26019186
92	0xbde5d61e	-0.1122248
93	0xbdf898c3	-0.12138512
94	0x3e342351	0.17591597
95	0x3e6f6dfd	0.23381801
96	0xbdcdbb97	-0.100455455
97	0xbde859c5	-0.11345247
98	0x3e489b35	0.19590457
99	0xbe1a68a4	-0.1507898
100	0xbdf86511	-0.12128652
101	0xbe158e56	-0.14605078
102	0xbde7010b	-0.11279496
103	0xbe13c0e5	-0.14429052
104	0xbe21dd1a	-0.15807
105	0xbe281cd6	-0.1641725
106	0x3e685a8f	0.22690795
107	0xbe2ee0ed	-0.1707799
108	0xbe341096	-0.17584452
109	0xbe06317b	-0.13104813
110	0xbdedcc21	-0.116112
111	0xbe1e53da	-0.15461674
112	0xb63f57bf	-2.8512293e-06
113	0xbe085d56	-0.13316855
114	0xbe00ecaf	-0.12590288
115	0x3e6c4588	0.23073399
116	0xbdf9dcc6	-0.12200312
117	0xbe09e1d3	-0.13465051
118	0xbdd8efb6	-0.10592596
119	0xbdd6c045	-0.10485891
