k_fold_model_1/model0.pt (torch, 242935 bytes, 17 tensors)

conv1.weight f4 [10, 1, 15, 3]
0	0xbdab2aff	-0.0835781
1	0xbed59650	-0.41716242
2	0x3e515c68	0.20445406
3	0x3d93fa71	0.07225502
4	0xbcee9496	-0.029123586
5	0x3d4a5092	0.049393244
6	0x3ea9f2e8	0.33193135
7	0xbd08d10e	-0.033402495
8	0x3d8d2978	0.06892675
9	0xbe6d6303	-0.23182301
10	0xbbe1b410	-0.00688792
11	0xbd93a05a	-0.07208319
12	0xbe102b27	-0.14078961
13	0xbe301145	-0.17194088
14	0xbe2247a1	-0.15847637
15	0x3e0e70cc	0.13910216
16	0x3db9ac31	0.09066046
17	0x3d557bea	0.052120127
18	0x3da93d71	0.08263672
19	0xbda209f6	-0.07912056
20	0xbd8c2bf1	-0.06844319
21	0xbe2864cd	-0.16444702
22	0x3e8599e8	0.26093984
23	0x3e53722d	0.20649023
24	0xbea28a1e	-0.31746
25	0x3e1697c7	0.14706336
26	0xbe5251d2	-0.20539024
27	0xbde71ec9	-0.11285169
28	0x3d84a6ac	0.06477103
29	0xbe8c5aed	-0.2741312
30	0x3db1e6de	0.086866125
31	0xbda1bd95	-0.07897488
32	0x3d58c414	0.05292137
33	0x3dc849cb	0.097797
34	0x3dba87c2	0.09107925
35	0x3e2f70ac	0.17132825
36	0xbe018516	-0.12648425
37	0xbeb126e3	-0.3459998
38	0x3ddd75ef	0.1081351
39	0x3e8ec1a4	0.2788211
40	0x3d8f29a4	0.06990364
41	0x3c8f51b5	0.017495016
42	0x3e5b12e4	0.21393925
43	0xbd8e42a9	-0.06946308
44	0xbe1c8d04	-0.15288168
45	0xbc366a2c	-0.011133712
46	0xbc0e40b1	-0.008682416
47	0x3e0c34b6	0.13691983
48	0xbe869c59	-0.2629116
49	0x3d268a6f	0.040659364
50	0x3cb733dd	0.022363598
51	0x3d26872c	0.040656254
52	0x3da3d62c	0.079998344
53	0x3d787fdd	0.060668815
54	0xbdc43433	-0.09580269
55	0xbd263cc4	-0.040585294
56	0xbe0654cc	-0.13118285
57	0xbe51c9b4	-0.204871
58	0x3e17d873	0.14828663
59	0xbd7809cb	-0.060556214
60	0xbe8a1e61	-0.26976302
61	0xbd8c2cc4	-0.06844476
62	0x3d6af143	0.05735899
63	0x3d2b2a7b	0.04178856
64	0xbe7ea650	-0.2486813
65	0xbdd6d306	-0.10489468
66	0x3d1bcb42	0.03803564
67	0x3dd129de	0.10213064
68	0x3e1daa38	0.15396965
69	0xbe274e8d	-0.16338558
70	0x3c9ba101	0.018997671
71	0x3e3b3312	0.182812
72	0x3e443a18	0.19162786
73	0x3e394914	0.18094283
74	0x3eb5fdb5	0.35545126
75	0x3e05e47c	0.13075441
76	0xbe2f5b6d	-0.1712472
77	0xbd1b3144	-0.03788878
78	0x3c9024df	0.017595707
79	0x3ca13776	0.019679766
80	0x3d318e86	0.04334881
81	0xbe44dc9c	-0.19224781
82	0xbed57753	-0.416926
83	0xbe88229a	-0.265889
84	0xbc986a05	-0.018605242
85	0x3dcd6051	0.100281365
86	0xbbe0d8b2	-0.0068617696
87	0x3e8f8861	0.28033736
88	0xbe60c2d3	-0.2194932
89	0xbda09f0a	-0.07842834
90	0x3dd4792e	0.10374676
91	0x3e0edce8	0.13951457
92	0x3da3697f	0.07979106
93	0xbd91585e	-0.07096933
94	0xbc176df0	-0.00924252
95	0xbe94e5d9	-0.2908161
96	0x3dbf8419	0.093513675
97	0x3ce3099f	0.027714549
98	0xbe025dd4	-0.12731105
99	0x3d80d489	0.06290538
100	0xbcfbb39f	-0.030725298
101	0x3c07be37	0.008285097
102	0x3d76d2b5	0.06025954
103	0xbdbd2e6c	-0.0923737
104	0x3dca3656	0.09873645
105	0xbe106e20	-0.1410451
106	0xbe1260bc	-0.14294714
107	0xbe399c9e	-0.18126151
108	0x3e0d27be	0.13784692
109	0xbd638f19	-0.05555639
110	0xbdd1893e	-0.10231255
111	0x3d2f7f92	0.04284627
112	0xbdbaf74c	-0.091291994
113	0xbd02cbfe	-0.031932823
114	0xbdb56981	-0.08858014
115	0x3d8f5171	0.069979556
116	0xbe37c982	-0.17947963
117	0x3e4865cc	0.19570082
118	0x3d8dfd24	0.06933048
119	0xbdde7144	-0.108614475
120	0x3d067cf7	0.03283402
121	0x3d46a4ad	0.04849689
122	0xbe3a2fd6	-0.1818231
123	0x3eb4b87f	0.3529701
124	0xbcecd0b3	-0.02890811
125	0x3ddb8c07	0.107200675
126	0x3e7c0452	0.24611023
127	0xbd65f0ec	-0.056137964
128	0xbe3b5254	-0.18293124
129	0x3eec3356	0.46132916
130	0x3e889fcd	0.26684418
131	0x3e71b1ea	0.23603025
132	0x3cb6f358	0.022332832
133	0x3e69bef6	0.22826752
134	0x3d91f231	0.071262725
135	0x3ed1e049	0.40991428
136	0x3e009a65	0.12558897
137	0x3e101924	0.1407209
138	0x3e06609b	0.1312279
139	0x3e14584b	0.14486806
140	0x3d8f4ed2	0.06997456
141	0xbd893d64	-0.067011625
142	0x3d9ba484	0.07599738
143	0xbe57a176	-0.21057686
144	0xbd87ae29	-0.06625015
145	0x3e273352	0.16328171
146	0x3e30d0d8	0.17267168
147	0x3e5f2708	0.21792233
148	0x3d0d9a9b	0.03457127
149	0x3e33463c	0.17507261
150	0x3e3cc4d7	0.18434463
151	0x3e69476b	0.2278115
152	0xbd8b1104	-0.06790355
153	0xbe4c1b08	-0.19932187
154	0xbd924e49	-0.07143838
155	0xbdc51bb8	-0.096244276
156	0xbe0dad80	-0.13835716
157	0x3d52ad28	0.051434666
158	0xbe5f0614	-0.21779662
159	0x3d80d2f0	0.06290233
160	0x3d9863f1	0.07440937
161	0xbd2591c5	-0.04042222
162	0xbda6c933	-0.081438445
163	0x3e218334	0.15772706
164	0x3d687e54	0.0567611
165	0xbdba5d19	-0.09099788
166	0x3d91a32f	0.07111203
167	0x3e08071d	0.13283964
168	0x3e39e4a8	0.18153632
169	0x3c84acdc	0.016195707
170	0x3e469890	0.19394135
171	0xbe766b81	-0.24064447
172	0xbe18b523	-0.14912848
173	0xbd888263	-0.06665494
174	0xbe5afba6	-0.21385059
175	0x3d957682	0.07297994
176	0xbde4f37a	-0.11179252
177	0xbe311208	-0.17292035
178	0xbc1ecf65	-0.009693001
179	0xbe0dfb03	-0.13865285
180	0xbe153f2c	-0.1457488
181	0x3d81eea8	0.06344348
182	0x3e32f934	0.17477876
183	0xbe353f40	-0.17699909
184	0xbc375f55	-0.0111921625
185	0x3e06f36c	0.13178796
186	0xbd36d074	-0.04463239
187	0xbd3122aa	-0.04324595
188	0x3a90d0b0	0.0011048522
189	0xbda8cccf	-0.08242189
190	0x3d016cde	0.031597964
191	0x3e0609db	0.13089697
192	0xbe2c5ff0	-0.16833472
193	0x3c57e92f	0.013178154
194	0x3e6bc8e0	0.23025846
195	0xbdc49945	-0.09599546
196	0x3e6729ac	0.2257449
197	0xbe884f37	-0.26622936
198	0x3e4dc5cd	0.20094986
199	0x3d817555	0.063212074
200	0xbe9d372f	-0.30706164
201	0xbd81d483	-0.063393615
202	0x3e13c7e5	0.14431722
203	0x3cf5257b	0.029925099
204	0x3da25cac	0.07927832
205	0x3d1925f4	0.03738971
206	0xbddbdf53	-0.10735955
207	0xbe071fb1	-0.13195683
208	0xbcf4c569	-0.029879289
209	0x3d89fb65	0.06737403
210	0xbdd33f14	-0.103147656
211	0xbe6b8dcb	-0.23003308
212	0x3f019f39	0.5063358
213	0xbe732bd9	-0.23747195
214	0xbd6a5fa5	-0.05722012
215	0x3ec5dc86	0.3864481
216	0xbe8db094	-0.2767378
217	0xbd4508df	-0.048104163
218	0x3e2a6ac4	0.1664229
219	0xbde0e09e	-0.10980342
220	0xbe00e60a	-0.12587753
221	0x3e8637e7	0.26214525
222	0x3dba3ff8	0.09094232
223	0xbe0fd163	-0.14044718
224	0x3e0d7f41	0.13818075
225	0xbe0b7a44	-0.1362086
226	0xbe6e21f7	-0.23255144
227	0xbe0ecb84	-0.13944823
228	0x3d77ee79	0.06053016
229	0x3d370f99	0.04469261
230	0x3d84cc15	0.06484238
231	0x3ad1bf1f	0.0016002393
232	0xbcd9b775	-0.026576737
233	0xbdad4932	-0.084612265
234	0xbe0f220d	-0.13977833
235	0xbe4c3996	-0.19943842
236	0x3b3de9fe	0.0028978582
237	0xbe2a6973	-0.16641788
238	0xbd5a8c55	-0.053356487
239	0x3e3c38c0	0.18381023
240	0x3e691519	0.22761954
241	0x3c113334	0.008862305
242	0x3d9f447d	0.07776735
243	0xbe4a4405	-0.1975251
244	0xbd945ba9	-0.07244045
245	0x3dc6ac11	0.09700788
246	0xbdf57109	-0.1198445
247	0xbc2d468b	-0.010575901
248	0xbe442134	-0.19153291
249	0xbd5e73ad	-0.054309536
250	0x3cc13257	0.023583574
251	0x3d98626f	0.0744065
252	0x3dc381f7	0.09546273
253	0x3c5fb12a	0.013653079
254	0xbb04ddf7	-0.0020273903
255	0x3e0d269e	0.13784263

conv1.bias f4 [10]
0	0x38634b4c	5.4191143e-05
1	0xb9b6d95f	-0.000348757
2	0xbaa7a027	-0.0012788818
3	0xba340231	-0.00068667816
4	0x3a8bdf3a	0.0010671385
5	0xb98778a6	-0.00025839097
6	0xba25922e	-0.0006316033
7	0xba364154	-0.00069524837
8	0x3a75c60a	0.00093755184
9	0xb8237022	-3.896666e-05

bn1.weight f4 [10]
0	0x3f0dd777	0.554069
1	0x3f3d1528	0.73860407
2	0x3f423be3	0.7587263
3	0x3f1a978f	0.6038751
4	0x3f36806c	0.71289706
5	0x3f401969	0.7503877
6	0x3f3d3327	0.7390618
7	0x3f2bbb6c	0.6708286
8	0x3f113804	0.567261
9	0x3f0db1de	0.5534953

bn1.bias f4 [10]
0	0xbd103d18	-0.035214514
1	0xbdc85d6a	-0.09783442
2	0xbebc9b5e	-0.36837286
3	0xbc7394d2	-0.0148670245
4	0xbee53f7c	-0.44774997
5	0x3be730cc	0.0070553776
6	0xbe8dca38	-0.27693343
7	0xbe0b060d	-0.13576527
8	0xbdc86a31	-0.097858794
9	0xbdd99265	-0.10623626

bn1.running_mean f4 [10]
0	0xbe706ec0	-0.23479748
1	0xbea7cba2	-0.32772547
2	0x3f04e3a1	0.51909834
3	0x3f0df725	0.5545524
4	0x3d91057e	0.07081126
5	0x3d5bd8e8	0.053673655
6	0x3cfa7ec1	0.03057802
7	0x3ec49c0d	0.38400307
8	0x3f148acd	0.58024293
9	0x3e81ac76	0.2532689

bn1.running_var f4 [10]
0	0x3c9e779f	0.01934415
1	0x3db022ff	0.08600425
2	0x3dea3010	0.114349484
3	0x3dc004d3	0.0937592
4	0x3cb7a0f0	0.022415608
5	0x3dad3abd	0.08458469
6	0x3c7352f0	0.014851317
7	0x3d9eb6ac	0.07749686
8	0x3d84e8e9	0.064897366
9	0x3d5e0cc2	0.054211386

conv2.weight f4 [20, 10, 3, 3]
0	0x3dd4a1d8	0.10382432
1	0x3db2b33a	0.08725591
2	0xbd462287	-0.04837277
3	0xbd5aba27	-0.053400185
4	0x3bf3f29d	0.0074446932
5	0x3d863552	0.06553139
6	0x3e5747a0	0.21023417
7	0x3bca2d79	0.0061699715
8	0xbca4f98a	-0.02013852
9	0x3cce87f5	0.025211314
10	0x3d53e9f5	0.05173679
11	0xbca06715	-0.019580403
12	0x3e2938f3	0.1652563
13	0x3e22d481	0.15901376
14	0xbb99df2d	-0.004695794
15	0x3df2fbf3	0.11864462
16	0xbdb8d344	-0.09024671
17	0x3e0d73ae	0.1381366
18	0x3e3b7f0f	0.18310188
19	0xbc5cc333	-0.0134742735
20	0x3d4a94fd	0.049458493
21	0x3e21bc91	0.15794589
22	0xbca0230a	-0.019547958
23	0x3dce5921	0.10075594
24	0x3cc691e8	0.024239495
25	0xbdaae496	-0.083443806
26	0x3d1d8752	0.03845913
27	0x3d374f05	0.044753093
28	0xbbdf4a9b	-0.0068143136
29	0xbd8291e2	-0.06375481
30	0xbd66f952	-0.056390114
31	0x3d386731	0.045020286
32	0xbc7fb551	-0.015607194
33	0xbaefa11f	-0.0018282271
34	0x3e092887	0.13394366
35	0x3db53da1	0.088496454
36	0xbeac9391	-0.33706334
37	0x3e085fbf	0.13317774
38	0xbdcdc1cd	-0.1004673
39	0xbe1d5422	-0.15364125
40	0xbcd8d5ab	-0.026469072
41	0x3a3ca15c	0.0007195675
42	0xbe4b2b2f	-0.19840692
43	0xbe82c631	-0.25541833
44	0xbea7a347	-0.32741758
45	0x3daeb0c9	0.08529813
46	0xbd653725	-0.055960793
47	0xbdc38774	-0.0954732
48	0x3c8bfb2c	0.017087542
49	0xbccb288c	-0.024799608
50	0xbd0fdde7	-0.035123732
51	0x3e177c4d	0.1479351
52	0x3e07a550	0.13246655
53	0xbdb9da69	-0.090748616
54	0xbcf3ad5d	-0.029745752
55	0xbd2fdf9a	-0.042937852
56	0x3e0a13fd	0.13484187
57	0xbde996ea	-0.11405738
58	0x3b111167	0.0022135617
59	0xbd04f626	-0.032461308
60	0x3d833dfb	0.06408306
61	0xbdc31456	-0.09525363
62	0xbe38cf84	-0.18047911
63	0x3d92183b	0.07133528
64	0xbdab9905	-0.083787955
65	0xbdc8a610	-0.09797299
66	0xbdb55916	-0.088548824
67	0xbd9d550b	-0.07682236
68	0xbe1df08e	-0.15423796
69	0xbe5a8b7b	-0.2134227
70	0xbd96c5d8	-0.073619545
71	0xbe016095	-0.126345
72	0xbd9e94cd	-0.07743225
73	0x3c476b16	0.012171527
74	0x3c999ffd	0.018753046
75	0x3e294efb	0.16534035
76	0x3d5978e8	0.05309382
77	0x3d93483e	0.071915135
78	0xbca0891c	-0.019596629
79	0x3bcc0996	0.0062267287
80	0x3d9d37e9	0.0767668
81	0xbc519759	-0.012792432
82	0xbd8dcee6	-0.06924228
83	0xbe1fe6d4	-0.15615398
84	0xbc2b2404	-0.0104455985
85	0xbe166cfe	-0.14690015
86	0xbdebb6e7	-0.11509495
87	0xbcb2f0bd	-0.021843309
88	0xbd9ac5b6	-0.075572416
89	0x3d604b95	0.05475958
90	0x3d931bb2	0.07183017
91	0xba9a6eca	-0.0011782285
92	0x3c88b585	0.016688118
93	0x3d068087	0.032837417
94	0xbd967f28	-0.07348472
95	0xbe25cb41	-0.16190816
96	0x3e3553de	0.17707774
97	0x3def654e	0.11689244
98	0x3d4a099d	0.049325574
99	0xbd87f10c	-0.06637773
100	0xbd8dabca	-0.06917532
101	0x3d002493	0.03128488
102	0xbca57a12	-0.02019981
103	0x3d76217c	0.060090527
104	0xbd7d679d	-0.06186639
105	0x3cd65120	0.02616173
106	0x3d52d7f0	0.051475465
107	0x3b906a76	0.0044072224
108	0x3e9457f9	0.28973368
109	0x3e23495b	0.15945952
110	0x3da6c5e0	0.081432104
111	0x3e34ea51	0.1766751
112	0xbced7571	-0.028986664
113	0x3d9fc966	0.078020856
114	0x3e0366b5	0.12832148
115	0xbc4deb01	-0.012568236
116	0x3c9b427a	0.018952597
117	0xbe281acb	-0.1641647
118	0xbd0afc24	-0.033931866
119	0xbd4b5a68	-0.049646765
120	0x3e1ca10f	0.15295814
121	0x3e3271c4	0.1742621
122	0x3e71d00b	0.23614518
123	0xbda4ec76	-0.08052914
124	0x3dd30c44	0.10305074
125	0x3df306d5	0.118665375
126	0xbd900254	-0.07031694
127	0xbdd5492d	-0.10414348
128	0xbe5a8479	-0.21339597
129	0x3d463944	0.048394457
130	0x39602ade	0.00021378274
131	0xbe250e29	-0.16118683
132	0xbeafb8d2	-0.34320694
133	0xbdd455d6	-0.103679344
134	0xbd07c561	-0.03314722
135	0xbcfb1cba	-0.030653346
136	0xbd57b448	-0.052662164
137	0xbe37d0a8	-0.1795069
138	0x3db4d9f3	0.08830633
139	0x3c81999a	0.015820313
140	0xbd14bb6c	-0.036311552
141	0x3eaa5b7c	0.33272922
142	0x3dac5a00	0.08415604
143	0xbe861649	-0.26188877
144	0xbdd7fc7c	-0.105462044
145	0xbd9921a8	-0.074771225
146	0xbc51e10b	-0.012810002
147	0xbe869cfb	-0.26291642
148	0xbde30dac	-0.11086592
149	0x3d14cc04	0.036327377
150	0x3dc23ce5	0.09484271
151	0x3df43f2e	0.11926113
152	0x3def8ef0	0.11697185
153	0xbc0b291f	-0.008493691
154	0x3dceb6be	0.10093449
155	0x3e687cd5	0.2270387
156	0xbe02a716	-0.1275905
157	0xbdfc9c21	-0.12334467
158	0xbdcfaf16	-0.10140817
159	0xbd7df5a1	-0.062001828
160	0x3e03c8a9	0.12869515
161	0x3d138d5e	0.03602349
162	0x3da226b9	0.07917542
163	0x3d4942b2	0.04913587
164	0xbd830a87	-0.06398492
165	0x3d4dcd3b	0.05024455
166	0x3cc974c6	0.024591815
167	0x3d144ff4	0.03620906
168	0x3de7b86f	0.11314475
169	0xbd8f9ffa	-0.07012935
170	0xbcd8c1d8	-0.02645962
171	0x3e382584	0.17983061
172	0x3e03ed5b	0.12883513
173	0xbd1e3ba6	-0.038631104
174	0x3dce2ab5	0.100667395
175	0x3b437528	0.002982447
176	0x3d820b2c	0.06349787
177	0xbd67ed90	-0.05662304
178	0xbd680d44	-0.056653276
179	0xbd19e8a5	-0.037575383
180	0xbe4ef4b8	-0.2021054
181	0x3da1b846	0.078964755
182	0x3dc885c0	0.09791136
183	0xbcd045ca	-0.025423903
184	0xbe70cfe8	-0.2351681
185	0x3c0f9303	0.008763078
186	0x3ce0ef95	0.027457992
187	0xbe8ab8f8	-0.27094245
188	0xbca4d380	-0.020120382
189	0xbe214aaa	-0.15751138
190	0x3e599b18	0.2125057
191	0xbc9babc2	-0.019002799
192	0xbe01196c	-0.12607354
193	0xbd7b6222	-0.061372884
194	0x3d448378	0.04797694
195	0xbcbbdf2f	-0.02293357
196	0xbdc40396	-0.095709965
197	0x3d919ccf	0.07109987
198	0x3d3a1c4d	0.045437146
199	0x3e85afe3	0.26110753
200	0x3dea0eb2	0.11428584
201	0xbdb7d7d3	-0.08976712
202	0x3e52d179	0.2058772
203	0xbccce8a3	-0.025013274
204	0xbd4fbd02	-0.05071736
205	0x3e149a43	0.14511971
206	0xbd7ebbe4	-0.062190905
207	0x3c51e414	0.012810726
208	0x3c8b78ec	0.017025433
209	0x3dc1de82	0.09466268
210	0xbcf68d71	-0.030096741
211	0x3c8036d0	0.015651137
212	0x3e341a25	0.17588098
213	0xbe171214	-0.1475299
214	0x3d5ab4d7	0.05339512
215	0x3e2577e7	0.1615902
216	0x3c256188	0.010094054
217	0xbe1d475a	-0.1535925
218	0xbdc894cc	-0.09794006
219	0xbe02e8e9	-0.1278416
220	0xbe63f6ed	-0.22262163
221	0xbe6bf751	-0.23043562
222	0x3dd9a980	0.10628033
223	0xbccf920f	-0.0253382
224	0xbdd6a20e	-0.10480128
225	0xbdd21a2f	-0.102589004
226	0x3cf42b27	0.029805733
227	0x3b400731	0.0029301161
228	0xbdbce5bb	-0.09223505
229	0x3d831005	0.0639954
230	0xbcf3706d	-0.029716695
231	0xbddc95e9	-0.107707806
232	0x3e65e1f3	0.22449474
233	0xbd40fec2	-0.047117956
234	0xbe5cec58	-0.21574533
235	0x3d9318dc	0.07182476
236	0xbdd7e5e4	-0.10541895
237	0xbe1ed155	-0.15509541
238	0x3d698ce1	0.05701912
239	0xbdc7af73	-0.09750261
240	0x3ba69c02	0.0050845155
241	0xbd7b12cb	-0.06129722
242	0xbdca706e	-0.098847255
243	0xbd7fc4b9	-0.06244347
244	0xbe17df99	-0.1483139
245	0x3df3dbac	0.119071335
246	0x3cf8d569	0.0303752
247	0x3d6490b9	0.05580208
248	0x3dac2515	0.0840551
249	0x3d82427d	0.06360338
250	0x3cc0c65f	0.02353209
251	0x3ba2eea8	0.0049722977
252	0x3cdee512	0.027208839
253	0x3c2a1c0f	0.010382666
254	0xbe0d789f	-0.13815545
255	0xbd1aa1c1	-0.037751917

conv2.bias f4 [20]
0	0x3826b3fe	3.9745115e-05
1	0x37aaba88	2.035244e-05
2	0x38bb8f06	8.943495e-05
3	0xb85d49de	-5.27593e-05
4	0x381bd9e8	3.715782e-05
5	0xb7de9668	-2.65345e-05
6	0x38c130e1	9.2120616e-05
7	0x37b073fa	2.103484e-05
8	0xb839f878	-4.433884e-05
9	0xb98ab87c	-0.00026458863
10	0x39255f9c	0.00015771243
11	0x382bae35	4.093182e-05
12	0x378abf40	1.653994e-05
13	0xb837fc0a	-4.386533e-05
14	0xb9378078	-0.00017500098
15	0xb99147a9	-0.00027709946
16	0x3707af7c	8.087485e-06
17	0xb85625b1	-5.105668e-05
18	0xb8f14124	-0.00011503909
19	0x38545b4e	5.0629773e-05

bn2.weight f4 [20]
0	0x3eca3215	0.39491335
1	0x3f0b3d1c	0.5439012
2	0x3ef95cc0	0.48703575
3	0x3ef6d750	0.48211145
4	0x3f377485	0.7166217
5	0x3eee5fd0	0.46557474
6	0x3eeb2e64	0.4593383
7	0x3ee1d6ca	0.44109184
8	0x3eed0bc3	0.46298036
9	0x3ebbd104	0.36682904
10	0x3ed67acb	0.4189056
11	0x3f24fc38	0.64447355
12	0x3eebf3a5	0.46084324
13	0x3edc4d64	0.43027794
14	0x3ecf452a	0.40482455
15	0x3ee7a83c	0.4524554
16	0x3ee71058	0.45129657
17	0x3ec8829c	0.39162147
18	0x3f09d347	0.5383801
19	0x3ef7fdb3	0.48435745

bn2.bias f4 [20]
0	0xbd797e97	-0.06091174
1	0xbe809b23	-0.2511836
2	0xbefc4e1a	-0.49278337
3	0xbe576615	-0.21035035
4	0xbe82f67d	-0.2557868
5	0xbe10884b	-0.14114492
6	0xbe3e4d24	-0.18584114
7	0xbe4ac9e5	-0.19803579
8	0xbef29d49	-0.47385624
9	0xbe04fdca	-0.12987438
10	0xbeba350f	-0.36368605
11	0xbea2187c	-0.31659305
12	0xbe340e62	-0.17583612
13	0xbe35e106	-0.17761621
14	0xbeb44e63	-0.35216054
15	0xbdfe4509	-0.12415511
16	0xbe23aade	-0.1598315
17	0xbe659631	-0.22420575
18	0xbec9e3f5	-0.3943173
19	0xbea052f7	-0.31313297

bn2.running_mean f4 [20]
0	0xbd15e78b	-0.03659777
1	0x3ef7a9d2	0.4837175
2	0xbe4e4a08	-0.20145428
3	0xbeb8e1c6	-0.3610975
4	0xbee72fe1	-0.45153716
5	0x3d61fe38	0.055174083
6	0xbe917c28	-0.28415036
7	0x3dfc89dd	0.12330983
8	0xbf256b86	-0.6461719
9	0xbf862c38	-1.0482244
10	0x3d966fa2	0.07345511
11	0xbf0bd782	-0.54625714
12	0xbec1e1b0	-0.37867498
13	0xbd7a4913	-0.061104845
14	0xbe487e62	-0.19579461
15	0xbe7f2819	-0.2491764
16	0xbf2294fb	-0.63508576
17	0xbf007e7e	-0.5019301
18	0x3d154f26	0.036452435
19	0x3d80d6d8	0.06290978

bn2.running_var f4 [20]
0	0x3e853fd6	0.26025265
1	0x3eab7318	0.33486247
2	0x3e903809	0.2816775
3	0x3e780cde	0.24223658
4	0x3eac4ea7	0.33653757
5	0x3e3c16de	0.18368098
6	0x3e6c5cf9	0.23082341
7	0x3e8bfa6d	0.27339497
8	0x3e214378	0.15748394
9	0x3e782cf0	0.24235892
10	0x3e22ff5c	0.15917724
11	0x3e9549aa	0.29157764
12	0x3e401cd3	0.18760996
13	0x3e5e2b23	0.21696143
14	0x3e18257a	0.14858046
15	0x3e1cc4b1	0.15309407
16	0x3ea0ad24	0.31382096
17	0x3e34a52a	0.1764113
18	0x3e822980	0.25422287
19	0x3e9760c1	0.29566005

fc1.weight f4 [256, 100]
0	0x3d3a9a53	0.04555733
1	0xbc9c2d3f	-0.019064544
2	0x3d5ee8f6	0.054421388
3	0xb9ac2dc5	-0.00032840497
4	0xbc6a87c1	-0.014314593
5	0x3c92df4b	0.01792874
6	0xbcdc2f80	-0.026878119
7	0x3d12d8f2	0.035851426
8	0x3cf80f7e	0.030280825
9	0x3aeebba0	0.0018213876
10	0x3c2c9bf0	0.010535225
11	0x3c55cc2d	0.013049168
12	0x3c84ae5d	0.016196424
13	0xbca19514	-0.019724406
14	0xbc77e96a	-0.015131334
15	0x3d404a33	0.046945762
16	0x3d16bc1d	0.036800493
17	0x3cbc216a	0.022965152
18	0x3cd58f31	0.026069256
19	0x3d08f452	0.033436127
20	0x3cd77561	0.026301088
21	0x3b6f9eec	0.003656323
22	0x3bb886e5	0.005631315
23	0x3d794ab3	0.060862254
24	0x3d313ad7	0.043269005
25	0x3bc00bcc	0.0058607813
26	0x3c34edc3	0.011043015
27	0x3ccac676	0.024752837
28	0x3c3d6323	0.011559281
29	0xbcad89c0	-0.021183848
30	0x3ac7c159	0.0015240117
31	0xbcac33d7	-0.021020813
32	0x3d8bcd69	0.06826288
33	0x3c910517	0.017702622
34	0x3d36da9c	0.044642076
35	0xbb87339e	-0.0041260263
36	0xbcd61e6d	-0.026137555
37	0x3c4ed0f5	0.012623061
38	0xbb9d6925	-0.004803794
39	0xbd9ec871	-0.07753075
40	0xbcb0279c	-0.021503262
41	0xbcb0abf9	-0.021566378
42	0x3d2f44f4	0.04279037
43	0xbd0bbd19	-0.034115884
44	0x3d6d2bb3	0.057903003
45	0xbc819d8b	-0.015822193
46	0xbc9a2f80	-0.018821478
47	0xbb22a1df	-0.002481572
48	0x3c753886	0.0149670895
49	0x3d993565	0.07480887
50	0xbcc58926	-0.024113249
51	0xbcf18bed	-0.029485667
52	0xbd136be5	-0.035991568
53	0xbd6b58cf	-0.05745774
54	0xbd6050f2	-0.054764695
55	0xbbfa974c	-0.0076474305
56	0x3bdc751d	0.006727828
57	0x3cbf1ab9	0.023328172
58	0x3d4ee5ea	0.050512232
59	0x3ce764a1	0.028246226
60	0x3c564401	0.013077737
61	0xb9312e2e	-0.00016897239
62	0x3cd4f577	0.025995953
63	0x3cc3ccdb	0.023901394
64	0x3d844cb9	0.06459946
65	0x3d142c47	0.03617504
66	0x3d0d8f58	0.03456053
67	0x3c6afe57	0.014342866
68	0xbc1f6ec8	-0.009731002
69	0xbba8e859	-0.005154651
70	0x3ba9f9e8	0.005187262
71	0x3c6e21dd	0.014534441
72	0xbd222a55	-0.039591152
73	0xbccb156e	-0.024790492
74	0xbd9d93f7	-0.07694238
75	0x3b3b48c5	0.002857731
76	0x3aa874a7	0.0012852148
77	0x39c74d4e	0.00038013834
78	0x3d57575f	0.052573558
79	0xbc4f5ad5	-0.012655933
80	0x3be4a45e	0.006977602
81	0x3cb67931	0.022274585
82	0xbc8b10d6	-0.016975801
83	0x3d0e4ad3	0.034739327
84	0x3d0b1cff	0.0339632
85	0x3b8f290c	0.004368907
86	0xbc4bf07a	-0.012447471
87	0xbc4c3dfa	-0.012465948
88	0xbc8366fb	-0.016040316
89	0x3d6a13a3	0.057147633
90	0x3a894402	0.0010472538
91	0x3a40e6a2	0.0007358586
92	0x3dbf362f	0.093365066
93	0x3d4b8e06	0.04969599
94	0x3d8fc1d8	0.07019395
95	0x3cf47197	0.02983932
96	0x3cced830	0.02524957
97	0x3bb283f4	0.005447859
98	0x3cd67bc5	0.026182065
99	0xbd3c5f64	-0.04598941
100	0xbd92e758	-0.071730316
101	0xbd9115fe	-0.07084273
102	0x3c460d78	0.012088172
103	0x3d6757f8	0.056480378
104	0xbb9d81bd	-0.004806726
105	0xbde2c076	-0.11071865
106	0xbde7767b	-0.11301895
107	0xbb099e02	-0.002099872
108	0xbd297534	-0.04137154
109	0x3d8e1039	0.06936688
110	0xbde860cf	-0.1134659
111	0xbca20e27	-0.019782139
112	0x3c762561	0.01502356
113	0x3cf11ea4	0.029433556
114	0xbadf1965	-0.0017021118
115	0x3d6b3c68	0.057430655
116	0xbd3ad715	-0.045615274
117	0xbc9f8ebc	-0.01947724
118	0xbc8f66aa	-0.017505009
119	0xbd6e3a15	-0.05816086
120	0x3d551eb4	0.052031234
121	0xbd2c62cc	-0.042086408
122	0xbcb53f82	-0.02212501
123	0x3c0fb25a	0.00877055
124	0x3b6d5866	0.003621602
125	0xbcc008e9	-0.023441749
126	0xbd560876	-0.052254163
127	0xbc171c0d	-0.009222996
128	0x3c43d37d	0.011952278
129	0x3dd50a09	0.10402305
130	0xbd5e1f46	-0.054229043
131	0xbddea8f4	-0.10872069
132	0xbd9dbae3	-0.077016614
133	0x3c82472c	0.015903078
134	0x3d5582a4	0.05212654
135	0xbdb877a2	-0.09007193
136	0xbdcc0599	-0.09962005
137	0x3bee5543	0.0072733476
138	0xbbd836fe	-0.0065983525
139	0x3cf1402f	0.02944955
140	0x3e01bce3	0.12669711
141	0xbc01cd82	-0.007922532
142	0xbd61e304	-0.05514814
143	0xbdd14245	-0.10217718
144	0xbc17adb8	-0.009257726
145	0x3d4d53e6	0.05012884
146	0x3c6b7f68	0.014373638
147	0xbd6673d7	-0.056262817
148	0xbcb7ce26	-0.022437166
149	0xbdd42e9c	-0.103604525
150	0xbde6d1f5	-0.11270515
151	0xbd2116b1	-0.03932828
152	0x3c439b67	0.011938906
153	0xbc92c4da	-0.017916132
154	0xbc1b6804	-0.0094852485
155	0xbd474d40	-0.048657656
156	0xbd9f1f2f	-0.0776962
157	0xbd5fabb5	-0.054607112
158	0xbd15323d	-0.036424864
159	0x3bc079f6	0.005873914
160	0x3b9f389d	0.0048590438
161	0x3c71c496	0.014756342
162	0xbdf9fb47	-0.122061305
163	0xbd4a0a4e	-0.049326234
164	0x3cd98234	0.026551344
165	0xbde08216	-0.10962312
166	0xbdd4a70e	-0.10383426
167	0xbc39f06b	-0.011348824
168	0x3c9a6707	0.018847955
169	0xb914b9d2	-0.00014183603
170	0xbdbb473e	-0.09144448
171	0xbbb80168	-0.005615402
172	0x3d533cdb	0.05157171
173	0x3d93a08b	0.072083555
174	0xbc926d00	-0.01787424
175	0xbd8cc7f7	-0.06874078
176	0xbdac0558	-0.08399457
177	0xbda37ff3	-0.07983389
178	0x3a48c631	0.00076589274
179	0x3d3d2fbb	0.046188097
180	0xbcf7eaba	-0.030263294
181	0xbd5ff8ab	-0.054680508
182	0xbd651527	-0.055928376
183	0xbd8bb670	-0.068219066
184	0x3a5a9e2e	0.00083396106
185	0x3d8aa761	0.06770206
186	0x3d9093b1	0.0705942
187	0x3d063c0f	0.03277212
188	0x3cf2ae17	0.029624028
189	0xbcdfa04a	-0.027298111
190	0xbd9a1f96	-0.07525556
191	0xbddd9401	-0.10819245
192	0xbd4ad649	-0.049520764
193	0xbbd119b8	-0.0063812397
194	0x3dc54cc9	0.09633786
195	0xbdbc8e25	-0.092067994
196	0xbd6b9aa0	-0.05752051
197	0xbd6c4a6d	-0.057688165
198	0x3c8aa08c	0.016922258
199	0x3d2bdd9a	0.041959383
200	0x3d218c9f	0.039440747
201	0x3d6e0941	0.058114294
202	0x3ce20c67	0.027593805
203	0x3d8d5f30	0.06902921
204	0x3bd3dbda	0.0064654173
205	0x3d1baed2	0.03800852
206	0x3d6f192c	0.058373615
207	0xba9785a4	-0.0011560214
208	0x3d01e146	0.031708978
209	0x3aac37a8	0.0013139145
210	0x3dac9b60	0.08428073
211	0x3d0f632f	0.0350067
212	0x3d4e886b	0.050423067
213	0x3c6979b6	0.01425021
214	0x3a058c76	0.00050944777
215	0xbd80d85f	-0.062912695
216	0xbda1a23f	-0.07892274
217	0x3bd7b1c5	0.006582471
218	0xbcd29b12	-0.025708709
219	0x3c2698c5	0.010168259
220	0xbdc0e062	-0.094177976
221	0x3d0bce20	0.034132123
222	0x3cfaab74	0.030599333
223	0xbc148948	-0.0090659335
224	0xbc56cdbf	-0.013110577
225	0x3c664ab5	0.0140558975
226	0x3d23b06c	0.03996317
227	0x3bac0bc0	0.005250424
228	0x3bc9b600	0.0061557293
229	0xbd34dab2	-0.044153877
230	0xbdb129f8	-0.08650583
231	0x3c3b0e57	0.011416993
232	0x3d1e4a86	0.03864529
233	0x3d823d30	0.06359327
234	0xbbce3b73	-0.006293708
235	0x3d358263	0.0443138
236	0x3ceb1062	0.028694335
237	0x3dc7ea5e	0.09761499
238	0x3cb546f4	0.02212856
239	0xbcdafa85	-0.026730785
240	0xbde2a5f6	-0.11066811
241	0xbd84d8f4	-0.06486693
242	0xbb3a69ed	-0.0028444484
243	0xbca877d3	-0.02056495
244	0xbd1091b6	-0.03529521
245	0xbe07406b	-0.13208167
246	0xbdabe0c4	-0.0839248
247	0xbd2050b8	-0.03913948
248	0xbcf22ffe	-0.0295639
249	0x3cf1b3d4	0.029504694
250	0x3d8adb35	0.06780092
251	0x3d0837aa	0.03325621
252	0x3c43c553	0.011948901
253	0x3d8628e8	0.06550771
254	0x3d3023e8	0.043002993
255	0xbca7b0ef	-0.02047011

fc1.bias f4 [256]
0	0xbd020d44	-0.031750932
1	0x3d39719e	0.04527437
2	0x3d2783bb	0.040897112
3	0xb6150c62	-2.2209938e-06
4	0x3ce41389	0.027841346
5	0x3d76060d	0.060064364
6	0x3d5cc971	0.053903047
7	0xbdaebb7c	-0.085318536
8	0x3a8e9580	0.0010878295
9	0xbda123fc	-0.078681916
10	0xbae668d4	-0.0017578849
11	0x3d9e55df	0.07731222
12	0xbbd8b8ef	-0.0066138427
13	0xa7799cac	-3.4640624e-15
14	0x3d6b7cbc	0.057492003
15	0xaddf720e	-2.5402815e-11
16	0xbcb43c44	-0.022001393
17	0xbbd82ea0	-0.006597355
18	0xb20f9817	-8.358277e-09
19	0xb915e2fe	-0.00014294308
20	0x957cda0b	-5.1063e-26
21	0xbd7ea5bb	-0.06216977
22	0xbcd1f145	-0.025627742
23	0xbd7162e5	-0.058932204
24	0xbcef39f1	-0.029202433
25	0xbd3b8826	-0.04578414
26	0xa646291e	-6.8750774e-16
27	0xb9d267fe	-0.00040131802
28	0xbd783cd5	-0.06060489
29	0x3d6cb1a9	0.057786617
30	0x3c90eb0e	0.017690208
31	0x9ded9a37	-6.2892832e-21
32	0x9dd98223	-5.757398e-21
33	0xbce7c651	-0.028292807
34	0xbda14c64	-0.078758985
35	0xb7f6a36e	-2.9401588e-05
36	0x3da90d1a	0.08254452
37	0x3d0d53d0	0.034503758
38	0xbbd16aff	-0.0063909288
39	0xbd9abc6e	-0.07555471
40	0xbc09df6e	-0.008415086
41	0xbb1aae8b	-0.002360257
42	0xb79fcf3e	-1.9050782e-05
43	0x9aa9592a	-7.0040814e-23
44	0xbd54627c	-0.051851735
45	0x3d362d41	0.04447675
46	0x3d880757	0.06642025
47	0x3cf08111	0.029358419
48	0x3d22b4ff	0.039723393
49	0x9db48f8d	-4.779403e-21
50	0xbcb1b9c8	-0.021695033
51	0xb49067c8	-2.68976e-07
52	0xae9894f3	-6.9386184e-11
53	0x3d3ba877	0.045814957
54	0xbafe0768	-0.0019380869
55	0xbda45ac8	-0.08025128
56	0xbd237c1d	-0.039913286
57	0x3d8eb575	0.06968204
58	0x3ca30c9b	0.019903472
59	0xbbe145e6	-0.0068747876
60	0xbd085310	-0.03328234
61	0x3daad9c4	0.08342317
62	0x3d864011	0.065551884
63	0xbd7a6078	-0.061127156
64	0x3d6d9c78	0.05801055
65	0xa1718211	-8.182612e-19
66	0xbd5db7e0	-0.054130435
67	0xbcee1f70	-0.029067725
68	0x3d7eaa9b	0.06217442
69	0xb6eb58bd	-7.0138763e-06
70	0xbd2125b7	-0.03934261
71	0x98a03f70	-4.1423086e-24
72	0x3c0d2422	0.008614572
73	0xbd43f23e	-0.047838442
74	0xbba5d317	-0.0050605643
75	0x3cbe3f22	0.023223463
76	0xb94d1994	-0.00019559852
77	0xbac18bc4	-0.0014766385
78	0xbcbe20fe	-0.023209091
79	0xaf596ae9	-1.9774017e-10
80	0x3b87bf84	0.0041427035
81	0xacffd73d	-7.271432e-12
82	0x3ade9daf	0.0016984249
83	0x3d82bfff	0.063842766
84	0xbcc869fc	-0.0244646
85	0xbddb1f93	-0.10699382
86	0xb88d9947	-6.751954e-05
87	0xbcb2829a	-0.021790791
88	0x3d4d7e1d	0.0501691
89	0xa37488b1	-1.3256212e-17
90	0xbd88d290	-0.066807866
91	0xbd0a47aa	-0.03375975
92	0xb5384268	-6.8641975e-07
93	0x9cac3d0d	-1.1397786e-21
94	0xbd2b7240	-0.041857004
95	0x3c6aa507	0.014321572
96	0xbda3e3bd	-0.08002422
97	0x3cb5611f	0.022141038
98	0x3d90637e	0.07050227
99	0x8e3a7763	-2.2983753e-30
100	0x3c847869	0.016170697
101	0xbd21a931	-0.039467994
102	0xb56ecaec	-8.89572e-07
103	0xbd4c9f8d	-0.049956847
104	0x3c56eb2f	0.013117596
105	0x3d586cdd	0.052838195
106	0xb536857c	-6.799453e-07
107	0xbd25a3d7	-0.040439453
108	0x395c48d4	0.00021007966
109	0xbd999099	-0.07498283
110	0xbb1b3038	-0.0023679864
111	0xbd8ca0f3	-0.06866636
112	0xa6c77180	-1.3839163e-15
113	0xba2b5357	-0.0006535551
114	0xad0f1404	-8.133053e-12
115	0xb68ad28b	-4.137231e-06
116	0xbc915441	-0.01774037
117	0x928c141d	-8.8402e-28
118	0xafc3fb75	-3.5648964e-10
119	0x3c7f2ea2	0.015575083
120	0xbd544286	-0.051821254
121	0xbd5fc70a	-0.054633178
122	0xbcd62d02	-0.026144508
123	0x93b02e5c	-4.447436e-27
124	0xbd8d3b43	-0.06896069
125	0x3d059183	0.032609474
126	0xbdd38a41	-0.10329104
127	0xafe0baad	-4.0878004e-10
128	0xb3346787	-4.2003673e-08
129	0xb68a17fd	-4.115513e-06
130	0x3ca23672	0.019801352
131	0xbd9e418d	-0.077273466
132	0xb98bf074	-0.00026691298
133	0x3cf7e8ff	0.030262468
134	0x3cc0efba	0.02355181
135	0x3d9e37b5	0.07725469
136	0xbb62e3ac	-0.0034620566
137	0xbcf9cbe0	-0.030492723
138	0xbd10fe20	-0.035398602
139	0x3da73feb	0.08166488
140	0xad6682a1	-1.3102992e-11
141	0xbc91d630	-0.017802328
142	0xbc292f87	-0.010326273
143	0xbda69476	-0.081337854
144	0xaa7d0b14	-2.2474758e-13
145	0xbdb95880	-0.09050083
146	0xbcc85404	-0.024454124
147	0xa709a7a9	-1.9103458e-15
148	0xbb18c96d	-0.0023313418
149	0x3d981fc8	0.07427937
150	0xbd41c0ae	-0.047302894
151	0x3cc3e5b8	0.02391325
152	0xbc9894f0	-0.018625706
153	0xbd1a9646	-0.03774097
154	0xbd9297fe	-0.071578965
155	0xbd019e93	-0.03164537
156	0xac642cbe	-3.2425586e-12
157	0x3db18cba	0.086694196
158	0x3d825d5e	0.06365465
159	0xbdb1ed3d	-0.08687828
160	0xbcfeaf6a	-0.031089503
161	0xbcfd66be	-0.03093278
162	0xbcd4cd0c	-0.02597668
163	0xbbaf8966	-0.0053569553
164	0x3d36747a	0.044544674
165	0xbdb968a6	-0.09053163
166	0x3d9dc16c	0.07702908
167	0x3bc1a77c	0.0059098583
168	0x3c15a9d6	0.00913473
169	0xbc825ae5	-0.015912483
170	0xbd929574	-0.07157412
171	0x3d5ecbe6	0.05439367
172	0xbd5973ee	-0.053089075
173	0x3bb214ee	0.005434624
174	0xb91964cf	-0.00014628771
175	0xaf9f3cba	-2.896508e-10
176	0xbd0cabba	-0.03434346
177	0xbd0eeaee	-0.034892015
178	0xb9502620	-0.00019850628
179	0xbd4af446	-0.049549364
180	0x3c963d86	0.018339884
181	0x3d0fd1cc	0.035112187
182	0xbd1a9f41	-0.037749533
183	0xbd34fb6a	-0.04418508
184	0xbaa932a7	-0.0012908772
185	0xbcc6ef11	-0.024283918
186	0xbc5efc4d	-0.013609958
187	0xbc2ab570	-0.010419235
188	0x3c74d768	0.014943935
189	0x3caf6f87	0.021415485
190	0x3cfb9829	0.030712204
191	0xbd2a79dc	-0.04162012
192	0xbd5dc403	-0.05414201
193	0xadf872a1	-2.8245241e-11
194	0x3cfc500a	0.030799884
195	0x3d79d6dc	0.06099592
196	0xb016fffb	-5.493345e-10
197	0x9e4012a8	-1.0168253e-20
198	0xbbab1c1b	-0.0052218563
199	0xb786aca2	-1.6054433e-05
200	0xa40c431b	-3.04145e-17
201	0x3b8d13f9	0.0043053594
202	0xbcf1f29c	-0.02953463
203	0xbcbde57e	-0.02318072
204	0x97d8799f	-1.3989374e-24
205	0xbd2274de	-0.039662234
206	0xbd3b447c	-0.04571961
207	0xbd54b175	-0.05192705
208	0xba2d2e40	-0.0006606318
209	0x3d40df08	0.0470877
210	0xba0d0828	-0.00053799385
211	0xaa1320cc	-1.3067601e-13
212	0x9b139b05	-1.2209645e-22
213	0xa256abb8	-2.9093315e-18
214	0xbd5d57b5	-0.054038722
215	0x3d06e658	0.032934517
216	0x3d92acb0	0.07161844
217	0xbc5ba576	-0.013406148
218	0x3d1b282d	0.03788011
219	0xa94e67b0	-4.5831123e-14
220	0x3d0763e1	0.033054236
221	0xa1ef72f9	-1.6225703e-18
222	0xbd3fcde4	-0.046827212
223	0xbccea4c4	-0.02522505
224	0xb8dcb5fa	-0.00010524313
225	0xbe022d37	-0.1271256
226	0xb9c9a29b	-0.00038458858
227	0xbd8c67b6	-0.06855719
228	0xbc076ccc	-0.008265685
229	0x3ae1222f	0.0017176325
230	0x3d8569b1	0.065143
231	0xac162f88	-2.1342667e-12
232	0xbb8b2875	-0.004246766
233	0xbbbde8fd	-0.0057955966
234	0xbcdb36eb	-0.026759585
235	0x3d42f203	0.04759408
236	0xbd1f033b	-0.03882144
237	0xbb90138a	-0.0043968605
238	0xb9403e60	-0.00018333783
239	0x3d0f8399	0.03503761
240	0xbd0a40c2	-0.033753164
241	0xbcc299f6	-0.023755055
242	0xbbd33d90	-0.006446548
243	0x3cae51ea	0.021279294
244	0xb45ab98f	-2.0370338e-07
245	0xba149a5e	-0.00056687545
246	0x9fc32772	-8.265097e-20
247	0xbd7dc274	-0.061953023
248	0xa52d6e9a	-1.5042831e-16
249	0xbc828b43	-0.015935546
250	0xbb48815d	-0.0030594685
251	0x3d5141b0	0.051088035
252	0xbd9743a1	-0.07385946
253	0xbc3f00e0	-0.011657923
254	0xbd1cdb57	-0.038295116
255	0x3ca462bf	0.020066617

fc2.weight f4 [120, 256]
0	0xbc709441	-0.014683784
1	0x3d7413df	0.059589263
2	0xbcad3b0a	-0.021146316
3	0x00078485	6.90388e-40
4	0xbd59ad90	-0.053144038
5	0xbb09e29d	-0.0021039613
6	0x3cede445	0.029039511
7	0xbc9ac83d	-0.01889431
8	0xbbd0cfa1	-0.0063724075
9	0x3baa1456	0.0051904125
10	0xbca5a65e	-0.020220932
11	0x3cfc426b	0.03079339
12	0x3d20b53f	0.03923535
13	0x80085b47	-7.67428e-40
14	0x3d5e0041	0.05419946
15	0x8017097a	-2.115616e-39
16	0xbc057436	-0.008145383
17	0xbd1b5dbe	-0.037931196
18	0x801034b3	-1.488273e-39
19	0x8898cf8a	-9.196959e-34
20	0x801a5b4a	-2.420471e-39
21	0xbbb6753c	-0.0055681746
22	0x3cc6b836	0.02425776
23	0xbc80ae60	-0.015708148
24	0xbd1dc12a	-0.038514294
25	0xbc38385d	-0.011243907
26	0x0001188d	1.00643e-40
27	0x921a35f8	-4.8660353e-28
28	0xbd46c24f	-0.04852515
29	0x3d963469	0.07334215
30	0xbc136f60	-0.008998722
31	0x00140d84	1.841558e-39
32	0x80194ed8	-2.324171e-39
33	0xbd4c4bb0	-0.04987687
34	0xbba2481e	-0.0049524447
35	0x8045f175	-6.423268e-39
36	0x3da8f683	0.082501434
37	0xbd08a0a2	-0.033356316
38	0x306ec068	8.685732e-10
39	0xbbf48ebd	-0.007463305
40	0xb0915c7b	-1.0576423e-09
41	0x36516a07	3.1205143e-06
42	0x9110de14	-1.142803e-28
43	0x001eb7e3	2.821031e-39
44	0x3d6ad238	0.057329386
45	0x3beb9e25	0.007190483
46	0xbd5e8ede	-0.054335468
47	0xbc9d956a	-0.019236285
48	0x3d4ec027	0.05047622
49	0x001a9d17	2.444076e-39
50	0xb89bb697	-7.424986e-05
51	0x001a16b7	2.395871e-39
52	0x801b0f0b	-2.484955e-39
53	0xbc5a707e	-0.013332484
54	0xad9c705a	-1.778504e-11
55	0xbb1359fc	-0.0022484055
56	0x3c0f0588	0.008729346
57	0xbc3c90ad	-0.011509103
58	0xbd7cc605	-0.061712284
59	0xbbf23976	-0.007392104
60	0x39948531	0.00028327995
61	0x3d0b2bc0	0.03397727
62	0x3d08bb80	0.03338194
63	0x3c9ad475	0.018900136
64	0x3dbecbc1	0.09316207
65	0x801b8314	-2.52658e-39
66	0xbd031e29	-0.032011185
67	0x379011fc	1.7174512e-05
68	0x3d7f2592	0.06229169
69	0x121c46af	4.9312045e-28
70	0xbcf3aa13	-0.029744184
71	0x800c7f70	-1.147742e-39
72	0x3aa94538	0.0012914306
73	0xbae88dcb	-0.0017742453
74	0xadfdcf47	-2.885482e-11
75	0xbc25a409	-0.01010991
76	0x24be7fbe	8.261577e-17
77	0xbc3e050f	-0.011597886
78	0xbafbbca3	-0.0019205998
79	0x8013b3c0	-1.809357e-39
80	0xbd38ad19	-0.045086954
81	0x8006762b	-5.93404e-40
82	0xbc898521	-0.016787114
83	0x3d670b51	0.056407277
84	0xba592de3	-0.0008284731
85	0xbc025583	-0.007954958
86	0xac92e8cd	-4.1754157e-12
87	0xbd1823fc	-0.037143692
88	0x3d054b10	0.03254229
89	0x07648178	1.7190861e-34
90	0xbb52907c	-0.0032129576
91	0xbd3d6e3e	-0.046247713
92	0x800ccfe0	-1.176597e-39
93	0x19d39aac	2.187936e-23
94	0xbb86f71d	-0.0041188137
95	0x3cff6406	0.031175625
96	0xbcf0d28c	-0.029397272
97	0xbd2c769c	-0.042105302
98	0x3d9acbc7	0.07558399
99	0x0c0486c1	1.0209461e-31
100	0xbcf19c61	-0.029493513
101	0x3d25d472	0.040485807
102	0x0024577c	3.337461e-39
103	0xbcc5c730	-0.024142832
104	0xbcd4c84b	-0.025974413
105	0x3d6f76f0	0.058463037
106	0x304ccbb4	7.4504247e-10
107	0xb997df6b	-0.00028967424
108	0x3ae2b491	0.0017296245
109	0xbcd55b20	-0.026044428
110	0x35027909	4.8604903e-07
111	0xbd054cb6	-0.03254386
112	0x800bb99b	-1.076773e-39
113	0xaa735aef	-2.1614285e-13
114	0x9a264d76	-3.4390568e-23
115	0x0003b586	3.40625e-40
116	0xbd7a86f8	-0.061163872
117	0x800bd371	-1.086041e-39
118	0x800bddcc	-1.089756e-39
119	0xbcda2c6a	-0.026632506
120	0xba0189d4	-0.00049414975
121	0xbce35837	-0.027752025
122	0xbd87d50b	-0.066324316
123	0x00162f93	2.037447e-39
124	0xbc622523	-0.013802799
125	0xbd062a50	-0.032755196
126	0xbd0dab8d	-0.03458743
127	0x80424cde	-6.088717e-39
128	0x143ec461	9.6312775e-27
129	0x99851104	-1.375875e-23
130	0x3d4ced80	0.050031185
131	0x3d24d9bc	0.04024671
132	0x99823781	-1.3464103e-23
133	0x3dc27ea3	0.0949681
134	0xbce5de14	-0.028059997
135	0xbc18fdbb	-0.009337838
136	0x382f385d	4.1775744e-05
137	0xbd343c52	-0.04400284
138	0x35da266a	1.6253446e-06
139	0x3d62748f	0.05528694
140	0x00149edb	1.893697e-39
141	0xb58a31df	-1.0296316e-06
142	0xbd140166	-0.036134146
143	0xbd344165	-0.044007678
144	0x000f10d0	1.383564e-39
145	0x3cbb7a1d	0.022885377
146	0xbc499bb5	-0.01230519
147	0x00266692	3.526544e-39
148	0xb320e6ea	-3.7462918e-08
149	0x3dbc4fe1	0.09194923
150	0xbc271a40	-0.01019913
151	0xbc8ca5c8	-0.017168894
152	0xbcf13c78	-0.029447779
153	0xbc9e8069	-0.01934834
154	0x3d4f3699	0.050589178
155	0xbc4eba35	-0.012617637
156	0x004258cd	6.092998e-39
157	0x3d24acbf	0.040203806
158	0x3d0a9dcd	0.033841897
159	0x3c0b7670	0.008512124
160	0xba1307a0	-0.0005608741
161	0x378b3103	1.6592914e-05
162	0xbc9e0bf1	-0.019292803
163	0xbd6b7f40	-0.057494402
164	0x3ca2bba2	0.01986486
165	0xbc8848ba	-0.016636241
166	0x3d85ead1	0.06538928
167	0xbc0af34c	-0.008480858
168	0xbd1db3f9	-0.038501713
169	0xbd4f9fbe	-0.05068945
170	0xbd1baa47	-0.038004186
171	0x3c898307	0.016786112
172	0xbcbc1e95	-0.022963801
173	0xbd545264	-0.051836386
174	0x20098428	1.1648078e-19
175	0x801904af	-2.297568e-39
176	0xbaa1bf6e	-0.0012340376
177	0xbd0b06b5	-0.033941943
178	0x16139098	1.1920191e-25
179	0xbc22cfb8	-0.009937219
180	0x3d1f54b7	0.03889915
181	0xbd787d94	-0.060666636
182	0xbd6cb26d	-0.057787348
183	0x3b392cef	0.0028255542
184	0x30c758fd	1.4504448e-09
185	0x3b370d08	0.0027931351
186	0xbb679d31	-0.0035341496
187	0x2f30d4fb	1.6082773e-10
188	0xbd496d03	-0.049176227
189	0xbd1bcfd0	-0.038039982
190	0x3b265130	0.0025377981
191	0xbbd236cc	-0.0064152237
192	0xbb5134fc	-0.003192245
193	0x8016c718	-2.091802e-39
194	0x3d0be3e5	0.034152884
195	0x3ce6641e	0.028123911
196	0x80221cf5	-3.132795e-39
197	0x0010ac2a	1.531129e-39
198	0xbcbca926	-0.023029875
199	0x97cf6168	-1.340165e-24
200	0x0023c7e3	3.285948e-39
201	0x3cf0c710	0.029391795
202	0xbb1a884e	-0.002357978
203	0xbc9abcf6	-0.018888932
204	0x80143c08	-1.858245e-39
205	0xbc1f64d7	-0.009728632
206	0xbb44d741	-0.0030035528
207	0xbb0c2980	-0.002138704
208	0xbd2c7234	-0.0421011
209	0x3d86e4b6	0.06586592
210	0x2c385efc	2.62007e-12
211	0xa9721408	-5.375217e-14
212	0x19e8880a	2.4043184e-23
213	0x80255bcf	-3.430848e-39
214	0x3aee94d7	0.0018202317
215	0xbd32c0f9	-0.043641064
216	0x3c8fc9b5	0.017552236
217	0xbd1ca99a	-0.038247682
218	0x3d253f54	0.040343598
219	0x001de0cf	2.743876e-39
220	0x3d0a1dc8	0.033719808
221	0x801e9569	-2.808663e-39
222	0xbccba160	-0.024857223
223	0xbc057cfb	-0.008147473
224	0x89b87b36	-4.4412256e-33
225	0xbc818b6d	-0.015813554
226	0x1d668a88	3.0511866e-21
227	0xbbd93c49	-0.006629501
228	0xbd08b40d	-0.033374835
229	0xbc455023	-0.012043032
230	0x3b8c449f	0.004280641
231	0x908e8210	-5.620952e-29
232	0xb3ddc2cf	-1.032655e-07
233	0xbc97ad8e	-0.018515375
234	0xbd497e72	-0.049192853
235	0x3d2730a0	0.040817857
236	0xbd1136c5	-0.035452623
237	0x3aee3a48	0.0018175328
238	0x8d102a75	-4.442453e-31
239	0xbcf4ecf1	-0.029898139
240	0xbc76dc56	-0.015067181
241	0x37bb27e2	2.2310709e-05
242	0x388447dc	6.307635e-05
243	0xbd446879	-0.047951195
244	0x00116e1d	1.600705e-39
245	0x2c98e9aa	4.3460418e-12
246	0x1fb7dfde	7.787387e-20
247	0xbad93f76	-0.0016574699
248	0x22483e94	2.7138183e-18
249	0x390b2877	0.00013271147
250	0xbb56976b	-0.003274406
251	0x3cd87573	0.026423192
252	0xbd1d43db	-0.03839479
253	0xbd056cc5	-0.032574434
254	0xbcae7435	-0.021295646
255	0xbc8ad722	-0.016948286

fc2.bias f4 [120]
0	0x3e099b11	0.1343806
1	0x3e039c8c	0.12852687
2	0x3db07ba4	0.086173326
3	0xbc268d2d	-0.010165495
4	0x3e04358d	0.12911053
5	0x3dc40df2	0.09572972
6	0xb44ce477	-1.9082096e-07
7	0x3d93dc89	0.07219798
8	0x3d9c535a	0.076330855
9	0x3dbd0ee5	0.092313565
10	0x3d8893f3	0.06668844
11	0x3dcd78ba	0.100327924
12	0x3de3396e	0.11094938
13	0x3dc49187	0.0959807
14	0x3db44a66	0.08803253
15	0x3d799ef7	0.060942616
16	0x3dab193c	0.083544225
17	0x3d7b4f1a	0.061354734
18	0x3dedd30e	0.11612521
19	0x3d782ea5	0.06059136
20	0x3ddf6f7f	0.10909938
21	0x3daeb307	0.085302405
22	0x3dfab002	0.12240602
23	0x3daf5238	0.08560604
24	0x3d309cb5	0.043118197
25	0x3d23459d	0.03986131
26	0x3dcb369a	0.09922524
27	0x3da0c662	0.078503385
28	0x3dc0020f	0.09375393
29	0x3dc90687	0.09815698
30	0x3d8196e9	0.06327612
31	0x3d33ebaa	0.04392592
32	0x3dd23d51	0.102656014
33	0x3de43727	0.11143332
34	0x3ddff41a	0.109352306
35	0x3db4f33f	0.08835458
36	0x3da42e6e	0.08016668
37	0x3da2a551	0.07941688
38	0x3dc97bb0	0.09838045
39	0x3da0d5b3	0.0785326
40	0x3dc6031a	0.0966856
41	0x3d9a0e00	0.075222015
42	0x3dc5e057	0.0966193
43	0x3de30481	0.110848434
44	0x3dda061f	0.10645699
45	0x3d7fdb63	0.062465083
46	0x3de9fd96	0.11425321
47	0x3ddd5d45	0.108088054
48	0x3d61f69e	0.055166833
49	0x3db48599	0.08814544
50	0x3d552482	0.05203677
51	0x3dcdda06	0.1005135
52	0x3d98d668	0.0746277
53	0x3db7293e	0.08943413
54	0x3e02419d	0.12720342
55	0xb9155371	-0.00014240832
56	0x3d9f20f0	0.07769954
57	0x3da73372	0.08164109
58	0x3da5bc57	0.080925636
59	0x3d820ec3	0.06350472
60	0x3db31ae1	0.08745361
61	0x3df68b91	0.12038339
62	0x3d875613	0.06608214
63	0x3d9e33bb	0.077247106
64	0x3da4cdc2	0.08047058
65	0x3d83f0f1	0.0644244
66	0xb179ff54	-3.6379406e-09
67	0x3d9bb4dd	0.07602856
68	0x3de89c77	0.11357968
69	0x3db1134b	0.08646258
70	0x3de62c38	0.11238903
71	0x3d98bc10	0.07457745
72	0x3da2e9d9	0.07954759
73	0x3db90834	0.09034768
74	0xb41e0ff5	-1.4720702e-07
75	0x3dbe33c5	0.09287218
76	0x3dab2e27	0.08358412
77	0x3de37fc0	0.11108351
78	0x3db59c5f	0.08867716
79	0x3de974b4	0.113992125
80	0x3da47fd2	0.08032192
81	0x3db95553	0.090494774
82	0x3db3e87a	0.08784576
83	0x3e27d6f1	0.16390587
84	0x3dacb4ba	0.08432908
85	0x3dab348e	0.083596334
86	0x3e170f96	0.1475204
87	0x3d871927	0.06596594
88	0x3ddfadd5	0.10921828
89	0x3db369d1	0.08760417
90	0x3dfc8599	0.12330169
91	0x3ddf7541	0.10911036
92	0x3de83bd8	0.11339539
93	0x3db6bdf1	0.08922947
94	0x3de47646	0.11155371
95	0x3dbcfe51	0.092281945
96	0xb02ad96e	-6.2154626e-10
97	0x3d9975cd	0.07493172
98	0x3dd42e96	0.10360448
99	0x3d6d70aa	0.057968773
100	0x3dfb91df	0.12283682
101	0x3da0473b	0.07826086
102	0x3a5e1398	0.00084715476
103	0x3dd32cdc	0.103112906
104	0x3da08041	0.078369625
105	0x3d878246	0.066166446
106	0x3dd4085f	0.10353159
107	0x3dcfb4b4	0.10141888
108	0x3d1e4da2	0.038648255
109	0x3dafbc3e	0.08580826
110	0x3dc840a2	0.09777953
111	0x3cccb951	0.02499071
112	0xbc49ad79	-0.0123094255
113	0x3de8aaf3	0.11360731
114	0x3d9833c0	0.074317455
115	0x3dc35c45	0.095390834
116	0x3dc0f6c3	0.09422066
117	0x3da9dd4b	0.082941614
118	0x3dcf70b2	0.10128917
119	0x3dc8fe85	0.09814171

fc3.weight f4 [1, 120]
0	0x3e809dbe	0.25120348
1	0x3e6db86c	0.23214883
2	0x3e6fe1dc	0.23426002
3	0x3ab8b4dc	0.0014091986
4	0x3e5557f2	0.2083433
5	0xbe0c8171	-0.13721253
6	0xba73d68a	-0.0009301683
7	0xbdbd2458	-0.09235448
8	0xbe0f4dc9	-0.13994516
9	0x3e561063	0.20904689
10	0xbd906b3c	-0.07051703
11	0xbdfaa284	-0.12238029
12	0xbe079e80	-0.13244057
13	0x3e43b66c	0.19112557
14	0x3e5bb1bb	0.21454518
15	0xbdfa52e6	-0.12222843
16	0x3e577b7a	0.21043196
17	0xbdcb372d	-0.09922633
18	0x3e451f65	0.19250257
19	0x3dfc87d8	0.12330598
20	0xbe00fd51	-0.12596633
21	0xbde3e125	-0.11126927
22	0x3e4e4021	0.2014165
23	0xbe12494b	-0.14285772
24	0xbd85a75c	-0.06526062
25	0xbde6c73f	-0.11268472
26	0x3e71e911	0.23624064
27	0xbdcdb085	-0.10043434
28	0xbdccc43d	-0.09998367
29	0xbe19dc79	-0.1502551
30	0xbdc8441a	-0.09778614
31	0xbdb23aa5	-0.08702592
32	0x3e3b3af8	0.18284214
33	0x3e9571e3	0.2918845
34	0xbe06061d	-0.1308827
35	0x3e382049	0.17981066
36	0xbe166f19	-0.14690818
37	0xbde497c9	-0.11161763
38	0xbe10ca59	-0.1413969
39	0xbe0f5370	-0.13996673
40	0x3e6f87a7	0.23391591
41	0xbe026053	-0.12732057
42	0x3e6c7dc5	0.23094852
43	0x3e61532a	0.22004381
44	0x3e52fbcd	0.20603867
45	0xbdbbe6e0	-0.09174895
46	0x3e682ab6	0.22672543
47	0xbdee073c	-0.116224736
48	0xbddffe46	-0.10937171
49	0xbe0960fe	-0.13415906
50	0xbd88ca2b	-0.066791855
51	0xbe07048f	-0.13185333
52	0x3e3ecc69	0.18632664
53	0xbdd95a87	-0.1061297
54	0x3e6b821b	0.2299885
55	0x3b945c42	0.0045275996
56	0xbdc5c5c1	-0.09656859
57	0xbded9912	-0.116014615
58	0xbe1a0c71	-0.15043809
59	0xbdf40140	-0.11914301
60	0xbdea4774	-0.1143941
61	0xbe12094d	-0.1426136
62	0xbdddc3ae	-0.108283386
63	0xbe0937e8	-0.13400233
64	0xbd9f5256	-0.07779376
65	0xbdfef57e	-0.12449168
66	0xb2fdcdee	-2.9546722e-08
67	0xbdfaffc2	-0.12255813
68	0xbe254863	-0.16140895
69	0xbdef207c	-0.11676118
70	0xbe04c83a	-0.12967005
71	0xbdd0cdfe	-0.1019554
72	0xbe17d5df	-0.14827679
73	0x3e6f9474	0.23396474
74	0x39d0a4a8	0.0003979553
75	0xbe16e629	-0.14736237
76	0xbdd01300	-0.10159874
77	0x3e77a427	0.24183713
78	0xbe077669	-0.13228764
79	0x3e77dae1	0.2420459
80	0xbdfc85ab	-0.12330183
81	0xbe07f362	-0.13276437
82	0x3e4d934b	0.20075719
83	0x3e6d3240	0.231637
84	0xbdfac8a3	-0.122453
85	0xbe2700d9	-0.16308917
86	0x3e62dfaa	0.22155634
87	0xbe10fa2f	-0.14157937
88	0xbe10fc52	-0.14158753
89	0xbe200c21	-0.15629627
90	0x3e853559	0.26017264
91	0x3e62e5a5	0.22157915
92	0x3e5ae541	0.21376516
93	0xbde4c78b	-0.11170872
94	0xbdc17952	-0.09446968
95	0xbe021a5e	-0.12705371
96	0xb8f49466	-0.00011662468
97	0xbe1015ce	-0.14070818
98	0x3e5b59dc	0.21420997
99	0xbdc9e22c	-0.09857592
100	0xbe1cb02c	-0.15301579
101	0xbdf365a7	-0.11884623
102	0xb8901497	-6.87029e-05
103	0x3e52f2d8	0.2060045
104	0xbe2c326c	-0.1681611
105	0xbdbcb4b0	-0.09214151
106	0x3e5d58e7	0.21615945
107	0x3e50dbf7	0.2039641
108	0xbdd7117a	-0.1050138
109	0xbe26cf92	-0.1629012
110	0x3e6a4c16	0.22880587
111	0xbd6b9a0b	-0.057519954
112	0xbd356a9b	-0.04429112
113	0x3e6e8d03	0.23295979
114	0x3e404a72	0.18778399
115	0x3e37efd8	0.17962587
116	0xbdf0123b	-0.11722227
117	0xbdf875fe	-0.1213188
118	0xbde929b0	-0.113849044
119	0xbe173062	-0.1476455
