k_fold_model_1/model3.pt (torch, 242935 bytes, 17 tensors)

conv1.weight f4 [10, 1, 15, 3]
00000000: 7adf 14bd 6976 123d 3f9b 46bd 3537 9ebd
00000010: 773c 65bd 0b9b 213e 3f53 8ebd 887d 2e3b
00000020: c926 553d a663 063e 445f 943d ebcc 2e3e
00000030: c59e 8cbd 4023 95bc a85a 34bd 85cd ecbc
00000040: 75b2 21be 69e8 28be d81d fb3d 571c ae3c
00000050: accc f7bc 78ad 463f fbe8 8a3d 682e c13e
00000060: 3919 e23e 40dd a0bc 2eb7 4d3e a3ff 2fbe
00000070: 9705 29be fb19 1cbd 990d d2bd 3acb b1bd
00000080: 67be 90be 83c3 eb3b 3fe1 8fbd 77d6 34bc
00000090: a825 933d 798a 5b3e 5e54 203e e360 d8bd
000000a0: 74b5 30be 75b2 0abe 6e8e 6b3d 9f49 3fbb
000000b0: b6ec 58bb 29c4 f93d 6108 903d 69f0 873d
000000c0: 0e88 f73d 95e0 f5bd 8ebc 34bd 96c4 c7bd
000000d0: 5826 61bd 2777 c63c bc27 07bd 8798 ac3d
000000e0: 84dd 70bd b7d9 693e c0b0 68bb 1ed4 5b3e
000000f0: 4c83 ceba 6dae 2b3d 9061 34bd d9de f4bd
00000100: e453 89bd 1b6f 6b3d e2d8 113e 1967 b7bd
00000110: 04f3 033d 1d55 2c3e 7a26 f93d 7899 2dbd
00000120: 90e5 1cbe 601d 41be 86d7 92bc a69b 3b3d
00000130: eaff 1c3d 9bc8 73be 72a8 23be 5441 9c3d
00000140: 719b a4be 7596 3fbd 1bb2 313e 912e 393e
00000150: 4f88 bfbe c4f9 39be a096 b73e 4d4e d8bd
00000160: 2c8a 923e 9fb0 be3e 8693 13be 68fc 83bd
00000170: 501f 003e a0e1 45bc a2ca 11be 98e7 b13e
00000180: af94 443d f478 8fbe f4fa bdbc ce2d e5bd
00000190: c28b 27be 68fd 2f3e f658 3fbd aa72 0cbd
000001a0: 86d0 06be 6821 023e 8739 263e 2dd8 fa3c
000001b0: bbff 323e 0b44 e03d 3676 98bd 3ac2 35bd
000001c0: 07fe 9d3d ad7e b3be dc3c 03be 47f8 823e
000001d0: 0935 a2be 565a 4bbd 84cd 513e 35b5 90bd
000001e0: 0f95 343d 3ab6 a83d 450c 2cbd e3ca 2a3d
000001f0: 4a50 cc3d c4e8 32be 39d9 1b3e c9c2 e93d
00000200: 885b b5bc 1b9b a23d d929 b1bd ad62 c0be
00000210: 1d6f 94be 7796 dc3d f53f d3bd 482a 113e
00000220: c394 843e a159 24be 8770 c53c 10e8 933e
00000230: 1e55 ccbd c058 6dbd 60e7 3dbe bd93 463d
00000240: e415 0a3e 43f6 f13d 1849 bf3d ae32 513d
00000250: e67d d83d 7b03 cabd 6e81 00bd 1799 fc3d
00000260: b708 33bd 423f 49be 7a26 6e3d e110 923e
00000270: 7a02 b4bd 65b8 6ebe 1669 4fbe 07ab 48bd
00000280: 8359 36bb a182 32bd 0ea2 053d 12e2 3b3e
00000290: 1408 dabd 0abb b23e 64e5 583e 6535 84be
000002a0: d68a e63d 6414 14bd 5819 00be f43d 033d
000002b0: 5e14 a63c 3adf 45be 046a 783c 45d8 79be
000002c0: 4e57 e03d 51fa 4bbe 5665 6ebe 1fb5 0c3d
000002d0: 0a43 d03e c80f a4be d6ef 04bb 1935 eabc
000002e0: 2a3b ce3d 5123 483d 400e e1bd cabd 263e
000002f0: 19c5 063d faee 593d 518e e43d 7316 93bd
00000300: 6a25 71bd 303d 4f3d ed89 90be 31ff 97bc
00000310: 5bab 063e f7f7 843d 8585 04be abf2 e53d
00000320: b8bc 33bd 0d8f 073e 2849 2ebd d94e 913d
00000330: 78ff 8cbd 26c2 23be 066b 863d 06bc 15bd
00000340: 0bc7 9fbd 2e49 283e 5ae8 27bc 1699 89bd
00000350: bc84 3fbe 6466 3d3e d0cf 1c3e 039f 743e
00000360: 472e 13be 0581 66be e6fc 16be 17a2 61bd
00000370: 06f5 a1be 798c da3d da21 153f 1f3f 37be
00000380: 581e c33e 49f7 973e f305 0b3c e5c8 e5bd
00000390: b0af 783c d395 51bd b4b1 28bd 296c 3d3e
000003a0: cee4 5abb 6a9a d23d f40e 0ebe 5b7b 61be
000003b0: 91fc a13d 5aef 873e 93a8 3abc 65b1 7c3d
000003c0: 5a3c 7abd 81c7 99bd 4aaf 193d 31a7 e03c
000003d0: e8fb 19be ae3c 62bd 502f 853d 6a5d aa3d
000003e0: 422a 2a3e 3787 163d 567c 393d c070 b5bd
000003f0: 35a5 e8bb cf1c 8dbd c300 18be 5fe9 6dbe
-0.036345936 0.035757456 -0.048487898 -0.07725374 -0.055965867 0.157818 -0.06949472 0.0026625115
0.05203894 0.1312395 0.07244733 0.17070358 -0.068662204 -0.018205285 -0.04403177 -0.028906593
-0.15790732 -0.16494907 0.122615516 0.021253748 -0.030248962 0.7760844 0.06782719 0.37730718
0.44159868 -0.01963675 0.20089409 -0.17187361 -0.16506039 -0.038110714 -0.102565 -0.086813405
-0.28270265 0.0071949377 -0.07025384 -0.0110374605 0.07184917 0.21439542 0.15657184 -0.10565355
-0.17256719 -0.13544638 0.05750888 -0.0029188169 -0.0033100075 0.12195618 0.07032848 0.066376515
0.12086497 -0.12005726 -0.044125132 -0.09754293 -0.054968208 0.024226738 -0.032996878 0.0842753
-0.058805004 0.22836958 -0.0035505742 0.21467635 -0.0015755682 0.041914392 -0.044038355 -0.11956567
-0.06705454 0.057479005 0.1424289 -0.08955211 0.03221418 0.16829343 0.12165542 -0.042382687
-0.15321946 -0.18858862 -0.017925035 0.045802735 0.038329996 -0.23806994 -0.15982226 0.07629648
-0.32149842 -0.046774346 0.17353098 0.1808417 -0.37408683 -0.18161684 0.35857105 -0.1056181
0.28621042 0.37244126 -0.14411744 -0.06444627 0.12511945 -0.012077719 -0.14237455 0.34747005
0.04799336 -0.28021967 -0.023190953 -0.11190377 -0.16361907 0.1718651 -0.0467157 -0.03428904
-0.13165483 0.12708056 0.16232882 0.030620659 0.17480366 0.10950478 -0.07444422 -0.044374682
0.077144675 -0.35057583 -0.12816185 0.25580046 -0.31681088 -0.049646698 0.20488554 -0.070658125
0.044087466 0.08237882 -0.04200389 0.041697394 0.099762514 -0.17471606 0.15219583 0.114141054
-0.022138372 0.0793974 -0.0865056 -0.37575284 -0.28991023 0.107708864 -0.10314933 0.14176285
0.25894746 -0.16049816 0.024101509 0.28887987 -0.09977172 -0.057945967 -0.18545294 0.048480738
0.13484913 0.11814549 0.093401134 0.051073723 0.10570888 -0.09863945 -0.031373434 0.12333887
-0.043709483 -0.19653037 0.058142163 0.28528503 -0.08789535 -0.23312528 -0.20254931 -0.04899123
-0.002782435 -0.04358161 0.03262525 0.18347958 -0.10646072 0.34908324 0.21181256 -0.25821987
0.112569496 -0.03615226 -0.12509668 0.032041505 0.020273384 -0.19323435 0.015161995 -0.24398907
0.10954152 -0.19919707 -0.23280844 0.034352418 0.40676147 -0.3204329 -0.0020284555 -0.028589772
0.100698784 0.048861805 -0.10989046 0.16283336 0.03290281 0.05320642 0.11159957 -0.07182016
-0.05887357 0.050595462 -0.2823023 -0.018554302 0.13151304 0.06492608 -0.12941559 0.11227926
-0.043881148 0.13238163 -0.042550236 0.07095117 -0.06884664 -0.1599203 0.06563382 -0.036556266
-0.07801636 0.16434166 -0.010248268 -0.06718652 -0.18702978 0.1849609 0.15313649 0.23888783
-0.14373122 -0.22510155 -0.1474491 -0.05508622 -0.3163225 0.10671324 0.5825478 -0.17895173
0.38109088 0.2968085 0.008485305 -0.11219958 0.015178606 -0.051168274 -0.041185096 0.18498291
-0.0033400538 0.102833584 -0.13872892 -0.22019713 0.07909501 0.26549798 -0.01139273 0.061692614
-0.061092712 -0.075087555 0.037520684 0.027423473 -0.15037501 -0.05523365 0.06503165 0.083185986
0.16617683 0.036750045 0.04528459 -0.08859396 -0.0070997723 -0.068902604 -0.1484404 -0.23233555

conv1.bias f4 [10]
00000000: 53d3 b539 2699 a739 e821 d6b7 20d0 493b
00000010: c6be 2fba 336d 38ba bc5e 12b9 0863 7038
00000020: fc80 ad39 585e 9eba
0.0003468046 0.00031966827 -2.5526577e-05 0.0030794218 -0.00067041477 -0.0007035315 -0.00013958936 5.731269e-05
0.00033093232 -0.001208256

bn1.weight f4 [10]
00000000: a49a 533f ef60 173f 9ef6 2e3f f5b2 0a3f
00000010: 03f6 1c3f e516 303f 5aeb 313f dfe3 193f
00000020: 9074 083f 6a73 113f
0.8265784 0.59132284 0.6834506 0.54179317 0.61312884 0.68784934 0.69499743 0.6011333
0.5330286 0.5681673

bn1.bias f4 [10]
00000000: 800f 0dbf 426a 82be 7a82 c0be 3e48 15be
00000010: 8a69 4bbe 736a 03bf 7fdf 11be 42f9 95bd
00000020: c510 783d 4361 b8be
-0.55101776 -0.25471693 -0.37599546 -0.1457834 -0.19864479 -0.51334304 -0.14245413 -0.07322933
0.060562868 -0.36011705

bn1.running_mean f4 [10]
00000000: 2550 0f3f 0d53 813e 6a98 d0be 7906 5cbc
00000010: c46d 943e 6a0f 343f 1612 243e 1537 e1be
00000020: 84af 98bd 4308 b03c
0.55981666 0.25258675 -0.40741283 -0.013429278 0.28989995 0.7033602 0.16022524 -0.43987337
-0.07455352 0.021488314

bn1.running_var f4 [10]
00000000: c929 d33d 5e10 363d 2e31 0b3d c2ae 253d
00000010: 569f d13c 5f1a c13d 8a8d c23d 7226 533d
00000020: 2d00 f83d c298 d23c
0.10310704 0.044449203 0.03398245 0.040449865 0.025588673 0.09428858 0.09499653 0.051550336
0.121094085 0.025707606

conv2.weight f4 [20, 10, 3, 3]
00000000: baa4 2a3c 0a1d 9ebc 6725 0c3d ae44 ba3d
00000010: 11fe 47bb e3b4 54bd cf0d 173e c38d 803e
00000020: a8ff 483e c62e 0ebd 8073 cabd 99d3 59bd
00000030: 1fd4 b6bd 468a f9bc 7575 9c3c a014 9c3d
00000040: ec99 803c 6a65 9fbd d616 1fbe abaf e9bd
00000050: 8bee 97bc c214 9ebd f132 3ebe 90ab 213d
00000060: 35ac 9bbd e5b0 a0bd 380b 993d 31d1 243d
00000070: 4222 c4bc 2d66 ef3d aff9 69be cac8 08be
00000080: 0d35 91bd 838f fb3d 3610 613d 6222 ac3d
00000090: 7dc1 4a3e b70b ac3c 7ff3 60bd 8883 903d
000000a0: 6269 71bd 5d61 9fbc 3198 3bbd 228c 22be
000000b0: 9d04 96be 9ed2 79bd 8d2f 60bd 4208 17be
000000c0: f52f 3d3e 96f1 99bc e091 573c 472f 2d3e
000000d0: 93d9 303d 435b ad3d a4f2 973d f8e3 b93c
000000e0: 4ed6 f5bd eaea 843e 53b5 cfbd 1373 75be
000000f0: 38e5 c73d aab8 143d dbf7 d7bc a38b de3d
00000100: dd2f 22bd fca8 0abe 631e 143d a158 03be
00000110: 6505 0bbe d130 78bd e097 e8bd 5198 33bd
00000120: 1501 0f3d f13e 5e3d a658 3c3e f51e 673e
00000130: 6891 9e3d db85 5fbd 505c fc3d 4965 613d
00000140: 6ab0 aebd 8bc7 03be 3eb0 54be c0ec 85be
00000150: dc29 10be 37a2 a83b 6624 27bd 5f97 4cbe
00000160: b361 37be 6318 6abe 81c1 563d ac54 2e3c
00000170: 2be1 a4bd b2e0 8a3c 4fdf b83c b07d 193d
00000180: 4bba db3d 1c23 cb3d 7358 b43d 3ec1 813c
00000190: 47ee 793d cec0 b83d 53cb 90bd c913 be3c
000001a0: 797b 9fbc a30e 88bd f0be e1bd 4494 1fbe
000001b0: 50a1 20be 22c2 27bc 04a9 533c 96cf 95bd
000001c0: d943 bfbd 16f8 e7bd 7c93 7cbe 9b37 11bd
000001d0: 91d0 ec3d d9ad 8abd d9f1 cc3b 6f09 dc3c
000001e0: 22c6 fdbc ee3d bbbc 778e 4c3d d568 08bd
000001f0: 6d8e ddbd 32ad 10be 2733 e33d 9aec 693c
00000200: b8dc 9dbd 4e69 a7be 889f 5bbe 4e7c 15be
00000210: 1373 863e 0372 873d 0575 b2bc 45e0 143e
00000220: 4fbc bbbd 5655 f6bd 35bf fd3d a02a ec3d
00000230: 8d5d 703e 810c 1ebe 1644 803c a40c 963d
00000240: 81fc 203d 5252 a1bb f0ac 9abd e7f4 1ebe
00000250: f6a7 2bbe 41b2 a2ba 1aff 653e 89ab cf3d
00000260: fffe b8bd 546a 6d3d 501b 823d fb8f 17bd
00000270: 64a4 113e 3071 a9bd 5dec 57be c7b3 d23e
00000280: 379e a43d e4be 91bc 9f7d b13d e296 f03c
00000290: 6e47 82bd 42c0 3c3d 240a d9bd 71e5 5dbe
000002a0: a430 f93d 93c0 0bbb 4ba4 8dbc 0e69 60be
000002b0: 5763 bfbd e0cb 92bc 6a01 2fbe 40b0 0bbe
000002c0: 6451 84bd 8558 2abd 9803 84bd e163 8fbe
000002d0: c29f cd3d 57cd c33c 4dd9 bbbc 68e3 0bbd
000002e0: c375 babd ac19 9bbe 84db 833e 3ff3 653d
000002f0: b678 ea3d e35a edbd db2b 833c 1295 873d
00000300: 2ad2 bcbd f47f e5bd b051 4dbe 53b2 0e3e
00000310: 9679 983d 6fab d1bd 77c9 003d 9c9f 9dbc
00000320: 47a6 c5bd f86f a2bc b39d 4ebe ac4b 2fbd
00000330: f542 a93d cdf2 ad3d a14b e23d ac6c 39bd
00000340: 6bf5 d3bd d1d8 173d de73 66bd b188 97bc
00000350: 160c acbd dc8c 863b 8263 bd3d 387c 6c3d
00000360: 9c4d 063e 395e 573e 2490 7a3c cd8c 2a3d
00000370: d906 f63a 98c8 d3bd 0838 593d 4841 27be
00000380: 2d43 b2be 186e ef3d 412a f6bc 579c 8bbd
00000390: 0562 0cbd b700 c63b ca58 85bb 43c0 833e
000003a0: da68 ed3d 556b d53c 82b0 9a3d 851c 783c
000003b0: 6ca1 3cbe 8788 0c3e 8267 9abd 58ef 5cbe
000003c0: f382 fd3e c36b 273e 59ab d8bd f982 b3bc
000003d0: 74ef ab3d 8e3e ecbd 0c32 b03d ba09 c9bd
000003e0: 8b48 e9bc 9429 a73d d79b df3c 60cd 99bd
000003f0: a494 413e d9f3 07bd 5c45 0d3c 767c 1e3e
0.01041525 -0.019300956 0.034215357 0.09095131 -0.0030516426 -0.05193032 0.14751361 0.25108156
0.19628775 -0.034712575 -0.09885311 -0.05318031 -0.08927178 -0.030461442 0.019098977 0.076211214
0.015698396 -0.07783015 -0.15536055 -0.11410459 -0.018546363 -0.07718803 -0.1857412 0.039470255
-0.07601205 -0.0784624 0.07472843 0.040238563 -0.023942117 0.1168941 -0.22849153 -0.13357845
-0.07090197 0.12283232 0.0549471 0.084049955 0.19800372 0.02100168 -0.054919716 0.070563376
-0.05893839 -0.019455606 -0.045799438 -0.15873769 -0.29300395 -0.060991876 -0.054732848 -0.14749244
0.18475325 -0.018791955 0.013157338 0.16912566 0.043176245 0.084646724 0.07419327 0.022691712
-0.12003766 0.25960475 -0.10142007 -0.23969679 0.09760517 0.036308922 -0.026363304 0.10866477
-0.039596427 -0.13541025 0.03616179 -0.12826778 -0.13576277 -0.06059343 -0.11357093 -0.043846432
0.03491314 0.054259244 0.18393192 0.22570403 0.07742578 -0.054571014 0.12322295 0.055028234
-0.08529742 -0.12869088 -0.20770356 -0.26157188 -0.14078468 0.0051462906 -0.040806197 -0.19979618
-0.17908363 -0.22860865 0.052430633 0.010640305 -0.0805076 0.016952846 0.02256742 0.03747338
0.10728892 0.09918806 0.08805933 0.015839215 0.061018255 0.090211496 -0.07070031 0.023202794
-0.019468056 -0.06643417 -0.110227466 -0.15583903 -0.15686536 -0.010239156 0.012918714 -0.073149845
-0.09339113 -0.113266155 -0.24665636 -0.03545342 0.115632184 -0.0677144 0.0062544164 0.026859967
-0.030978266 -0.022856679 0.049940553 -0.0333031 -0.10818181 -0.14128569 0.11093741 0.014277602
-0.077081144 -0.3269753 -0.21447575 -0.145982 0.2625967 0.06613543 -0.021784315 0.14538677
-0.091667764 -0.12027995 0.123899855 0.115315676 0.23473187 -0.15434457 0.015657466 0.0732663
0.039303306 -0.0049231434 -0.075525165 -0.1552311 -0.16763291 -0.0012412743 0.22460595 0.101401396
-0.09033012 0.05796273 0.06352866 -0.037002545 0.14222866 -0.08273542 -0.21086259 0.41152784
0.080379896 -0.017791219 0.086665384 0.029368822 -0.063612804 0.04608179 -0.10597637 -0.21669556
0.121674806 -0.00213245 -0.017290255 -0.21915075 -0.093451194 -0.01791948 -0.17090383 -0.13641453
-0.064608365 -0.041588325 -0.06445998 -0.2800589 0.10040237 0.023901625 -0.022930766 -0.03415242
-0.091044925 -0.30293024 0.25753415 0.05614018 0.11448805 -0.11589601 0.016012123 0.0662023
-0.09219773 -0.11206046 -0.20050693 0.13935213 0.07445066 -0.102377765 0.03144213 -0.019241147
-0.096508555 -0.019828781 -0.20177345 -0.042796776 0.08264724 0.08493576 0.11049581 -0.045269653
-0.10349544 0.037072007 -0.056262843 -0.018497797 -0.08400743 0.004106147 0.09247495 0.05773565
0.13115543 0.21032037 0.015293155 0.041638184 0.0018770351 -0.103409946 0.05303195 -0.16333497
-0.34816876 0.116909206 -0.030049445 -0.06816929 -0.034273166 0.0060425657 -0.0040694224 0.25732622
0.115922645 0.026052156 0.075531974 0.015143518 -0.18420953 0.13723956 -0.07539274 -0.21575677
0.4951397 0.16349702 -0.10579557 -0.021913039 0.083952814 -0.11535369 0.08603296 -0.09816308
-0.028476974 0.08162227 0.02729599 -0.07509875 0.18904358 -0.033191536 0.008622494 0.15477166

conv2.bias f4 [20]
00000000: 9bc0 8037 4a39 9639 1096 a8b8 f415 2f39
00000010: c8f1 0339 d23f 1b38 277c 5cb9 c4fa ce37
00000020: f867 8b37 50e4 8937 d49f 8539 a5e6 41b9
00000030: 5815 3838 2b45 5cb9 a43a a137 d20b c038
00000040: b812 8238 7e2e 9638 816f 34b9 28ff 63b8
1.5348478e-05 0.00028652913 -8.0388156e-05 0.00016697479 0.00012583204 3.7014317e-05 -0.00021027085 2.4673885e-05
1.6618505e-05 1.6437989e-05 0.00025486818 -0.00018491836 4.3888896e-05 -0.00021006602 1.9220002e-05 9.157475e-05
6.20237e-05 7.161217e-05 -0.00017207676 -5.435865e-05

bn2.weight f4 [20]
00000000: fd23 013f 3229 f33e 7a92 d43e 10c7 b43e
00000010: c78d d53e 97cf dc3e a33d 013f f36c 063f
00000020: 33ad b93e 91d6 b83e 781b fd3e 6f31 d53e
00000030: eafc 0c3f 3804 f73e 6be7 c13e a014 bb3e
00000040: b486 fd3e ba0c d33e a252 fc3e 7dcf 1c3f
0.5044554 0.47492367 0.41518003 0.35308123 0.4170973 0.43127128 0.50484675 0.52509993
0.36264953 0.361012 0.4943502 0.41639277 0.55073416 0.48245406 0.3787187 0.36539173
0.49516833 0.41220647 0.49281794 0.612541

bn2.bias f4 [20]
00000000: 7e60 8bbe 273e a2be da15 5cbe ef3e 96be
00000010: 2da6 f2be e087 0cbe 89e7 2dbe 132d b4be
00000020: 4d19 50be 0706 d8be a58f 9dbe ab58 17bf
00000030: 2d5d 7fbe e31d 03be cfb7 bdbe 28b3 a4be
00000040: 05a0 21be 00f7 3dbe 357b 8abe af9f 82be
-0.27222055 -0.31688043 -0.2149271 -0.2934489 -0.47392407 -0.13723707 -0.16982855 -0.3519064
-0.20322151 -0.42192098 -0.30773655 -0.5911967 -0.24937887 -0.1280437 -0.37054297 -0.32167935
-0.15783699 -0.18551254 -0.27047125 -0.25512454

bn2.running_mean f4 [20]
00000000: 225e 25be c2c0 ccbe 348f 1d3e ea1a bd3d
00000010: 34f8 e8be 7b1e ecbd 4b15 c0be 47a4 93be
00000020: f01c 773b 185b 21be 1e25 31be c1d2 3fbe
00000030: 604a 4bbe 8994 88be 3ff5 a0be 9bcc 36be
00000040: fe59 d3be ff4c 9fbe 4d7a 11be 0e8e 67be
-0.1614919 -0.39990813 0.15386659 0.09233649 -0.45501864 -0.11529251 -0.37516245 -0.2883627
0.0037706457 -0.15757406 -0.17299315 -0.1873274 -0.1985259 -0.26675823 -0.31437108 -0.17851488
-0.41279596 -0.3111343 -0.1420681 -0.22612783

bn2.running_var f4 [20]
00000000: 9106 8b3e cc1c 3d3e c9ce 013e 1ef2 d43d
00000010: 19a7 e03d 83e7 4d3e 8675 5a3e c0c0 263e
00000020: f532 383e 4c6d b43d 1268 6d3e a662 b93d
00000030: 86e8 1f3e 836c 5c3e 2648 113e df02 063e
00000040: 5c10 2e3e 11ad 043e 5213 773e b04a 0e3e
0.27153447 0.18468016 0.12676539 0.10397743 0.10969371 0.20107846 0.21333894 0.16284466
0.17988189 0.08809909 0.23184231 0.09052019 0.15616044 0.21525769 0.14187679 0.13087033
0.16998428 0.12956645 0.24128464 0.13895679

fc1.weight f4 [256, 100]
00000000: 19a4 963c 4760 c2bb a623 d7bc 1ba5 95bd
00000010: 24c2 e4bc e69d 823d 46ac 23bd 66e1 79bd
00000020: 609f a6bd 40a3 163c 5f06 13bd 8073 52bc
00000030: e22a 95bd 38ab 8cbd 7c70 1ebd 731e 84bd
00000040: a43d 87bd 7e0f abbd 1d4b ac3c e605 183d
00000050: d90d 9cbb 0968 65bd 6369 5c3d 8c14 333d
00000060: 7d1a 2b3d c0ba fc3b febc a5bd 74e7 bfbd
00000070: 8ba4 a0bd 12c9 88bd 1bb7 2abb a081 e7bc
00000080: 99da bcbd 32cd 80bd 33f2 2abd 8f6a 3a3d
00000090: 4829 e93d e4bc 1b3d 6549 b9bc fd0c 81bd
000000a0: 8a9e ccbc 5a1e 17bd bee8 abbd 9897 c63b
000000b0: 656d 9aba 4a0e 93bd d6ab 22bd 7da1 a7bc
000000c0: 6dd9 ea3d a897 c93c 85bc a83c 3158 98bd
000000d0: e2fd bfbd e612 afbd a259 6a3c a2ad b9bd
000000e0: 185c 7ebd 73a6 8b3d 1936 993d 2105 013c
000000f0: 91ed 5dbc 26f3 c13d df17 a4bc 00f9 d6bd
00000100: ec99 afbc 1482 b0bc 264f 62bd f0b1 b8bd
00000110: d359 35bd da2c 94bd f145 073d 54bc 593d
00000120: 0bb7 1f3d 79c2 69bd 4a29 8fbd a07c 37bd
00000130: dbdb 1cbd a052 cfbd 4565 80bc 8593 97bc
00000140: 1efc 003d 66bc 87bd ea87 98bd b68e a5bd
00000150: db0b 36bd 8cad d0bb 3749 35bc fbb9 5bbd
00000160: 29f8 64bc bc75 8abc 29cd 383d fa77 aabd
00000170: 2418 a4bd 854f d8bd cdec f53b 90e7 3dbc
00000180: 851a 483c 177d a4bd 3c4b 93bd 057a 78bd
00000190: d0ac a43d dbbe 2bbc fdc4 86bd 314e 9bbd
000001a0: 0674 c1bb cb46 493d 406c 34bd 6a44 8cbd
000001b0: fb9e c5bd e681 11bd 883c e43c 774d 41bd
000001c0: 85f2 7dbd 344a 64bd e8e5 75bd 02be 8cbd
000001d0: beb9 c0bd d0f7 80bd 9cb6 003d f3b0 973d
000001e0: 64fa bb3b 2c3b 68bd 7ed8 60bd be3f 2b3d
000001f0: f84c 3d3d 0346 ef3b 34f9 8abc 2b1b 46bd
00000200: c91e 7ebd 8c05 08bd e516 f33c f97f 9fba
00000210: 796d 6dbd 895c a5bd 0b44 4dbd defc 273d
00000220: 6af8 6f3d ad77 493d dc49 8fbd 5e87 aabd
00000230: 2cd2 3ebd cd37 6cbd 2a2f 6bbd d3c5 73bd
00000240: 2fb5 cd3d f544 eabc 11dd c2bd 8ae4 583b
00000250: c4f8 683d 8f61 b53d ae34 c53d 7f68 823c
00000260: 4d11 e1bc b2d8 cebc 31bb 18bd f11e 92bd
00000270: 0112 fcbd c4ef 9cbc b48d b43d 3c12 8a3c
00000280: deb3 d63c d5c6 9e3d 122d 9dbc 4be7 b8bd
00000290: 38aa 46bd 28c3 703c 8c52 29bd 8818 8abd
000002a0: db93 86bd 7cd8 dfbd 8669 9abc 35f6 bf3d
000002b0: 4b4a 49bd 9bc1 50bd f608 86bd fc5b 3ebd
000002c0: de9b 53bd 569f cebd a75c 5b3d 343f 483d
000002d0: 2715 383a b6ff 01bd f774 f2bc f9fc 3cbd
000002e0: fde6 25bd fc4c 07bc 7074 0d3d e056 2abd
000002f0: c189 e1bd 23a0 30bd c450 cd3c b16d 5d3b
00000300: 11dd 33bd 4d57 93bd c387 953c f084 88bc
00000310: 3ede f4bb f112 88bd 6d5b f0bc 4b0d 1bbd
00000320: c408 153d 7d9e 833b 64c1 47bb e8d9 4e3b
00000330: e914 2dbb c0a4 a63b aeff 4e3c 2514 b43c
00000340: 6d05 0a3c bdf6 b5bd 83a3 f63b 8043 59bd
00000350: 2f60 fa3b 211d f2bb 5ad9 1f3d 6417 6b3c
00000360: ef66 823c ab2b f0bc 30b1 8fbd 66dc aebd
00000370: 6ef8 fdbc 2cf9 31bd 3c46 38bd bdab 5ebd
00000380: 33a5 a0bd 0698 013b f46b 1dbd b9c2 3d3d
00000390: 1c49 b53c 5378 1ebd eac4 ac3c e8c6 cfbc
000003a0: 6c42 a63d 09be 853c 64aa 0fbc b49e 353d
000003b0: 98ae f8bb 3c4e 1c3c 1b16 6f3d 7a36 023d
000003c0: 17a5 bbbc 0c81 51bc 71bf 92bc 51ab 47bd
000003d0: dbfa 83bd 1d5a 1cbd e1bb 45bc 4279 66bd
000003e0: f0d6 6cbd a345 92bd 8665 063b 1f37 d4bc
000003f0: 93ce ddbb 438d cabc a367 e1bc 38ee a23c
0.018388795 -0.0059318873 -0.026262116 -0.07306882 -0.027924605 0.06377773 -0.039959215 -0.061005972
-0.08135867 0.009194195 -0.035894748 -0.01284492 -0.0728357 -0.06868595 -0.038681492 -0.0645112
-0.06603554 -0.08352564 0.02103191 0.037115 -0.004762393 -0.05600742 0.053811442 0.043720767
0.041773308 0.007712692 -0.08092688 -0.09370318 -0.07843884 -0.06678976 -0.002604908 -0.028260052
-0.09221382 -0.06289138 -0.041734885 0.04551178 0.11384827 0.038021937 -0.022618005 -0.063013054
-0.024977941 -0.03689418 -0.083940014 0.006060552 -0.001178187 -0.0718046 -0.039714657 -0.020462746
0.11467252 0.024608448 0.020597706 -0.07438696 -0.09374596 -0.085485265 0.014303597 -0.09066321
-0.062099546 0.06818857 0.074810214 0.007874758 -0.01354541 0.09470205 -0.020030914 -0.10496712
-0.0214357 -0.021546401 -0.055251263 -0.09018314 -0.044275116 -0.07235117 0.033025686 0.05315812
0.038992923 -0.05707023 -0.06990297 -0.044796586 -0.038295608 -0.10123181 -0.01567329 -0.01850296
0.031490438 -0.06627731 -0.074477986 -0.080838606 -0.0444449 -0.0063683446 -0.011064819 -0.05364416
-0.013975182 -0.016901843 0.04511753 -0.08323665 -0.08012417 -0.10562042 0.0075050355 -0.011590853
0.012213354 -0.080316715 -0.07192084 -0.060663242 0.08040774 -0.010482515 -0.06580541 -0.07583273
-0.0059037236 0.04913978 -0.044048548 -0.068489864 -0.09649464 -0.03552427 0.027860895 -0.047193017
-0.061998863 -0.055734828 -0.06003371 -0.068721786 -0.094104275 -0.062972665 0.03142415 0.07406797
0.005736636 -0.056697056 -0.054893963 0.041808836 0.04621598 0.007302047 -0.016964532 -0.048365753
-0.062041078 -0.033208415 0.029674003 -0.0012168876 -0.05796573 -0.0807429 -0.05011372 0.041012637
0.058586515 0.049186397 -0.069965094 -0.083266005 -0.046587154 -0.057670403 -0.057418026 -0.05951483
0.10044324 -0.028597334 -0.09514821 0.0033095204 0.056877866 0.088564985 0.096291885 0.015918968
-0.02747407 -0.025249813 -0.037287895 -0.07134808 -0.123081215 -0.019157298 0.0881609 0.016854398
0.026208814 0.07752768 -0.01918653 -0.09028491 -0.048502177 0.014694966 -0.04133849 -0.0674296
-0.0657117 -0.10929963 -0.018849146 0.09373132 -0.049143117 -0.050965887 -0.06544678 -0.046474442
-0.05166232 -0.10088985 0.053555157 0.0488884 0.0007022195 -0.031738006 -0.029596789 -0.04613969
-0.04050349 -0.008258101 0.03453487 -0.041586757 -0.110126026 -0.04312147 0.025062926 0.0033787305
-0.043911997 -0.07194386 0.018253213 -0.016664952 -0.0074727824 -0.06644238 -0.02934047 -0.037854474
0.036385313 0.004016696 -0.003048026 0.0031562988 -0.0026410169 0.0050855577 0.012634201 0.021982262
0.008424145 -0.08884952 0.0075268163 -0.05304289 0.0076408605 -0.0073887263 0.039025642 0.0143488385
0.015918223 -0.029317698 -0.07016218 -0.085381314 -0.03100225 -0.04345052 -0.044988856 -0.054363
-0.07844009 0.001977445 -0.03843303 0.04632828 0.022129588 -0.03868897 0.02108999 -0.0253634
0.08118138 0.016325967 -0.008768652 0.044340804 -0.0075891726 0.009540137 0.05837069 0.031790234
-0.02290587 -0.012787115 -0.017913552 -0.048747364 -0.06444331 -0.038171876 -0.01206872 -0.056267984
-0.057822168 -0.071421884 0.002050729 -0.02590519 -0.0067690103 -0.024725562 -0.027515238 0.019888982

fc1.bias f4 [256]
00000000: 5204 8d3d 3384 813d 3299 c53c 0e4b f6bc
00000010: 523b 963d 5718 e8b0 fde2 c3ba 227f 22bd
00000020: 22b8 88bd c9fa f7bc 047e 4b3d 166b 01a9
00000030: 15ed eabd a202 babc e55e 95bb 19d7 9dbb
00000040: f972 013e 3016 c53d 3a4f 37bd fec5 d4b5
00000050: b9a7 1dbc 20fb 9e3d 314f 8ebc 4f9d e892
00000060: 4e22 8dbd 5b22 333c 9f1a 52ad b5dd 0cbd
00000070: 1e15 b3bd 9aee 0bba fe7d 51bd ae54 a4bd
00000080: 1b31 37ba 76b6 34bd 0334 853d 613f 463d
00000090: 7556 00bd d90f 19bd 9415 5fbd 02bf 59bc
000000a0: e342 20b9 8f7a ddbc 22fc b3bc 9dcb 9fbd
000000b0: 44f9 13bd 5878 27bb c88f 5eba b1ca 2f3d
000000c0: dbf0 b03d 276c cbbc 335a 05a4 f7db 66bc
000000d0: 85fc 16b3 fdab 93b9 8849 e63d 2f72 3bbc
000000e0: 76aa 2e3d 4102 b4bc edde 41bd 41af 07bd
000000f0: e8e2 32bc f779 a1bc 83af c5bc 20ee a53d
00000100: 806a a3ad 9221 38bd 6786 6a3d 34ce afbd
00000110: 3bab 40bc 11fb 45a6 61fd fdbc a466 953d
00000120: 5121 00bc 9210 3dbc 74b1 ecbc 178b 70bc
00000130: d042 723a 7d87 3f3c 9a96 35bc 4e1e c9bd
00000140: 6bc5 ee3c 467f 0c3d b911 da3d 5e12 18bc
00000150: 04f3 4dbc df2e 13b6 dd8c 4dbd 3584 33bd
00000160: 2655 5fbc 4106 8cba 4684 613c 69ae c33d
00000170: 8aeb d2b0 342d 14bd 4ab6 1bb6 a72d c63d
00000180: 352b a1b7 a090 abbc acfe 3abd 043e 3ebd
00000190: cf30 189a a1a5 9fbc 3740 dabc 1f1c 29ab
000001a0: 7e33 e1bb b98a 879b de38 dfbc 0fa3 b6bb
000001b0: 9d5b 0cbd a827 953d 064f 353a 4cc1 9fbc
000001c0: 4fe2 41bd 2d0f 54bd 691e cf3d bb3f 4bbc
000001d0: f494 b73d e6cd 2fbd 3550 24bd 8ffd 0cbd
000001e0: 6811 e93d 0365 01bd af64 a3bd 84f5 943c
000001f0: b91a efbc 0f3c c43d 0475 90bd cde4 52bd
00000200: 339f 24bc ca29 8eaa 6a55 33bd 747a 053c
00000210: bf15 65bd 52c5 fbbb 5c8a cabd 6394 3bb1
00000220: 3d9e 63bb b3a9 29bd 29d8 34bd 13f1 4bbc
00000230: 4ff6 b7bc c724 ceb5 fd2d b1bd 6f0f d1bc
00000240: 9bdf 50b4 609a 253d fa0a 45a2 cbd9 4ab9
00000250: f675 02ba 6ce9 01bd a334 bcbb 30ba 95bd
00000260: e6bc 34b7 8647 db9b 0285 903d 5743 f5bc
00000270: 44ef 87bd d3a3 dfa2 385f f7bc 48c7 40bd
00000280: de3d a3b9 f42c 683d 5c63 61bd e554 95bb
00000290: 9b74 05bd 6342 613d a726 3abd 5319 b7bc
000002a0: fa31 35bd 27ce 72bd 07a7 bcbd e5f3 0c3d
000002b0: d693 14bd cf9a e4ba df88 6ebc 3837 7d3d
000002c0: b8d2 8e3d 987a 4baa 95fe 31bd 1616 60b0
000002d0: 17a9 99bc d6a6 2fbc 2985 cebb da79 7d3d
000002e0: b1ab a5bc 195f 1ebb fe5a 853d feee 30b9
000002f0: 5d12 b33c e982 863d 3615 06a2 de69 2abb
00000300: 36be 28a8 218c aabc 62c6 0f99 aaa2 993d
00000310: e2d9 ffbb 4297 18bd b08d ce3d b570 99bb
00000320: 4f93 64bd 6e40 12bb 2f35 a7bc 40de 84af
00000330: c0c3 bfbc 4e77 cc9e 5ea2 1491 adff 46bc
00000340: e1de 2abd 52d7 883d 4e29 6abc b90f 69bd
00000350: fd8a 25b0 9cec 8cbc 058e 0faf 9766 85b9
00000360: e3e0 28bc 88ab 60bd 12c3 443d 79d4 0ab8
00000370: 46c2 09bd 0124 33bd fb98 87bc 0063 c0bc
00000380: 05a7 0cbd af2d 003b bedc d6bc 0c42 76bd
00000390: b7b8 7abc a953 28bc efed 8cbc 4538 801c
000003a0: 4323 20b9 1077 3fbd b9c8 1bb8 90d4 10bd
000003b0: 4105 323d fa9a a4bc dab6 ea3d 5f59 bebc
000003c0: 1672 0cbd ca55 fcbc c331 b7b8 ea27 8f3d
000003d0: 068e 99bd 3242 24bd cc9a 0cbc 6314 7d3d
000003e0: f89c 8fbc 7927 73bd c089 d4bd c6a9 a7b8
000003f0: 1f7f 41bd f382 3bbc 1fd2 7cbc bf3b 5dba
0.0688559 0.06324043 0.0241209 -0.030065086 0.07335533 -1.688714e-09 -0.0014944967 -0.039672025
-0.066757455 -0.03027095 0.049680725 -2.8736636e-14 -0.11471001 -0.022706334 -0.0045584315 -0.0048169014
0.12641515 0.096233726 -0.04475329 -1.5852854e-06 -0.009622508 0.07762742 -0.017371746 -1.4680038e-27
-0.06891309 0.010933484 -1.1943029e-11 -0.034391124 -0.08744262 -0.00053379836 -0.051145546 -0.08023964
-0.0006988213 -0.04411932 0.06504061 0.048400287 -0.03133245 -0.03736863 -0.054463938 -0.013290169
-0.00015283706 -0.02703598 -0.021970812 -0.07802508 -0.03612639 -0.0025553908 -0.0008490053 0.04291791
0.086396895 -0.024831844 -2.891618e-17 -0.01409053 -3.515426e-08 -0.00028166166 0.11244494 -0.011440798
0.042643033 -0.021973731 -0.04733174 -0.03312612 -0.0109183565 -0.019711478 -0.024131542 0.08102059
-1.857825e-11 -0.04495389 0.057257082 -0.08584252 -0.0117595745 -6.8688363e-16 -0.03100461 0.07294968
-0.007820443 -0.011539595 -0.02889321 -0.014681599 0.0009241523 0.011690018 -0.0110832695 -0.09820233
0.02914687 0.034301065 0.106479116 -0.009281723 -0.0125701465 -2.193199e-06 -0.050183166 -0.043827254
-0.013631141 -0.0010683016 0.013764447 0.095547505 -1.5346455e-09 -0.03617592 -2.3202906e-06 0.09676676
-1.9212815e-05 -0.020942986 -0.04565303 -0.04644586 -3.147229e-23 -0.019488158 -0.026641948 -6.0079887e-13
-0.0068725934 -2.2423524e-22 -0.027248796 -0.0055736373 -0.034267057 0.072829545 0.00069163775 -0.01950135
-0.047334965 -0.051772285 0.10113222 -0.012405331 0.089639574 -0.04292097 -0.040115554 -0.0344215
0.11380273 -0.031590473 -0.07978188 0.018183477 -0.029187547 0.09581768 -0.07053569 -0.051487733
-0.010047722 -2.5253264e-13 -0.04378263 0.008146871 -0.05592894 -0.0076834345 -0.09889671 -2.729643e-09
-0.0034731769 -0.041421603 -0.04415146 -0.012447613 -0.022456316 -1.53589e-06 -0.0865135 -0.025520055
-1.9452857e-07 0.040430427 -2.670429e-18 -0.00019345355 -0.0004976684 -0.03171675 -0.0057435795 -0.07310903
-1.0772817e-05 -3.6276732e-22 0.07056619 -0.029939337 -0.06637433 -6.0617727e-18 -0.030196771 -0.04706505
-0.00031135877 0.056683496 -0.055026397 -0.0045572394 -0.032581907 0.054994952 -0.045447018 -0.022350943
-0.044237114 -0.059278633 -0.092115454 0.034412283 -0.0362738 -0.0017441156 -0.014559 0.06182024
0.06973785 -1.8072555e-13 -0.04345568 -8.152211e-10 -0.018757386 -0.010720929 -0.006302495 0.061883785
-0.02022347 -0.002416557 0.06511496 -0.000168737 0.021859342 0.06567938 -1.8171615e-18 -0.0026003043
-9.367119e-15 -0.020818772 -7.43299e-24 0.07501729 -0.007807956 -0.037253626 0.100856185 -0.004682625
-0.055804547 -0.0022316235 -0.020411102 -2.4168578e-10 -0.02340877 -2.1648683e-20 -1.1725175e-28 -0.012145919
-0.04171646 0.06681694 -0.014292074 -0.05689976 -6.0224165e-10 -0.017202668 -1.305623e-10 -0.00025444172
-0.010307523 -0.054851085 0.048037596 -3.3099644e-05 -0.03363254 -0.043735508 -0.016552439 -0.023484707
-0.03433897 0.001955848 -0.026228305 -0.06012158 -0.0153028285 -0.010273852 -0.0172033 8.484875e-22
-0.00015271925 -0.046744406 -3.7141817e-05 -0.035358965 0.04346204 -0.02009343 0.114606574 -0.023235975
-0.03428849 -0.030802626 -8.735389e-05 0.06990035 -0.07497792 -0.04010219 -0.008581828 0.06178702
-0.017530903 -0.059363816 -0.10377836 -7.994803e-05 -0.047240373 -0.011444795 -0.015430956 -0.0008439384

fc2.weight f4 [120, 256]
00000000: 12ae 4cbd e97a 3dbd 36f9 1839 7c13 5bbb
00000010: 843c 2ebd ea16 1f80 79eb 65ab 2a2c 6c3d
00000020: 2751 15bc 75b9 a53b 6dc4 0dbd 26a7 0680
00000030: 386a 943c 8f84 8b3c 2822 812d f75f 3daf
00000040: 9761 10bd cc26 8dbd ddd9 a8b9 a459 5b96
00000050: 4ed0 793d c038 c5bc 3e1c 20bb c410 1280
00000060: 4c27 2f3c 4948 433d 8654 1c00 d37f d13a
00000070: d6c2 6fbc 98a4 6823 5231 eb39 c5eb 023d
00000080: 2525 afa7 7854 433c 3d63 6abd 29ea 93bc
00000090: d3ef 9e3c 796f 9d3c 31c4 523c f128 a733
000000a0: ad82 0a80 282a 3d3c 0a1b c23c 58ec e3bb
000000b0: 6687 ae3a 727d 11bd 6084 a7a7 75c7 22bc
000000c0: fa91 24bd 091b cab4 cc19 8e22 4024 e8b4
000000d0: a620 1900 ed10 0a99 57eb d4bc d19e a9bd
000000e0: 7028 15bd ad2a c234 a4f5 323c 0209 c03b
000000f0: a852 5a3d 4efd 12bc ba02 9bba 60c9 08bd
00000100: 6483 0900 832a 853c aa88 3cbd 50e7 a33c
00000110: 6a6d b9b3 3e4c 1900 8a49 203d db9b 5dbc
00000120: 0b7f 1fbd c0a3 893b 62af 933c 2c86 c23b
00000130: d52d ab3c c334 a4bd 1564 4133 b198 2d3c
00000140: bbd6 08bd a6e3 533c f0c7 03bd ea29 033c
00000150: e30b 0eb4 813c 0d00 e1e8 81bb d166 263d
00000160: a6f7 843b e37a d128 6591 153c 1d79 cabc
00000170: f439 0b2f 835e 98b9 247f e608 cc55 22bd
00000180: 3fbd b235 e08b 663c a695 9a3b fbe2 8b3c
00000190: 19f3 0500 b1d3 b23c d503 763c 44ff 3e00
000001a0: 682b 8a37 fbdc 1a00 851b 4fba 3541 9f29
000001b0: 5507 173b 39cf 46bc 7200 963a 9e47 813c
000001c0: d6ea 2dbc a827 ed37 3b40 04bd 2553 88bd
000001d0: b8fa 72bc 4270 24bb b6fb a1bb b515 aab9
000001e0: a99b 3bbd ee50 d1ba 7c4e 0ebc f983 93bc
000001f0: ff0f b1b9 6125 15bd ae96 5ebb 3e22 7e3c
00000200: e65d a039 b65e 030f a6e1 ad3b 51c9 773c
00000210: be8f c3ba 9a14 d93b feec b8ba f2a2 1497
00000220: 36ee f930 e5de a63a 0102 4cbb bc24 b23c
00000230: e797 4aba 71d0 931d edc6 7a3a 04c6 3539
00000240: 2c0b 3680 96b2 4cbc 7b3c 4200 0093 5cbd
00000250: f517 192b efa3 9d3c e487 203d 8d77 e63b
00000260: 83ca 2400 a92e 2100 c984 05bd f6e1 4bbc
00000270: 3967 3fbc 3ce9 0280 b517 863c 6124 223d
00000280: 62b2 0220 42eb 12bd 29cb a3ba 5fd3 b03c
00000290: 3650 233a b5e4 17bd 8587 843b 94c3 8a35
000002a0: 582b 73bb 4c7d 18bd c28e fc3b aad6 a8bc
000002b0: 3033 38bc bcc7 c02b a600 11b6 6a07 e4bc
000002c0: 65a6 07bd 1f80 2980 26e7 e4bc 02f1 1800
000002d0: d5c3 533c 80a0 fab2 72d0 f333 f2fe cabc
000002e0: 2daa 913c d381 4632 a093 95bc 1294 1995
000002f0: a3e9 9a3c bf83 34bd 44ae 0800 09f1 943c
00000300: 2530 1600 faf8 33bb e84f 0d00 e803 24bc
00000310: 5e2f bb32 be5f 96bc 5172 81bc 8228 0c3d
00000320: abe5 653c 1913 5ba4 f178 a83a 0a42 0e00
00000330: b9a0 783b 9e57 1e00 4802 640f cc96 2e3b
00000340: 6537 ce3c 01b4 09bd 70b4 e9b6 11a2 23bc
00000350: c637 1c26 4437 843b 262d 1a00 4c3d 85a1
00000360: ae45 653c 9848 05bc 5979 04bd 0281 ee87
00000370: fc69 f1bc eec3 8d3a 1abd 5b3c f96c 8f3c
00000380: b17d 1a3d 7c8a 97b9 ac0e 663c a27c 9d3c
00000390: 5d4f a03c db03 3a2a 996b 44b8 ace5 541c
000003a0: 9591 03a0 eabf 033d 646c 85a0 2167 a93c
000003b0: 5a1d e53c e106 d73c 08c2 22bd ddb3 db37
000003c0: 8256 edba 1793 dcb6 b8e6 b516 f490 23bd
000003d0: 3d6d 7dbc 1680 e03c d6d0 bb3c ae49 19bd
000003e0: 348e 993c 9698 92ba b2df c83c a8e9 5e9d
000003f0: 9b01 9f3b bbb9 f2bb 4df7 8c3c 47b0 ac29
-0.049970694 -0.046259794 0.00014588688 -0.0033428362 -0.04253818 -2.85512e-39 -8.1683927e-13 0.057659306
-0.0091135865 0.0050575086 -0.034611154 -6.10975e-40 0.018117055 0.017030982 1.468077e-11 -1.7223543e-10
-0.03524932 -0.068921655 -0.00032205778 -1.7718965e-25 0.06098967 -0.024074912 -0.0024430896 -1.659053e-39
0.010690521 0.04767636 2.601715e-39 0.0015983529 -0.014633855 1.2611599e-17 0.0004485944 0.03196313
-4.861253e-15 0.011921994 -0.057223547 -0.018055992 0.019401466 0.019218193 0.0128641585 7.783991e-08
-9.65233e-40 0.011545695 0.023694534 -0.0069556646 0.0013315498 -0.035520025 -4.6495333e-15 -0.00993525
-0.040178277 -3.7645103e-07 3.851649e-18 -4.3239743e-07 2.3076e-39 -7.137851e-24 -0.025991125 -0.08282245
-0.036415517 3.6166367e-07 0.010922823 0.005860449 0.053301483 -0.008971525 -0.0011826374 -0.03339517
8.73654e-40 0.016255623 -0.04602877 0.02000776 -8.634636e-08 2.323238e-39 0.039132632 -0.013525928
-0.038939517 0.0042004287 0.018027965 0.0059364047 0.020895878 -0.08017876 4.502734e-08 0.0105954865
-0.033407908 0.012932694 -0.032173097 0.008005599 -1.3229105e-07 1.215566e-39 -0.003964529 0.040625397
0.0040578423 2.3256955e-14 0.009128903 -0.024715954 1.2662565e-10 -0.00029062116 1.3872512e-33 -0.039632604
1.3317111e-06 0.014071435 0.0047175465 0.017076006 5.46384e-40 0.021829458 0.015015562 5.785373e-39
1.6471095e-05 2.466996e-39 -0.0007900524 7.07233e-14 0.0023045142 -0.012134367 0.0011444225 0.01578122
-0.010615071 2.8271068e-05 -0.032287817 -0.066564836 -0.014830284 -0.0025091325 -0.0049433364 -0.000324411
-0.045802746 -0.0015969553 -0.008685704 -0.018007265 -0.0003377199 -0.0364126 -0.0033964324 0.015511094
0.00030587538 6.477039e-30 0.0053064404 0.015123681 -0.0014920158 0.0066247704 -0.0014108715 -4.8027045e-25
1.8184838e-09 0.0012731223 -0.0031129124 0.021746032 -0.00077283237 3.91261e-21 0.00095663854 0.00017335272
-4.963125e-39 -0.01249375 6.082839e-39 -0.053851128 5.4389766e-13 0.019243209 0.039192095 0.0070332945
3.378725e-39 3.04731e-39 -0.032597337 -0.01244401 -0.011682325 -2.6734e-40 0.016368726 0.039585475
1.107045e-19 -0.03586889 -0.001249646 0.021585165 0.0006229909 -0.037083346 0.0040444755 1.0338722e-06
-0.0037104692 -0.037228867 0.0077074477 -0.020610172 -0.011242673 1.3697858e-12 -2.1607061e-06 -0.027835567
-0.03311767 -3.811217e-39 -0.027942251 2.290509e-39 0.012925108 -2.9176817e-08 1.1353485e-07 -0.02477977
0.017781341 1.15546355e-08 -0.01825887 -3.101491e-26 0.018910235 -0.044070955 7.97199e-40 0.01818134
2.037652e-39 -0.0027461634 1.222526e-39 -0.010010697 2.1791205e-08 -0.0183562 -0.01580158 0.03421832
0.014031808 -4.750423e-17 0.0012853426 1.309387e-39 0.0037937595 2.786496e-39 1.1241707e-29 0.0026640175
0.025172899 -0.03361893 -6.964947e-06 -0.00998737 5.419896e-16 0.0040349085 2.403919e-39 -9.028656e-19
0.013993664 -0.0081349835 -0.03234229 -3.5886084e-34 -0.029469483 0.0010815838 0.013411785 0.017508017
0.037717525 -0.00028904143 0.014041584 0.019224469 0.019569093 1.6521456e-13 -4.683025e-05 7.044176e-22
-1.1144301e-19 0.032165445 -2.2602803e-19 0.020679059 0.027968097 0.026248397 -0.039735824 2.619059e-05
-0.0018107446 -6.5736344e-06 2.938773e-25 -0.03993316 -0.015467939 0.027404826 0.02292673 -0.037423782
0.018744566 -0.001118439 0.024520729 -2.9502253e-21 0.0048524863 -0.0074073947 0.017207766 7.6689137e-14

fc2.bias f4 [120]
00000000: a7e4 b53d fa68 0f3e 664b 2d3e 4442 073e
00000010: 7802 063e 9b81 0f3e ead3 073e 6ead d33d
00000020: abc0 d43d e8db d63d 97bd c13d daab 003e
00000030: 50c9 ed3d f3de dd3d d893 f33d 3041 2f3e
00000040: 4b18 db3d 7c17 053e 826a 559f a28a f53d
00000050: f90a fa3d e555 173e 4358 3ab7 890f e63d
00000060: d4a9 cc3d ff9c d33d 600c 0f3e e056 923d
00000070: 64e5 d83d 6809 c43d 6082 c53d c096 363e
00000080: 14d1 d53d a00d 7a9d c2b1 a43d 5ae7 093e
00000090: 5dd5 d63d ae80 c43d 1df7 c93d b3d9 f13d
000000a0: 34e5 d83d 2f11 043e a529 103e 17b3 1eb6
000000b0: d791 b33d 6813 08b9 d71e c03d c075 ac3d
000000c0: 75a5 fd3d 40bc 083e c40c 163e c17f c93d
000000d0: e981 db3d ba06 b03d a6ca 31b1 5dfa f63d
000000e0: a94c a43d 3920 b13d c492 e23d 46a0 f03d
000000f0: 6de3 9d3d c602 6f3d f67e d23d 3e37 733b
00000100: 2e59 cf3d b61c a23d 1b0a a23d 4314 ea3d
00000110: 4452 923d 46d6 133e 7b88 fb3d cffd ba3d
00000120: 9e87 ed3d bc40 a83d d8e9 ce3d 9b5e 053e
00000130: abb9 cd3d e40e ed3d 85c3 fb3d c67b c43d
00000140: a3cc d33d f3ed e63d ff4d 713d c955 d33d
00000150: 2ae9 cd3d 65a7 e83d 9baa dc3d aa9c c03d
00000160: 0f93 ed3d 751c de3d 0b2d a53d 6c60 cb3d
00000170: 6692 f63d e6a2 df3d ccca c03d b4de ea3d
00000180: 8548 ee3d f0f5 fc3d c861 a2ba b39f a03d
00000190: 8da3 f53d 0b0f ee3d 8132 0c3e 508a 093e
000001a0: d4ad b63d 370f fc3d 3bee f13d 50c2 25bc
000001b0: a9f4 e53d 2a44 cc3d c956 1d3e cc2d ae3d
000001c0: aafb b03d 4f14 973d ca4e b33d 7134 d63d
000001d0: a62e fa3d ebf4 043e 4fa2 ff3d 0f02 163e
0.088815026 0.14004889 0.16923293 0.13208872 0.13086879 0.14014284 0.13264433 0.103358135
0.10388311 0.104911625 0.094599895 0.12565556 0.11610663 0.1083354 0.11893433 0.17114711
0.10697993 0.1299724 -4.5192606e-20 0.11989333 0.12209124 0.1477886 -1.1107014e-05 0.11233432
0.0999333 0.10332679 0.13969564 0.07145476 0.10590628 0.095721066 0.09644008 0.17830944
0.10440269 -3.3094268e-21 0.08041717 0.1346716 0.104899146 0.09594856 0.09861586 0.11809101
0.10590592 0.1289718 0.14078386 -2.3648079e-06 0.08768051 -0.000129772 0.09380882 0.084208965
0.12385074 0.13353062 0.14653307 0.0983882 0.10718138 0.08595033 -2.5872082e-09 0.12059472
0.08022434 0.08648724 0.110631496 0.1174932 0.07709394 0.058352254 0.10278122 0.0037111784
0.101244316 0.079156324 0.07912084 0.11429646 0.07144597 0.14437208 0.12281891 0.091304414
0.115981326 0.08215472 0.10103196 0.1302437 0.10045179 0.11575106 0.12293152 0.095939204
0.10341766 0.11275854 0.058912273 0.103190966 0.10054238 0.11360053 0.10774728 0.09404881
0.11600315 0.108452715 0.08065232 0.099305004 0.12039642 0.10919742 0.094136804 0.114682585
0.11634926 0.12351596 -0.001238876 0.0784296 0.119940855 0.11623963 0.1369114 0.13431668
0.08919874 0.123075895 0.11813017 -0.0101171285 0.11228306 0.09973939 0.15365137 0.08504829
0.08641751 0.073769204 0.08755262 0.10459221 0.12215929 0.12984054 0.1248213 0.14649223

fc3.weight f4 [1, 120]
00000000: f340 fcbd d2d5 1fbe ba52 27be ac73 28be
00000010: 8fe3 21be 232c 1cbe 093e 76be 91ed 04be
00000020: 0c27 413e 50b4 463e bb18 0abe 3c7b 30be
00000030: 4ce8 473e a84e e9bd 2e64 29be 1639 29be
00000040: 2f16 443e 43b5 11be 93d8 093b 0a5e 29be
00000050: 73e7 813e 35fe 21be 5897 233b 2ecf 0abe
00000060: b8e2 0ebe 48c6 513e b26e 00be c2ef dfbd
00000070: 0fbd 4a3e a312 05be b229 833e 7d05 4cbe
00000080: f7b9 4d3e b209 9730 feda 493e 7a07 4dbe
00000090: 1e87 513e f93b 573e e78f 0cbe 4c87 19be
000000a0: 4bea 07be cd14 623e 8c0a 44be 1af3 a836
000000b0: 975a 18be 0430 5d3a 4bdb f5bd 081d 593e
000000c0: c076 583e 73c3 15be 9820 2dbe 68ba 07be
000000d0: ed72 34be daf4 eebd 34af 10b7 ea21 33be
000000e0: 3649 4f3e 6b3c 633e 2199 483e b5cd 10be
000000f0: a37c 303e 63fe f7bd 3b7c 5f3e cfcb 1ebd
00000100: 3334 02be f2a5 5c3e 8062 323e a064 d0bd
00000110: 7531 b9bd b4d8 50be b1c0 38be fe22 e7bd
00000120: f07f 1bbe 7e6a 473e aee8 02be adc0 1bbe
00000130: 5a04 2bbe c252 583e 644a 08be f031 cebd
00000140: 6f06 cfbd c100 23be 119e 5b3e 5eee 25be
00000150: e33f 09be 6624 1fbe b6be 1cbe e5e4 2cbe
00000160: 5720 813e 9848 33be f67e 04be 523b f1bd
00000170: e2d2 28be 00e9 583e 919c efbd 31b2 07be
00000180: 3bdf 52be c2b2 23be 582b 0ebc 66a3 1fbe
00000190: 3b04 29be deaf 33be 66ff 49be 8fe7 f2bd
000001a0: 463d 2b3e 13be 2cbe a823 4c3e bd24 973b
000001b0: 208f 24be bc63 583e a25d 43be a904 553e
000001c0: 87fe a3bd 4fcb 5c3e b125 543e 50ca d7bd
000001d0: dd46 f8bd 4388 18be 5b4c 4a3e 58d6 19be
-0.123170756 -0.1560891 -0.16340151 -0.16450375 -0.15809463 -0.15251212 -0.24047102 -0.1298125
0.18862551 0.19404721 -0.13485996 -0.1723451 0.19522208 -0.113919556 -0.16542122 -0.16525683
0.19149087 -0.14229302 0.002103363 -0.1653978 0.25371894 -0.15819629 0.0024962034 -0.13555595
-0.13953674 0.20485795 -0.12542227 -0.10934402 0.19798683 -0.1299539 0.25617748 -0.19923969
0.20090471 1.0989452e-09 0.19712445 -0.20022383 0.204617 0.21018972 -0.1372677 -0.14993018
-0.1327297 0.22078247 -0.19144648 5.035091e-06 -0.14878307 0.0008437636 -0.120047174 0.21202481
0.2113905 -0.14625339 -0.16906965 -0.13254702 -0.17621966 -0.116677955 -8.6238615e-06 -0.17493406
0.20242772 0.22191016 0.19589664 -0.14140971 0.17235045 -0.12109067 0.21824734 -0.038768586
-0.12715225 0.21547678 0.17420387 -0.10175443 -0.09042636 -0.20395166 -0.18042256 -0.11285971
-0.15185523 0.19474217 -0.12784073 -0.15210219 -0.16700879 0.2112532 -0.13309628 -0.100681186
-0.10108649 -0.15918256 0.21447016 -0.16204211 -0.13403277 -0.15541229 -0.15307125 -0.16884191
0.25219986 -0.17508161 -0.12939057 -0.117788926 -0.16486695 0.21182632 -0.116997845 -0.13251568
-0.20592968 -0.1598616 -0.008677326 -0.15589675 -0.1650552 -0.17547557 -0.19726333 -0.118605725
0.16722593 -0.16869383 0.19935477 0.004612534 -0.16070223 0.21131796 -0.19078687 0.20802559
-0.080075316 0.21561931 0.20717503 -0.10536635 -0.12122891 -0.1489573 0.1975569 -0.15023172
