k_fold_model_1/model5.pt (torch, 242935 bytes, 17 tensors)

conv1.weight f4 [10, 1, 15, 3]
000000 24 83 e5 b9 4d 0a a4 3d 74 9c 7b be df e0 14 3c
       -0.0004377599 0.08009777 -0.24571401 0.009086817
000010 a7 89 17 be 7b d2 6d be 70 a8 62 3e 4d e9 22 3e
       -0.14798604 -0.23224823 0.22134566 0.1590931
000020 02 dc 11 be 70 d6 8a 3e 66 e3 68 3e be 91 e1 bc
       -0.14244083 0.27116728 0.22742996 -0.027535316
000030 38 65 bc bc e4 a3 31 be 11 d5 3f be e9 42 38 be
       -0.022997484 -0.17347676 -0.18733622 -0.17994274
000040 8e 3f 55 be 00 05 cf bd 8f 51 db 3b 93 06 6e be
       -0.20825025 -0.101083755 0.006693072 -0.23244695
000050 bf 7d 6f bd 13 49 ef bd 18 d2 63 3d ed 7f bb 3d
       -0.05846953 -0.1168386 0.055620283 0.09155259
000060 a6 2e 22 be 96 98 a3 3d 25 af b6 3b e4 66 ea bd
       -0.15838107 0.07988088 0.005575078 -0.11445406
000070 f6 45 fe 3d 2e 07 62 be a3 e8 c8 3c 07 48 5c 3e
       0.12415688 -0.22073051 0.024524992 0.21511851
000080 cc 30 93 3b 32 22 5f bd af 1d ea 3d 1d 88 0f be
       0.004491901 -0.05447597 0.11431443 -0.14016767
000090 d7 82 ad bd 18 4b 21 be a0 a2 af bd 29 2e 87 3e
       -0.08472221 -0.15751302 -0.0857594 0.26402405
0000a0 b2 15 b3 3d 67 7c 55 3e 98 b3 a2 3d 6d 9e 18 bd
       0.087443724 0.20848237 0.07944411 -0.03726046
0000b0 21 c6 8b be 99 ee f5 3c c2 37 de bc b1 f2 19 3c
       -0.27299598 0.030020999 -0.027126197 0.009396241
0000c0 d4 b9 79 3d af 45 8e 3d 56 e0 29 be 24 47 53 3d
       0.060968235 0.06946885 -0.16589484 0.051581517
0000d0 70 2e ac 3d 63 38 fb bd ae 1c 12 3d 05 bd 45 bb
       0.08407295 -0.12266614 0.035671882 -0.003017248
0000e0 e9 a8 3d 3e 72 2a 21 be 6c e2 b7 3d 26 3d 8e 3e
       0.18521465 -0.15738848 0.089787334 0.27781028
0000f0 f4 c3 27 be 6b 60 de 3a 55 de d3 bd 33 11 9d bc
       -0.16383344 0.0016965991 -0.10345141 -0.01917324
000100 ab 3a 12 3e 1b a4 ba be 5d f4 44 be b4 4e 84 3d
       0.14280193 -0.36453328 -0.19233842 0.06460324
000110 65 e0 84 bb 0d 8a 51 bd d8 61 9b bd b6 ea d9 3d
       -0.00405507 -0.051157046 -0.075870216 0.10640471
000120 30 36 8a 3e 0f 43 21 3d 44 23 89 3e 62 5d 18 3e
       0.26994467 0.039370593 0.26784718 0.14879373
000130 fe 1c f8 3d 54 e3 ea 3e 3e af 3d be 4c ac 24 be
       0.12114905 0.45876563 -0.18523881 -0.16081351
000140 4f d7 3b be ed 11 45 bc d0 87 55 bd 57 0c a1 3c
       -0.18343852 -0.0120282 -0.052131474 0.019659204
000150 8a 33 fa 3d 27 8f 2c 3e 92 d1 8a bb 78 f1 f1 be
       0.122168615 0.16851483 -0.0042364085 -0.4725454
000160 29 22 b0 bd c8 40 c3 bd bd ba 3d 3e ef 04 60 3e
       -0.086002655 -0.095338404 0.18528266 0.21876882
000170 ea 82 24 bd 74 93 31 be ef 61 3f be 92 6b ef 3d
       -0.040163912 -0.17341405 -0.18689702 0.11690439
000180 31 98 81 3d 2d eb 8e 3b 24 93 5e 3e 9b 0a 95 be
       0.06327856 0.004361531 0.21735817 -0.29109654
000190 8c 92 e1 3b 3c 35 63 be d7 92 f2 3d 1d 2a c5 bd
       0.006883925 -0.22188276 0.11844414 -0.09627173
0001a0 5c 52 d8 3d 03 39 a3 bd b0 3c a4 bd b8 c4 23 3c
       0.10562584 -0.079698585 -0.08019388 0.009995632
0001b0 39 96 e5 3b 7a 2e 83 3d dd cf 89 bc fb 6a ca bd
       0.0070064333 0.06405349 -0.01682275 -0.09883686
0001c0 db 23 38 be 6b b5 b8 bd 65 70 39 bd 09 7c d3 3d
       -0.17982428 -0.09018978 -0.045273203 0.10326392
0001d0 f1 58 4d bd 6d e0 89 3e fb c4 b3 3d e2 46 b5 3d
       -0.05013365 0.26929036 0.087778054 0.088514104
0001e0 e8 47 00 3e 63 c1 00 3e e0 b7 9f bb 19 c9 c3 be
       0.1252743 0.12573771 -0.0048742145 -0.38239363
0001f0 ee e4 09 3d d7 96 20 be 71 a5 c2 3e fa 55 5c bd
       0.03366559 -0.15682541 0.38016847 -0.05379293
000200 7b 19 81 3d a2 dd d3 3e 10 a5 d4 bc c2 97 e3 bd
       0.06303688 0.4138003 -0.025957614 -0.1111293
000210 f4 a6 b0 3e e1 65 4f 3e 4a 98 13 be 85 a7 90 3e
       0.34502375 0.20253707 -0.14413562 0.28252807
000220 f3 09 36 3e bc 07 1a 3e 21 0b c6 3d 88 04 b8 bd
       0.17777233 0.15042013 0.096700914 -0.08985239
000230 fd 5d 7b 3d 1b 86 0f 3d 0f 92 01 be 58 15 3e be
       0.06136893 0.035040002 -0.12653373 -0.1856283
000240 f9 11 7c 3c 26 ad 46 be bf 15 9b be 5d cc b7 bd
       0.015385144 -0.19401988 -0.30290028 -0.08974526
000250 c6 21 e1 bc 74 3a 35 be c7 dc 35 be 6d 8f 21 3d
       -0.027481925 -0.1769808 -0.17760001 0.039443422
000260 11 cd d4 bd 9b 40 af 3d bd b8 76 3e a8 e6 44 3d
       -0.10390676 0.085572444 0.2409391 0.048071533
000270 dd fe f2 3d 6c 43 9d 3d 6e 35 e4 3d 4f f6 a8 3e
       0.118650176 0.07678875 0.111430034 0.3300042
000280 35 06 3b 3e 7a b9 a9 3d 36 b8 e4 3b 03 e7 47 3e
       0.18264087 0.0828733 0.0069799675 0.19521718
000290 f2 5b e4 3c e9 9f 81 3e 5e 03 4d 3e d4 a8 bf 3d
       0.027875874 0.25317314 0.20020816 0.09358373
0002a0 4c 0f ff 3a 03 f7 9a 3c 43 38 bb bc de de 07 3e
       0.0019459515 0.018916612 -0.022853976 0.13268611
0002b0 c7 af fa 3d 79 f4 d5 3d ae 43 71 bd e1 94 35 3d
       0.12240558 0.1044702 -0.058902435 0.044331435
0002c0 0f 66 b3 bc 3a f0 56 bd d8 fd b8 ba 8f 5f 5f 3d
       -0.021899251 -0.05247519 -0.0014113737 0.05453449
0002d0 8b fa 3d be 37 b2 f0 bc 8c fd 30 bc fc 6d b9 bc
       -0.18552606 -0.029381854 -0.010802638 -0.022635452
0002e0 37 6e e9 3d b0 13 ae 3d b9 b5 eb bd 0d 76 87 3c
       0.11397975 0.08499849 -0.1150927 0.016535783
0002f0 67 9d f9 3c 3a 05 47 bc 69 34 51 be e3 75 85 3d
       0.030470563 -0.012147242 -0.20430149 0.06516626
000300 08 e4 34 bb 29 9c 7c bd 29 a9 3e 3e 07 4a b1 3e
       -0.0027601738 -0.061672363 0.18619217 0.3462679
000310 c7 6a 4c 3e a5 93 b9 3e d9 cb 26 3e dd 76 93 3e
       0.19962607 0.36245456 0.16288699 0.28801623
000320 bc 49 eb 3e d1 00 4e be 6e f0 dc bd 15 05 16 be
       0.45954692 -0.20117499 -0.10788046 -0.14650376
000330 9e 16 3a 3d f1 e2 b5 bd 70 5d 44 be cb 3e 8e bd
       0.045431726 -0.08881176 -0.19176269 -0.069455706
000340 ff a4 24 bd 81 53 d3 bc 26 21 f2 bc e7 ae c6 bd
       -0.040196415 -0.025796654 -0.029556822 -0.09701329
000350 f3 e2 63 3d 1c 42 cd 3d 9d b5 f2 bd 74 e4 f0 3d
       0.055636358 0.10022375 -0.11851046 0.11762324
000360 75 b9 01 be af 65 0e 3d a3 66 4c 3c 0f 48 e6 bd
       -0.12668402 0.03476494 0.012475642 -0.11244213
000370 64 26 4e be 9e e2 1e be 7d 22 95 bd a1 91 81 3c
       -0.20131832 -0.15516135 -0.07281969 0.015816512
000380 31 c3 e3 bc 0a c0 57 3e b4 5d 84 bc 82 86 0a be
       -0.027803035 0.21069351 -0.016157962 -0.13527873
000390 04 e5 47 ba 70 1d e6 bc a5 b1 d4 bd 67 ec 04 3e
       -0.00076253735 -0.028090209 -0.103854455 0.12980805
0003a0 d3 48 56 be df a2 08 3e f3 b0 c0 bd 88 86 01 3e
       -0.20926218 0.1334338 -0.094087504 0.12648976
0003b0 83 34 f1 3d 07 57 16 be b9 75 af 3d d5 be a8 be
       0.11777594 -0.14681636 0.08567376 -0.32958093
0003c0 fe 4e e1 bd b2 a1 22 3e dc 8f ba bd 4e 00 ea 3c
       -0.11001395 0.15881994 -0.0910947 0.028564598
0003d0 72 89 71 3e ce 99 2f 3e c0 2a 31 be 62 e4 0d be
       0.23587587 0.17148516 -0.17301464 -0.13856652
0003e0 fc 10 fd 3d 71 53 30 3d 61 c7 48 be 96 1c e3 bb
       0.12356755 0.043048326 -0.19607307 -0.006930898
0003f0 ff 23 a7 3d 09 a1 3a be 49 ff 54 3e 9e 66 00 be
       0.081611626 -0.18225493 0.20800509 -0.12539145

conv1.bias f4 [10]
000000 79 1c e5 39 00 73 df b9 de a2 d5 b9 70 fd ae b7
       0.00043699497 -0.00042619556 -0.0004074787 -2.0860432e-05
000010 45 eb 54 39 0e 91 50 3a da 32 0f ba 04 c2 60 39
       0.0002030554 0.0007956185 -0.00054625946 0.00021434581
000020 dc 64 1a ba f0 9c 61 39
       -0.0005889663 0.00021516136

bn1.weight f4 [10]
000000 d3 22 4c 3f 17 ff 41 3f a6 84 18 3f f2 53 2b 3f
       0.7974064 0.7577986 0.59577405 0.66924965
000010 31 39 21 3f 75 30 e5 3e dc 3e 3f 3f ac 93 2a 3f
       0.6297789 0.44763532 0.7470529 0.6663158
000020 91 df 37 3f 7a 0c 07 3f
       0.7182551 0.5275341

bn1.bias f4 [10]
000000 e3 7a bc be b3 37 55 be d5 63 0c be f9 b8 c3 bd
       -0.36812505 -0.20822029 -0.13709958 -0.09556765
000010 48 97 8d bd 64 c9 34 3d f2 9c bf be e9 a9 1f be
       -0.0691362 0.044137374 -0.37424427 -0.1559216
000020 bb 9b 89 be e4 12 ec bd
       -0.26876625 -0.115270406

bn1.running_mean f4 [10]
000000 8e 71 21 bf 3d 75 ce 3d 62 26 cf 3e ee f1 7d 3f
       -0.63063896 0.10080955 0.4045897 0.9919728
000010 95 d7 3a 3e 2b e6 42 bd fe 92 8b 3d 13 c4 8f be
       0.182463 -0.047582787 0.06815146 -0.2807928
000020 2f f2 d0 bc ce a9 a9 be
       -0.025506107 -0.33137363

bn1.running_var f4 [10]
000000 a7 d1 57 3d 0e 0d 7b 3d 82 80 44 3d bc 40 5a 3e
       0.052690174 0.061291747 0.047974117 0.21313757
000010 f0 f4 df 3d 1b ab 7e 3c 89 a7 f7 3c 35 34 06 3e
       0.1093539 0.015543724 0.030231254 0.13105853
000020 5c d4 84 3c 95 4f c9 3c
       0.016214542 0.02457408

conv2.weight f4 [20, 10, 3, 3]
000000 d6 63 a8 3d 4b de 8c 3d 60 06 4d 3d 41 1f 35 bd
       0.08222167 0.068783365 0.050054908 -0.04421926
000010 3d 22 20 bd b7 55 67 be 2e 17 2b be fc 23 02 be
       -0.039095152 -0.22591291 -0.16708061 -0.1270904
000020 d0 d2 d5 3d eb 84 14 3e 15 98 f1 bc 5d 6f 7d bd
       0.104406 0.14503829 -0.029491464 -0.061873782
000030 51 6a ec 3c 5c b3 85 3d 20 62 18 3d 22 ed 9a 3d
       0.02885929 0.06528351 0.037202954 0.07564761
000040 05 14 fb bc 6f 70 23 be 42 25 76 bd 18 98 e1 bd
       -0.030649194 -0.15960859 -0.060094126 -0.11015338
000050 69 13 a7 3c 67 a0 86 3c 63 af 3a bd 30 fe 5e 3c
       0.020394998 0.016433908 -0.045577418 0.013610408
000060 de bb 90 3e 25 d2 30 bc 78 fa ef bd 2d 0a 16 bd
       0.2826833 -0.01079229 -0.11717695 -0.036630798
000070 b4 e4 f8 bd fb 1d 13 be 8d cd 05 3e 35 85 9a 3d
       -0.12152997 -0.14366905 0.13066693 0.075449385
000080 cb ae 22 bd 03 71 ed 3c c9 41 8d 3d 0e 7f 90 3d
       -0.039717477 0.028984552 0.06897313 0.07055484
000090 76 94 91 3d 74 0e cc 3d 88 d5 5b 3e 83 05 59 3e
       0.07108395 0.09963694 0.21468174 0.21193509
0000a0 ec 76 7c 3d 6a 77 41 bd b5 23 d4 3d 01 c4 a0 3d
       0.06163685 -0.047233023 0.10358373 0.07849885
0000b0 73 94 9b bd cd 50 15 3e 9e 2f bb bd ae 96 4b be
       -0.07596674 0.14581604 -0.09139942 -0.19881698
0000c0 dd be 03 3e 76 75 0a ba 48 85 37 be ad fc 19 3e
       0.12865777 -0.0005281785 -0.17921937 0.15037794
0000d0 04 f8 a8 bd c9 a0 05 be 21 75 a0 bd dd dd 9f bd
       -0.0825043 -0.13049616 -0.078348406 -0.07805989
0000e0 6e ac 06 3c a1 02 7c be 14 06 cd bc a0 d8 a0 3d
       0.008219821 -0.24610378 -0.025027312 0.07853818
0000f0 20 24 35 be 09 66 88 be 36 82 85 be dd 70 9a 3d
       -0.17689562 -0.26640347 -0.26075906 0.07541058
000100 e1 a6 b0 bd d5 2a c2 bd 08 73 ad bd 64 b5 ed bc
       -0.086255796 -0.09480826 -0.08469206 -0.029017158
000110 57 37 d5 bd 85 b6 a2 3e 08 f1 66 3d 42 13 89 be
       -0.10410946 0.31779876 0.05638221 -0.26772505
000120 0f db e0 bc 11 dd c6 3c 06 04 d7 3d 57 1d fb bd
       -0.027448205 0.024275335 0.10498814 -0.122614555
000130 05 3d da bc de 19 b1 bd 27 c8 e3 3d b4 41 5d 3d
       -0.026640425 -0.08647512 0.111221604 0.054017738
000140 de 06 d3 3d 80 3b aa bd 64 9a db 3d 48 6b 01 3d
       0.10304044 -0.0831213 0.10722807 0.031596452
000150 2c 93 0f bd a1 f8 a6 3d 25 05 82 bd 3b 89 04 bd
       -0.035052463 0.08152891 -0.063486375 -0.032357436
000160 40 1c 4c bc 70 d0 ff 3d cd 44 63 3d 52 a3 ff bd
       -0.012457907 0.12490928 0.055485535 -0.12482323
000170 b0 7b 35 be 72 64 54 3e fe 7f 42 bc 7d 36 99 3d
       -0.17722964 0.20741442 -0.011871336 0.07481096
000180 23 02 e8 3d a1 27 76 3c 88 6f b5 bd ec b3 08 bd
       0.113285325 0.015024097 -0.088591635 -0.033374712
000190 a6 8e 0e be 2f b1 51 be 56 5d 84 bd f9 4b ad bc
       -0.13921604 -0.20477746 -0.06463115 -0.02115439
0001a0 8d 79 cd bc 5a 24 bb 3d d6 14 70 3e a0 32 22 3e
       -0.025082374 0.09137793 0.23445448 0.15839624
0001b0 ae d9 63 3e a5 4a 39 3e a6 3c 23 3e a9 90 2f be
       0.22251007 0.18094881 0.15941104 -0.17145027
0001c0 05 7b 72 3c 02 4b b6 bc e4 16 11 3e d7 a5 ba bd
       0.014799838 -0.022252563 0.14168888 -0.09113663
0001d0 22 3d cd 3d e0 f7 18 3e f6 71 db bc 15 e5 17 be
       0.10021426 0.14938307 -0.02678774 -0.14833482
0001e0 41 6a 3f 3d 45 22 b7 3c 99 55 e2 bc fb 95 c0 bd
       0.04673219 0.022355208 -0.027628707 -0.094036065
0001f0 ea 41 42 bd eb ba 28 bd 47 07 04 be b4 71 8f bd
       -0.04742614 -0.041193884 -0.12893401 -0.07004109
000200 ae 77 0c be 9c 89 44 bd 90 50 b5 bd 64 40 b8 bd
       -0.13717529 -0.047982797 -0.08853257 -0.089966565
000210 95 b0 e7 3d 35 4f d2 3d 72 83 17 3e a0 87 6e bd
       0.11312977 0.10269014 0.14796236 -0.05823481
000220 32 63 49 3d 86 30 15 3e 13 50 f2 3d b3 01 f4 bd
       0.049166866 0.14569291 0.11831679 -0.119143866
000230 bd 41 ba 3d 9f 59 2d 3c bf 6e eb bc 3d 06 98 3e
       0.0909457 0.010580449 -0.028739331 0.2969226
000240 15 5f b7 bc 5b da 40 bd 44 50 b0 bd a9 fa 10 bd
       -0.022384206 -0.04708324 -0.086090595 -0.0353953
000250 27 66 66 bc df 27 3a be 00 86 08 be e5 6a 99 bb
       -0.014062441 -0.18179272 -0.13332367 -0.0046819323
000260 c9 7d 7b 3c 08 fc 3f 3c 54 85 7e 3d 67 c6 83 bd
       0.015349814 0.011717804 0.06213887 -0.064343266
000270 15 af e9 3d f9 7a 37 bd 95 52 56 be 0f 72 5c 3e
       0.11410347 -0.04479501 -0.2092994 0.21527885
000280 0c 02 d8 3d 92 5c 75 bc 7b 96 41 be 49 2f bc bd
       0.105472654 -0.014975684 -0.1890506 -0.091887064
000290 e9 7c db bc 9c e5 b8 bb fc ea 26 be 0f 7c 57 bd
       -0.02679296 -0.005642606 -0.16300577 -0.052608546
0002a0 bf 70 e8 bd 6a 17 22 be 2b f2 b4 3c 26 5f 3b 3d
       -0.113496296 -0.15829244 0.022088131 0.045745037
0002b0 ee 04 11 bc 8b 1b 03 be 7a 03 83 bd 3e 5b 3b be
       -0.008851273 -0.12803476 -0.063971475 -0.18296525
0002c0 28 16 02 be 99 cd 07 3d 41 58 0a be a8 e7 95 bd
       -0.12703764 0.033155058 -0.13510229 -0.073195755
0002d0 ef 1f 71 bd 44 f3 d3 3c 41 9b db 3d fa e8 19 3c
       -0.058868345 0.025872834 0.10722972 0.009393925
0002e0 02 5b 63 3d ec 72 8f 3d 56 3e 69 3d 79 8c 3b be
       0.055506714 0.070043415 0.056944214 -0.18315305
0002f0 7a 37 0b bd fc d4 dd 3d 12 7c 02 bd fe 78 6b bd
       -0.033988453 0.10831639 -0.031856604 -0.057488434
000300 d2 3b 45 bd 04 c5 d7 3d e9 60 37 3d 7e a5 0f 3e
       -0.048152752 0.105356246 0.044770155 0.14027974
000310 8c 98 90 3d cc e3 19 be d1 d9 dc 3d 86 3e bb 3c
       0.07060346 -0.15028304 0.10783733 0.022856962
000320 87 ab 49 3e 97 48 09 3e 6d 51 0a be 4e 7b c7 bd
       0.19694339 0.13406597 -0.13507624 -0.097403154
000330 6d ef 3a 3e 2c 76 4a 3d 58 d3 d4 3d bf ad 05 be
       0.18255396 0.049429104 0.10391873 -0.1305456
000340 b6 4a 8b be d0 d2 cf be 75 49 5f 3c 98 66 ef 3c
       -0.27205437 -0.40590525 0.013628353 0.029223725
000350 5b 4e 01 bd 4e 83 39 3d ca bc 08 bd 2f 6d 2b bd
       -0.031568866 0.045291238 -0.03338317 -0.041852172
000360 a9 24 23 be 9c 6b 6f 3d 48 cc c3 bd d7 bc 3d 3e
       -0.15931953 0.058452234 -0.09560448 0.18529068
000370 5a b8 18 3d 56 74 09 be b0 21 20 bd 86 58 94 3d
       0.037285186 -0.13423285 -0.039094627 0.07243447
000380 92 de ae 3d 8c 6b 49 3e f2 fa 36 3e 7e 0d 9a 3d
       0.08538546 0.19669932 0.17869166 0.07522105
000390 e8 b3 48 3e 67 6b d2 3c 10 37 19 bd fb a4 f6 3d
       0.19599879 0.025685979 -0.037406027 0.12043186
0003a0 ae 07 6d 3e d9 77 c8 3d db d2 9f bd 67 e3 a6 bd
       0.23147461 0.09788484 -0.07803889 -0.08148842
0003b0 65 ec 2b be 8e 97 24 3d 1a d4 0e bd 6f c6 c4 bd
       -0.16789396 0.040183596 -0.034870245 -0.09608161
0003c0 a1 76 07 be 2f b9 e5 3c 9f 07 b2 3d f9 d1 b1 bd
       -0.13228847 0.028042404 0.0869286 -0.08682627
0003d0 a5 df 7e bd 66 a3 1f be eb c5 d1 bd e8 90 82 bd
       -0.062225003 -0.15589675 -0.10242828 -0.06375295
0003e0 c8 73 4c bd 73 7d 4e 3e 16 9e 8c 3d f8 76 90 bb
       -0.049915105 0.20165043 0.0686609 -0.0044087134
0003f0 83 29 bc 3d dd 82 a6 3d a0 e0 a7 3d f8 fa 7d bc
       0.09187605 0.08130429 0.08197141 -0.01550173

conv2.bias f4 [20]
000000 fc b8 84 39 94 23 3a b8 de 6b 2e 39 44 d4 b0 38
       0.00025314826 -4.437899e-05 0.00016634117 8.4318715e-05
000010 02 c7 d5 b8 be 62 40 39 68 5e ee 36 de c4 b4 38
       -0.000101936996 0.00018347331 7.103943e-06 8.619738e-05
000020 42 b8 16 39 2a 24 b5 b7 7e d5 bb 38 2f 76 b7 38
       0.00014373756 -2.1593722e-05 8.956621e-05 8.7481334e-05
000030 c0 27 0f 37 44 72 f1 b7 2e 56 7e b9 78 66 72 b8
       8.532719e-06 -2.8782648e-05 -0.00024255432 -5.7792728e-05
000040 71 1a 59 39 fc d6 5a b7 c0 ac ec b8 5a f1 6c b8
       0.00020704583 -1.30438675e-05 -0.00011285534 -5.649156e-05

bn2.weight f4 [20]
000000 5c 01 fb 3e 22 4e e5 3e ad 65 fa 3e c1 55 e6 3e
       0.49024475 0.44786173 0.48905697 0.449873
000010 42 59 da 3e e3 52 f2 3e 40 42 ed 3e f2 ca f3 3e
       0.42646223 0.47328863 0.46339607 0.47615772
000020 8d f9 cb 3e 1e d5 f9 3e ff 0b cc 3e 5c a4 d7 3e
       0.3983883 0.48795408 0.39852902 0.42117584
000030 a9 7c 08 3f ad 6a 08 3f 2c 87 f0 3e 28 b9 23 3f
       0.53315216 0.53287774 0.46978128 0.639544
000040 cd 28 f7 3e c1 f4 f9 3e 3c c5 e4 3e 86 8e bb 3e
       0.48273316 0.48819545 0.44681728 0.36632174

bn2.bias f4 [20]
000000 9e a8 b0 be 16 05 e3 be c9 92 88 be 8a 13 31 bf
       -0.34503645 -0.44339818 -0.26674488 -0.6917044
000010 e8 2a 85 be 3d 26 ba be ca 4c d3 be b7 cb f3 be
       -0.26009297 -0.36357298 -0.41269523 -0.4761636
000020 37 c7 ca be 79 b8 8a be f4 c6 29 be 65 31 03 be
       -0.39605114 -0.27093866 -0.16579801 -0.12811811
000030 fd 89 94 be 39 15 35 be 24 81 8f be 4f 1a 64 be
       -0.29011527 -0.17683877 -0.28028214 -0.22275661
000040 a2 72 9f be 6c 7e 19 be 2e 85 c9 bd c7 62 f0 be
       -0.31142145 -0.14989632 -0.09839855 -0.4695036

bn2.running_mean f4 [20]
000000 b5 ef 43 bd 24 ab 6e be 30 ef c3 3d e6 8c 3a 3d
       -0.047836024 -0.23307472 0.09567106 0.045544527
000010 b3 d2 d1 be 60 09 70 bd 47 64 30 bf d2 9d f8 be
       -0.40981063 -0.05860269 -0.6890301 -0.48557907
000020 40 ab e9 be 40 7e 28 3e 1b aa 94 bd 48 3b 32 be
       -0.45638466 0.1645441 -0.072590075 -0.17405427
000030 b1 a8 16 3e d5 35 a1 be 1f 3c 01 bf e9 4c 18 be
       0.14712788 -0.31486383 -0.5048236 -0.14873089
000040 66 49 fe be 76 38 c8 be 4e 07 4e be 3c 9f c6 bd
       -0.49665374 -0.39105576 -0.20119974 -0.0969834

bn2.running_var f4 [20]
000000 d1 83 81 3e 8c 8b 58 3e cd 64 3c 3e 91 42 e7 3d
       0.2529588 0.21146983 0.18397827 0.112919934
000010 08 ac 89 3e 99 27 75 3e 00 c3 29 3e 7c 45 5e 3e
       0.26889062 0.23940887 0.16578293 0.21706194
000020 29 44 10 3e 87 93 79 3e 5d bf 80 3e d8 e4 6b 3e
       0.14088501 0.24372683 0.25146 0.23036516
000030 d0 15 f3 3e 13 18 81 3e d6 f6 ba 3e 2f d9 a3 3e
       0.4747758 0.2521368 0.36516446 0.32001635
000040 7b 48 59 3e d7 23 87 3e a9 69 5a 3e 12 ee ec 3d
       0.21219055 0.2639453 0.21329369 0.11568846

fc1.weight f4 [256, 100]
000000 7a 06 05 bd 66 8a 9f bb 53 74 97 bb 91 c3 97 3c
       -0.03247688 -0.0048687933 -0.004622021 0.01852587
000010 db de 1a bc 56 82 db 38 cf 1f e0 3b 9f d0 19 bc
       -0.009452547 0.00010467011 0.0068397294 -0.009388118
000020 a8 05 09 3c 63 20 00 3c 2d ce 4b bc 6f 39 0c 3c
       0.008363165 0.007820222 -0.012439293 0.008558615
000030 57 28 a3 3b 7a 46 ac 3c 32 f9 c4 3c 71 f7 e9 3b
       0.004979174 0.0210297 0.024044607 0.007140093
000040 75 39 6e bc d8 01 d4 bc cc 0a cb bc 65 6a e8 bc
       -0.014540066 -0.025879785 -0.024785422 -0.028371045
000050 60 36 18 3c ea 19 27 bc 18 bd 13 3b f3 4a 26 3c
       0.009290308 -0.0101990495 0.0022543129 0.010149705
000060 5a c6 2b 3c 38 7c 90 3b 87 7a 86 ba 64 04 cb 3b
       0.010484302 0.0044093393 -0.0010259905 0.0061955918
000070 6f 21 cf bc c0 03 ae bc 2c 4a f6 bc 16 da bc bc
       -0.025284497 -0.021242023 -0.030064665 -0.02305321
000080 68 a3 27 ba 9b 7d e0 3b c3 43 45 3d f0 88 ab bc
       -0.0006394894 0.006850911 0.048160326 -0.02093932
000090 df 85 92 3a 61 85 cb 3c e9 42 23 bc 8f b7 79 3d
       0.0011178813 0.024843873 -0.009964683 0.06096607
0000a0 0f 63 a8 3b c5 42 3a bc 97 e7 77 3c 43 06 61 bc
       0.005138762 -0.011368458 0.015130899 -0.013734403
0000b0 be 0e 14 3c 58 07 8b 3c 09 47 7c bc 3c 9b c1 bb
       0.009036718 0.016971275 -0.0153977955 -0.005908398
0000c0 c3 e3 ec bc 42 16 1b bd c7 2b be bb d1 00 b5 3c
       -0.028917199 -0.037863024 -0.0058035585 0.022095116
0000d0 f8 c2 7a bc e2 f0 c3 bc d6 5a fb ba 1c bc 4a 3d
       -0.015305273 -0.023918573 -0.0019176851 0.0494958
0000e0 1d e5 64 3d 77 eb 14 3d 68 56 a1 3b 1b 9c 39 3d
       0.055882562 0.03635737 0.0049236305 0.04531489
0000f0 25 86 00 bb 47 42 ec bc 24 91 2c 3c 21 3b 7b bc
       -0.0019611206 -0.028840197 0.010532651 -0.015333922
000100 f3 13 6b bc eb 21 5b 3d 99 6d 83 bc a5 43 43 3c
       -0.014348018 0.053499144 -0.016043471 0.011917983
000110 e6 40 58 3d 62 12 ac 3c 40 83 fa bc c3 30 21 3c
       0.052796267 0.02100486 -0.030580163 0.009838286
000120 2a 32 b6 bb f1 58 92 bc a8 c9 4a bc cf 93 1a 3d
       -0.0055601792 -0.017864676 -0.01237718 0.037738618
000130 f7 96 37 bc e0 be 2e bb 61 ba 99 3c 72 bb dd 3c
       -0.011205426 -0.0026664063 0.01876563 0.02706692
000140 f2 e4 a7 3b d8 31 8e bb 6d d3 92 bc b9 1f 0b bb
       0.005123728 -0.004339438 -0.017923081 -0.0021228625
000150 67 f5 6d bc a8 46 b3 3c 71 e6 30 3d 8b ca 9d ba
       -0.0145238405 0.021884277 0.043188516 -0.0012038512
000160 01 a0 cc 3b 80 9b 2a 3c 94 13 82 3c 2f 3c 30 3d
       0.00624466 0.010413051 0.015878476 0.043026146
000170 6d 20 69 3c 70 1f 40 3c 90 db 99 3c f8 f7 e9 bb
       0.014228922 0.011726245 0.018781453 -0.007140156
000180 6d ab 90 bc 87 64 aa bc 67 11 aa bc 22 e7 e5 bc
       -0.017659867 -0.020799888 -0.020760251 -0.028064314
000190 66 55 db ba 89 e4 d1 bd 5f c7 9c bd c4 76 e1 bb
       -0.0016733825 -0.10248668 -0.076552145 -0.006880613
0001a0 dd fb 33 3c 6c c8 a7 bd aa 3c 4e bd b6 56 f8 bd
       0.010985342 -0.08192524 -0.050350823 -0.12125914
0001b0 e4 62 ae bc 3a d1 fa bb ad a6 56 bd f2 e6 98 bd
       -0.02128739 -0.0076543363 -0.05240505 -0.07465924
0001c0 54 bf 5a bd 5a 33 04 3c 64 c2 39 3d 8a a8 10 be
       -0.05340512 0.008068884 0.0453514 -0.14126793
0001d0 23 82 a1 bc a3 3f 4b 3d 72 88 77 bd 08 cf 25 3c
       -0.019715374 0.049621236 -0.06043286 0.010120161
0001e0 42 1c d9 bb 51 e4 b8 bd 60 4e d8 bc e2 01 dc 3c
       -0.006625683 -0.09027923 -0.02640456 0.026856367
0001f0 0a 3c 63 3c 11 85 65 bd a8 a2 2b bd ab d4 18 bd
       0.013869295 -0.056035105 -0.041903168 -0.03731219
000200 a9 60 5c 3d 0f 38 09 3d 4e c6 8a 3d 39 fb 6c bb
       0.05380312 0.033500727 0.06776105 -0.0036160483
000210 c4 b8 1c bd d7 f1 eb bd cb a0 a5 bd 94 35 b5 3d
       -0.038262144 -0.11520737 -0.080873094 0.0884811
000220 ef 62 53 bb ed 4e 17 3c 52 3f ba bd 47 ae bb bd
       -0.0032255014 0.009235126 -0.09094109 -0.091641
000230 eb 01 a6 3d 2f 5a 0c 3c 3b 26 ff bc f9 19 cc bd
       0.081058346 0.008566423 -0.03114616 -0.099658914
000240 3b 9b 91 bd 46 6a 43 bd 11 62 b4 bd 3c 24 8c bd
       -0.07109686 -0.047708772 -0.08807767 -0.06842849
000250 be 26 18 3d 1f 45 28 3d 5c 5d 4b bd c7 09 b7 bd
       0.037146322 0.041081544 -0.04964958 -0.08937412
000260 a8 1a e4 bd cb 24 93 bc e1 68 f2 3c 4e dc 86 3d
       -0.11137897 -0.01796188 0.029591026 0.065849885
000270 81 93 c8 bd 80 16 84 bd 1b be 46 bd 88 98 04 3b
       -0.09793759 -0.06449604 -0.048521142 0.0020232517
000280 ff 90 11 bd 72 62 16 be 8a d8 38 bd 0d e3 f5 bc
       -0.03553867 -0.14685991 -0.045128383 -0.030015493
000290 a0 23 86 3d 5a 6a 92 bd 39 6f ee bc d4 35 90 bc
       0.06549764 -0.07149191 -0.02910577 -0.017603792
0002a0 53 14 f5 ba 80 87 ea bc d9 d5 d1 bc 48 bd 01 be
       -0.0018698074 -0.028629065 -0.025614666 -0.12669861
0002b0 b2 cf ad bd 4b fe 69 bd c0 2d de 3c 9d a3 82 bd
       -0.0848688 -0.05712728 0.027121425 -0.06378863
0002c0 3f 4c 09 bd d2 86 a1 bd 99 3c 3f bd 52 91 93 bc
       -0.03351998 -0.07887043 -0.04668865 -0.01801363
0002d0 74 23 1e bd 9f 76 ef bd 8f 08 96 bd 4c a2 7d 3d
       -0.03860803 -0.11692547 -0.07325851 0.061922356
0002e0 4a 02 ac 3d 66 5e a6 3a dd b1 2f bd 74 0f 6d bd
       0.08398874 0.0012692928 -0.042894233 -0.057876065
0002f0 c3 a5 13 be c5 a4 9e bd d6 17 d7 bc 7b dc e3 bd
       -0.14418702 -0.07746271 -0.026256483 -0.11126038
000300 21 4a b1 bd d8 45 7c bd a6 e5 3b bd 8c 61 ff bd
       -0.08656717 -0.061590046 -0.045873307 -0.124697775
000310 a8 15 ac bc 44 d9 9e bc ab 62 ff 3d b2 07 cf 3c
       -0.02100642 -0.01939071 0.12469991 0.025272224
000320 41 e3 27 80 53 4c 3b 00 40 1c 02 80 4c 97 1c 00
       -3.663108e-39 5.445674e-39 -1.93805e-40 2.625669e-39
000330 e9 7a 01 80 d4 d1 18 00 14 9f 1b 00 ad ee 22 00
       -1.35927e-40 2.279324e-39 2.536625e-39 3.208028e-39
000340 4c a3 5c 00 9d 4a 34 00 ce fd 21 80 10 42 03 80
       8.507446e-39 4.802212e-39 -3.12162e-39 -2.99205e-40
000350 4c fb 21 00 80 c5 16 00 ce 4a 75 02 51 9f 1e 00
       3.12072e-39 2.09123e-39 1.8021225e-37 2.812217e-39
000360 9d 35 1b 80 26 27 15 80 a5 e5 13 80 b9 58 1e 80
       -2.498791e-39 -1.942589e-39 -1.827255e-39 -2.786893e-39
000370 15 e3 19 00 52 27 1e 80 b0 87 15 00 b1 71 15 00
       2.377349e-39 -2.76917e-39 1.977221e-39 1.96933e-39
000380 9b 35 20 80 05 23 17 00 2e 82 1e 00 1d c0 1a 00
       -2.957966e-39 2.124779e-39 2.801765e-39 2.45664e-39
000390 81 12 19 00 9a 7e 7e 00 00 f4 00 8e 66 2e 24 80
       2.302525e-39 1.1616689e-38 -1.58947e-30 -3.322722e-39
0003a0 3d 18 1b 80 92 e6 1b 80 8c 44 12 00 e5 66 1d 80
       -2.488253e-39 -2.562271e-39 1.677629e-39 -2.700141e-39
0003b0 52 b7 1b 80 89 68 1e 00 7a fd 32 00 9a 90 15 00
       -2.545321e-39 2.792565e-39 4.682705e-39 1.980419e-39
0003c0 c1 f8 1b 80 62 e1 33 00 0b ef 17 80 30 3d 1d 80
       -2.568794e-39 4.764462e-39 -2.197969e-39 -2.68518e-39
0003d0 c2 9c 38 00 c0 58 20 80 9e 16 22 00 a9 b2 17 80
       5.199022e-39 -2.970573e-39 3.13052e-39 -2.176308e-39
0003e0 2c 8d 23 80 67 72 1f 80 ec d1 24 80 f1 b3 16 80
       -3.264885e-39 -2.88794e-39 -3.381384e-39 -2.084932e-39
0003f0 8a 8b 1d 00 1f fc 40 86 82 a4 fa 90 3f 8f 2e 90
       2.713287e-39 -3.6296416e-35 -9.886108e-29 -3.4425802e-29

fc1.bias f4 [256]
000000 40 9d a7 bd 83 1b 7d 3d 05 58 02 b0 28 7a 98 bc
       -0.0818429 0.061793815 -4.741881e-10 -0.018612936
000010 aa c3 94 bc 4d 99 e3 96 77 d1 b1 92 ce 31 77 3a
       -0.018159706 -3.6770574e-25 -1.12219075e-27 0.0009429724
000020 7d 00 4f bc 39 90 3f aa f8 12 5c bc de 06 05 bb
       -0.012634394 -1.7014245e-13 -0.013432257 -0.0020298283
000030 b7 2a 67 a8 37 2a a1 bd 78 7e bd b1 32 f9 e2 3b
       -1.2832338e-14 -0.0786938 -5.515002e-09 0.006926679
000040 f6 50 64 3d ac db 61 bc 69 c0 47 bd 2a 19 12 94
       0.055741273 -0.013785284 -0.04876748 -7.376079e-27
000050 3c 9b c3 bc f5 43 9d bb fd 27 b4 3d 92 71 c3 9c
       -0.023877732 -0.004799361 0.0879669 -1.2933375e-21
000060 9c 5d 3d 3d 6a 6d 29 bd a0 b4 67 a7 0f 3a 49 3d
       0.04623185 -0.04136411 -3.2155607e-15 0.049127635
000070 1b 1f d4 bc 4f ac 29 a1 00 51 38 bc 35 21 68 3d
       -0.025893738 -5.7487476e-19 -0.011249781 0.056672294
000080 78 47 32 bc e8 d0 73 3b 04 9a b5 3b f4 86 0d b1
       -0.010881297 0.0037203375 0.0055420417 -2.0594912e-09
000090 dd 1d f5 bc 5f 97 38 3b 43 19 64 b9 4f 0d 67 3d
       -0.029921466 0.0028166396 -0.00021753185 0.056409176
0000a0 dc f9 6d bc 1c 36 e0 3a 24 5f 45 3d 88 55 90 3c
       -0.014524903 0.001710597 0.048186436 0.01761891
0000b0 5c 98 92 bc 7e 64 2d bc ce 51 52 b7 e7 02 d5 ba
       -0.017894916 -0.010583041 -1.2536022e-05 -0.0016251475
0000c0 9b bb 52 3d 61 73 8b bd 03 6c 2f bd 62 dc ae 3c
       0.051448446 -0.06809116 -0.042827617 0.021345321
0000d0 af b7 20 a8 5b 96 2f ba a5 8a ce 3c fe f6 00 bd
       -8.921614e-15 -0.0006698125 0.025212595 -0.03148555
0000e0 bf 68 fb b1 14 71 26 bd 32 69 b0 3d b1 e3 10 bc
       -7.3169697e-09 -0.040635183 0.086138144 -0.008843348
0000f0 6f 24 ee 3c 05 9d 08 bc 34 a1 af bb 66 fd 8f bc
       0.029070107 -0.008338218 -0.005359793 -0.017576884
000100 36 df 2d bd e5 0b ec bc d5 c1 9b b6 a7 e0 88 3d
       -0.0424492 -0.028814266 -4.641925e-06 0.06683474
000110 75 3a 05 9a 98 a8 9c bc 09 14 9d 3c 36 0e d5 bb
       -2.7550977e-23 -0.01912336 0.019174593 -0.006501938
000120 79 83 c8 3a 9a 61 16 bd d4 9e 91 af 08 e0 0b 9c
       0.0015297971 -0.036714174 -2.64882e-10 -4.6280796e-22
000130 97 07 8a 3d a0 87 ec bb fa 74 60 bd 0f d5 a3 3d
       0.06739729 -0.007218316 -0.054799058 0.07999622
000140 30 c4 2b af 4d 3a 45 bc b0 cd bf bc e8 e3 e2 bb
       -1.5622059e-10 -0.012037826 -0.02341351 -0.006924141
000150 7b 73 1c bb 98 7e 69 3d f7 32 03 3d 14 a8 69 bb
       -0.0023872543 0.057005495 0.032031026 -0.003565316
000160 dc 48 b4 bb e2 16 68 af ea fd ee bc 84 12 9d bc
       -0.0055018496 -2.1108407e-10 -0.02917381 -0.019173868
000170 fa 80 96 bc 2f 0a b9 b6 cd f1 89 ae ff c7 df b4
       -0.018372048 -5.514615e-06 -6.272991e-11 -4.1682503e-07
000180 d7 d5 0e ba f2 c7 23 3d 9a 5b ae bc be 9f aa bc
       -0.0005448735 0.039985605 -0.021283913 -0.020828124
000190 0d 53 42 bd 93 25 32 af 27 c9 e6 bc e5 5e 94 3c
       -0.047442485 -1.6202355e-10 -0.028172089 0.018111655
0001a0 5b e0 74 bd 7e ee 4c ab fa 98 cb 3d e9 75 98 a3
       -0.059784275 -7.2806333e-13 0.09941287 -1.652981e-17
0001b0 98 4b 40 3d 45 af 37 bc 10 50 cb 3c 2c 5e 59 3c
       0.04694709 -0.011211221 0.02481845 0.013267081
0001c0 95 11 0e b8 85 74 10 ad 88 26 72 3c 0a 2a a5 3d
       -3.3871813e-05 -8.211325e-12 0.014779694 0.08064659
0001d0 1b 9a 96 bb c6 87 60 3d ef b5 cf b8 64 e5 31 bc
       -0.0045960075 0.054816984 -9.904417e-05 -0.010857914
0001e0 f4 2f e9 8c 9d 71 4c bd 9e 46 60 bd f7 91 17 bd
       -3.5928195e-31 -0.049913038 -0.054754846 -0.037004437
0001f0 8d 3a 40 bc 66 0d b3 39 6d fa 05 bb bb 3d 10 bd
       -0.01173271 0.00034151523 -0.0020443455 -0.03521512
000200 f0 f2 9c bb 98 55 9e bc fa 38 00 bd 09 fa d4 bc
       -0.0047897026 -0.019327924 -0.031304337 -0.025998132
000210 31 50 1d bd 12 ca a1 3c 8f c7 06 bb 6e 50 77 3c
       -0.038406555 0.019749675 -0.0020565724 0.0150948595
000220 1d 9b 95 3d 07 d6 2c 3d 59 15 b2 bd e9 c3 b2 bc
       0.07304976 0.0421963 -0.08695478 -0.021821933
000230 71 90 68 b4 a5 91 94 bb 02 e4 42 bd 1a ca 26 bd
       -2.1659231e-07 -0.0045339637 -0.047580726 -0.040720083
000240 a0 07 32 bd 86 2f 82 bd 16 40 cc ba 52 7d e4 bd
       -0.043464303 -0.063567206 -0.0015583064 -0.111567155
000250 c9 35 96 3d 0a 88 cd b9 af dc b2 bb 0a ed 81 b9
       0.073344775 -0.00039202004 -0.0054584364 -0.00024781405
000260 56 46 4c 88 e2 fb d5 bd f6 bc 41 b9 68 59 77 3d
       -6.1471696e-34 -0.104484335 -0.00018476308 0.060388
000270 e0 07 33 bc 47 bc ad ab e4 79 70 bb 5e 0d 91 3d
       -0.0109271705 -1.2344647e-12 -0.0036693746 0.07082628
000280 f9 cb 0a 3c 76 7c 0b 99 ee f0 59 b8 21 35 a4 bb
       0.008471482 -7.211266e-24 -5.1961215e-05 -0.0050112163
000290 2f 22 3d bd 89 58 35 bc 29 31 5d 3d 0b 54 2a b0
       -0.04617518 -0.011068472 0.05400196 -6.196507e-10
0002a0 2d bd 1c bd 7e a1 18 96 33 77 be 3c 3a e8 20 3c
       -0.03826635 -1.232942e-25 0.023250198 0.009820992
0002b0 50 10 20 3b 55 d3 4c b9 ac 79 39 bb 70 22 1b 3d
       0.0024423786 -0.00019533683 -0.0028301282 0.03787464
0002c0 4c 9f fd bb de cd cb bc 58 98 55 bc ad 70 18 bd
       -0.007739937 -0.024878439 -0.01303681 -0.03721683
0002d0 b8 9e 50 3d 52 b0 6b bd 2a 52 a7 bc 3b b6 59 3d
       0.050932616 -0.0575412 -0.020424921 0.053152304
0002e0 37 9d 42 bc 93 0f 4c bd 56 b4 89 a1 6f 68 36 bd
       -0.011878303 -0.04981954 -9.331216e-19 -0.04453319
0002f0 cf 89 46 3d c1 d5 06 b8 c4 d8 cd bd f4 67 ab bc
       0.04847127 -3.2147163e-05 -0.100511104 -0.020923592
000300 9a a7 d2 3c 44 7a 51 bc a3 e6 d6 a1 09 8c 7e bc
       0.025714684 -0.012785498 -1.4562253e-18 -0.015536317
000310 35 e8 c4 bc 99 a6 f1 ba 98 11 c7 3c 07 7b c0 bc
       -0.024036506 -0.0018436491 0.024300382 -0.023496164
000320 83 39 86 bc 1b 6d 6c b6 4b 8a 94 bc e6 26 15 bc
       -0.016384846 -3.5230248e-06 -0.01813235 -0.009103512
000330 6f 83 0e 3c 50 a0 59 bc cb a1 fe b9 de d5 9b 96
       0.008698328 -0.01328285 -0.000485672 -2.517657e-25
000340 27 64 ef bb 89 b4 9f bc b8 bb 8d bd 54 f1 38 ad
       -0.0073056403 -0.019495266 -0.0692057 -1.0512775e-11
000350 5e 43 41 bb 3a f0 8e bd c1 09 13 bc fa de 9d bb
       -0.0029489617 -0.06979413 -0.0089744935 -0.0048178406
000360 78 b4 f4 94 d9 05 3e bb 4e db a4 3d 02 07 1c 3d
       -2.4708886e-26 -0.0028995185 0.080496415 0.03809262
000370 de 5f 87 3d 48 93 a7 bc 80 0a 59 bc 8b e8 07 3d
       0.06610082 -0.020455971 -0.013247132 0.033180755
000380 11 1f 30 bd d7 ee dd bc 03 1a 82 3d fc 51 40 3d
       -0.042998377 -0.027091427 0.063526176 0.046953186
000390 8a 6c 2b bc 7d 2d bf bc 01 5a 0b bc 9d 4f d8 bc
       -0.010462889 -0.02333712 -0.008505345 -0.02640515
0003a0 81 3f 19 b2 97 b4 a3 3c 4a 49 c7 bc 9e 87 92 3d
       -8.920211e-09 0.019983573 -0.02432694 0.07154773
0003b0 3f 9e d3 bc bb d3 67 bd 55 92 ea bd 2f e6 04 bc
       -0.025832294 -0.056598406 -0.11453692 -0.008111521
0003c0 e4 ad 49 bc 4d c1 fd a7 58 1d aa bb 11 7d b9 bd
       -0.012309525 -7.0431183e-15 -0.0051914863 -0.09057058
0003d0 c0 3f 72 b3 46 14 97 bd 0a 05 4d 3d 54 e1 85 bb
       -5.6402996e-08 -0.07376914 0.050053634 -0.004085699
0003e0 3b ea 5c ba 33 a1 8f bd 1f cb 69 bc c2 11 18 3d
       -0.0008427237 -0.07013168 -0.014269619 0.03712631
0003f0 96 32 dd bd 13 82 18 b9 d8 91 04 b3 07 8b 90 bc
       -0.10800664 -0.00014544306 -3.086629e-08 -0.017644418

fc2.weight f4 [120, 256]
000000 10 8d 47 3b 63 c9 0a bd e4 9d 26 80 ff b5 b8 bb
       0.003044907 -0.033883464 -3.54639e-39 -0.00563693
000010 e1 75 32 bc 0b 42 03 00 9b 8d 06 80 85 2c 06 3c
       -0.010892362 2.99198e-40 -6.01811e-40 0.008189325
000020 ba a6 72 bc 9a 11 05 80 6b 30 c9 35 74 5f 95 af
       -0.0148102585 -4.65492e-40 1.4989758e-06 -2.7170766e-10
000030 f2 93 15 00 34 6a e7 3b 8e 3a 16 80 25 0d fe bc
       1.981618e-39 0.007062221 -2.041386e-39 -0.031012127
000040 6b f6 e5 bc 73 f5 5e b1 d7 00 cb bb 4b 70 10 80
       -0.028071603 -3.2444774e-09 -0.0061951685 -1.509651e-39
000050 43 89 50 bc 60 f3 ea bc 79 37 1e bd 7d 3b 04 80
       -0.012728038 -0.028680503 -0.03862712 -3.88682e-40
000060 c1 c3 86 3b 8a 92 31 3a 9f f9 16 00 de 0b ca bc
       0.004112691 0.000677385 2.109928e-39 -0.024663862
000070 b3 94 89 ba 0d 94 06 00 73 a7 f4 38 ed b8 4c bd
       -0.0010496586 6.04124e-40 0.000116660165 -0.049981046
000080 24 af 2d bc 7f dd f8 3b 52 72 3f 3c e4 65 1d 80
       -0.010600839 0.0075947638 0.011684971 -2.699781e-39
000090 cb 8e 9d bc 85 8b 42 bc 27 ae 50 1b 1d d5 b7 bc
       -0.019233128 -0.011874084 1.7261628e-22 -0.022440488
0000a0 d6 14 30 3c 93 e9 cc 3c bb e3 56 bd a2 2e 1f 3c
       0.010747155 0.02501372 -0.052463274 0.009715708
0000b0 e8 cd 5c bc 3f ad 45 3c c5 d3 0f 00 b5 5f ff bc
       -0.013476826 0.012065231 1.453501e-39 -0.031173566
0000c0 34 fc 9b bc 56 a5 b1 bc f5 52 45 3d 5e c9 52 bc
       -0.019041158 -0.021685284 0.048174817 -0.0128653925
0000d0 ce fa 01 00 09 9b 9a 26 34 5d 70 bd 23 5e 12 3b
       1.81807e-40 1.0727919e-15 -0.058682635 0.0022333942
0000e0 9f 28 1e 8f eb 7e 42 bb f9 a9 b5 bc 6b 78 7d 3b
       -7.797825e-30 -0.00296777 -0.022175776 0.003867651
0000f0 00 5b 31 bc b2 a6 0f bc 98 7a 93 3b 59 13 45 3c
       -0.010824919 -0.008767771 0.0045006983 0.012028539
000100 a3 ed 1e bd f3 84 30 3d 9f 7d 06 80 18 78 60 bd
       -0.038800847 0.04309554 -5.96077e-40 -0.05480203
000110 62 75 38 00 58 fc ab 39 a0 98 b6 3c a0 db be 3c
       5.184897e-39 0.00032803672 0.022289574 0.023298085
000120 39 2f 45 3c d9 27 fc ba b8 40 34 00 b0 29 16 80
       0.012035185 -0.001923795 4.798663e-39 -2.035336e-39
000130 88 e8 d6 bc ab e6 1d 3c d3 19 36 3d 05 fe 2e bd
       -0.026233926 0.009637515 0.04445822 -0.04272272
000140 fa 54 08 00 35 44 62 38 23 20 29 3c 6b 77 7b 3b
       7.65168e-40 5.394612e-05 0.010322603 0.003837074
000150 54 bd f5 3a 40 bf eb bc b0 bd ad bc c8 62 9f 3b
       0.0018748441 -0.028777719 -0.021208614 0.0048640706
000160 10 75 70 3c 4a fc 5f ac 05 9d ad 3b 00 10 2f 3c
       0.014676347 -3.1830255e-12 0.005298259 0.010684967
000170 47 5c d2 36 9e b2 16 80 ee ff d3 ab 27 45 35 80
       6.26923e-06 -2.084457e-39 -1.5063486e-12 -4.892088e-39
000180 e4 39 0a bd ff 5e 2a 3b 01 5a c8 bc 5f a6 92 bc
       -0.033746615 0.0025996563 -0.02445698 -0.017901598
000190 5e 5b e5 39 1d d3 12 80 09 6e c1 3c 23 b6 80 3c
       0.00043746358 -1.728772e-39 0.02361204 0.01571185
0001a0 27 bf 68 bc 7b 75 17 00 68 d4 4d bd 56 23 1f 00
       -0.0142057305 2.15436e-39 -0.050251395 2.859577e-39
0001b0 8f 08 ad bc 2c 7c 2c bb d2 65 03 3d 8c e1 44 bc
       -0.021122245 -0.002631913 0.032079525 -0.012016665
0001c0 c2 01 0d 80 b6 4a 1b 00 d5 e3 a1 3c 00 1b 92 bc
       -1.194492e-39 2.50636e-39 0.01976196 -0.01783514
0001d0 e3 05 f4 3c ee 15 29 bd 73 51 05 80 7e 83 43 3c
       0.029787963 -0.04128068 -4.88396e-40 0.011933206
0001e0 16 69 c4 0d 05 c3 9f 3b 04 07 33 3b b8 11 3b bb
       1.2104731e-30 0.004875543 0.0027317414 -0.0028544497
0001f0 3a 9a 88 3c fd 54 73 bc 95 fd cf 35 97 c1 5d 3a
       0.016675103 -0.014851806 1.5496504e-06 0.0008459328
000200 10 1b a9 31 bb 38 96 bc ad 55 20 3d c1 8f 86 ba
       4.921624e-09 -0.018337598 0.039144207 -0.0010266231
000210 1b 4b 9b 3d 5c 96 6b bc 86 d1 69 21 e4 98 e3 bc
       0.075826846 -0.01437911 7.9220773e-19 -0.027782865
000220 7d e6 18 bd 92 dd 94 bc 5c 91 7f bb 99 16 19 ba
       -0.037329186 -0.01817206 -0.0038996553 -0.0005839854
000230 e0 8a 3e 80 94 6f 0c bc b3 60 78 bb 95 e7 79 bb
       -5.74362e-39 -0.008571524 -0.0037899434 -0.0038132418
000240 4c be c7 ba 2b d2 27 3d a0 fe cb 3b c0 4a 82 3c
       -0.0015239208 0.040971916 0.006225422 0.015904784
000250 97 47 5c bd 7c bf dd 8e 25 55 0b 3b 38 66 87 20
       -0.05377921 -5.46651e-30 0.0021260467 2.2937532e-19
000260 e9 c1 2b 87 6f c8 ad 3c 5b d9 ae bc 86 da 84 bc
       -1.2921595e-34 0.021213738 -0.021343878 -0.016217481
000270 d3 60 12 34 c7 ce 24 00 8b a5 70 3d 71 90 07 bd
       1.3632534e-07 3.380256e-39 0.058751624 -0.033096734
000280 e6 f7 67 3c 95 02 8c 96 7a 44 34 00 96 c1 38 31
       0.014158225 -2.261985e-25 4.80001e-39 2.6885565e-09
000290 f4 f8 a5 3b d5 59 df 3a 51 2d 9c 3b 7f a9 3c 26
       0.005065078 0.0017040322 0.0047661443 6.5455313e-16
0002a0 8d a6 ed 39 13 45 38 00 a3 c7 74 bc 20 c2 40 bc
       0.00045328253 5.167567e-39 -0.014940175 -0.011765033
0002b0 12 a1 e8 3c be d8 0b 1f 6c ca a4 2d d0 e0 5c 3c
       0.028397117 2.961368e-20 1.8734535e-11 0.013481334
0002c0 56 24 97 9a c8 0a db bc 32 43 d9 38 4b 2c e7 bb
       -6.251084e-23 -0.02673854 0.000103598824 -0.0070548407
0002d0 2b 3b af bc 26 2b 1e 3c dd 8a 60 b3 80 59 8f bc
       -0.021390518 0.009653842 -5.228036e-08 -0.017498732
0002e0 53 38 7d bc 55 78 aa 3c 57 8a 10 80 55 62 b2 3b
       -0.015455323 0.020809332 -1.518995e-39 0.005443851
0002f0 b7 4e 1b bd 01 52 25 2d 0f 43 df b9 c0 dc 9f 3b
       -0.037916865 9.397373e-12 -0.00042583837 0.0048786104
000300 c8 29 9f bc d2 a3 4d b6 03 55 34 80 98 d6 df 3c
       -0.019429103 -3.0642736e-06 -4.805942e-39 0.027324006
000310 de 3a 56 35 49 fb 04 3b a5 33 99 3b ca de 59 3c
       7.9806875e-07 0.002029138 0.004675346 0.013297746
000320 6d 33 51 37 71 fc 00 80 a5 4c 9d 37 04 06 00 33
       1.2469344e-05 -9.0559e-41 1.8751549e-05 2.9807794e-08
000330 e5 dc 42 3c bd 0a 67 3c f4 ed 6c 11 4e 1a 1e 00
       0.011893486 0.014101681 1.8690442e-28 2.764501e-39
000340 70 a5 61 3c d2 b5 28 3a 39 56 5e 3c 29 00 39 00
       0.0137723535 0.0006435785 0.013570362 5.234681e-39
000350 ec 5e 0e 34 60 a4 8f 3b 20 65 67 35 32 18 91 33
       1.3259313e-07 0.0043836087 8.620136e-07 6.75649e-08
000360 12 00 12 00 a1 f1 16 af 74 f2 14 bd e4 36 09 3d
       1.653064e-39 -1.3728264e-10 -0.036364034 0.033499613
000370 c0 7b 01 bd 10 63 d0 3b 03 1f 8a 33 77 2a c3 3c
       -0.031612158 0.0063594654 6.431767e-08 0.02382396
000380 e4 d4 eb 3a d7 82 d7 bb 73 e4 b3 bc 32 4b f1 ba
       0.0017992523 -0.0065768766 -0.021959519 -0.0018409251
000390 6e 4b 07 b7 63 85 6d bc 73 9a dd 3c 99 33 2f 3c
       -8.064189e-06 -0.014497134 0.027051186 0.010693454
0003a0 3e 4e 0d 00 f6 75 1f bd 11 6b 21 bc 37 b3 63 bd
       1.22193e-39 -0.038930856 -0.009852187 -0.055590834
0003b0 d8 4d fe 3a 5f 20 8c 3c 65 92 9d bb ce 90 b7 3c
       0.0019401861 0.01710528 -0.0048087114 0.022407915
0003c0 30 6c b5 36 84 9b 12 00 bd a2 d2 3a 68 87 7e 3b
       5.406815e-06 1.708827e-39 0.0016070228 0.0038838033
0003d0 85 5f 40 a0 0c a3 62 3c 93 7a e4 bc 35 9a 56 bc
       -1.6294637e-19 0.013832819 -0.02789048 -0.013098289
0003e0 d6 00 92 3b 52 62 bf bc 77 ae 7c 3b a1 fc 1a ba
       0.004455666 -0.023362312 0.0038556138 -0.00059122784
0003f0 be a6 b4 bc 1d 5c 8e 1f a4 ef 08 00 07 ee 64 3c
       -0.022052165 6.029173e-20 8.20651e-40 0.013972766

fc2.bias f4 [120]
000000 d3 ba ce 3d 27 f8 e0 3d 52 b2 cf 3d b0 f1 d3 3d
       0.10094228 0.10984831 0.10141434 0.103488326
000010 75 a8 8e 3d 55 ac ae 3d 3a 76 93 3d 67 b1 6b 3d
       0.069657244 0.085289635 0.07200284 0.05754223
000020 df 5f 86 3d 6c 0b 4f 86 bc bd bb 3d b1 80 b9 3d
       0.06561255 -3.8940764e-35 0.09167048 0.09057749
000030 10 04 8d 3d 27 29 55 3d 49 d2 97 3d db 22 ee 3d
       0.068855405 0.0520412 0.074131556 0.11627742
000040 42 19 a4 3d 20 e7 ab 3d 48 e1 b7 3d af 85 89 3d
       0.0801263 0.08393693 0.08978516 0.06714951
000050 c1 8f 17 3d e1 46 a4 3d 4e 6b 6b 3d 87 37 c5 3d
       0.03700233 0.080213316 0.05747538 0.096297316
000060 ce 57 73 3d f7 a7 a9 3d 23 ba d5 3d 88 30 bf 3d
       0.05940991 0.0828399 0.104358934 0.093354285
000070 54 42 e8 3d 86 be 49 3d 0f 49 bc 3d f1 78 62 3d
       0.11340776 0.049253963 0.09193622 0.05529112
000080 51 9d a9 3d fd cd 0c 3e 69 16 d5 3d 9f 02 c4 3d
       0.08281959 0.13750453 0.10404665 0.095708124
000090 43 a2 9b 3d 69 10 be 3d 9e 03 a8 3d 13 9b c1 3d
       0.07599308 0.09280474 0.08203815 0.09453406
0000a0 36 47 95 3d c6 81 8c 3d ad b4 a3 3d 9b 19 d2 3d
       0.07288973 0.0686069 0.079934455 0.1025879
0000b0 70 33 bd 3d 98 65 e7 3d 3f cc b3 3d 3c 0a cb 3d
       0.092383265 0.11298674 0.08779191 0.099140614
0000c0 16 70 89 3d 86 1f 93 3d fa 3b c9 3d f1 5e b0 3d
       0.06710832 0.07183747 0.09825893 0.08611859
0000d0 37 68 7c 3d 9f 30 96 3d 48 16 33 a5 4e 9c f1 3d
       0.061622825 0.073334925 -1.5533324e-16 0.11797391
0000e0 58 1d a3 3d ab 5a 86 3d c0 a9 db 3d 34 a4 c0 3d
       0.07964581 0.06560262 0.107257366 0.09406319
0000f0 f2 9a c3 3d 47 ff bc 3d e1 c1 ce 3d ab a6 b9 3d
       0.09551038 0.09228378 0.10095573 0.090649925
000100 c2 7d dd 3d e7 75 ae 3d 15 23 a1 3d 30 55 e1 3d
       0.10815002 0.08518582 0.078680195 0.11002576
000110 b4 99 c0 3d 0e 22 72 3d 5f 6b ca 3d 2b 1c 9d 3d
       0.094043165 0.05911451 0.09883761 0.07671388
000120 80 25 d9 3d 1b 7e 80 3d 7d eb 04 3e e4 2d 6b 3d
       0.10602856 0.06274053 0.12980457 0.05741681
000130 7e 80 a5 3d c6 27 9e 3d c3 86 b5 3d 72 a4 97 3d
       0.080811486 0.0772243 0.088635944 0.07404412
000140 1f 50 86 3d 5f 7c b6 3d 4e 80 f2 3d 6f 6f 80 3d
       0.06558251 0.08910441 0.118408784 0.06271254
000150 bf 25 b3 3d 4d 3d 87 3d 1a 19 8b 3d 6d 2d d4 3d
       0.08747434 0.06603489 0.06791897 0.10360227
000160 8f 78 98 3d f0 85 c8 3d 7f b6 90 3d ac 2d 98 3d
       0.0744487 0.097911716 0.07066058 0.07430586
000170 fe 97 82 3d 41 17 a5 3d 2f 10 94 3d 89 b5 ed 3d
       0.063766465 0.08061076 0.07229649 0.11606891
000180 8c b9 ab 3d d9 90 ab 3d a8 03 78 3d 97 c6 98 3d
       0.08385 0.08377237 0.060550362 0.07459753
000190 a5 0f 72 3d b9 d2 b0 3d a4 f9 9e 3d 5d 27 c5 3d
       0.05909695 0.08633942 0.07762459 0.096266486
0001a0 fb bf 8c 3d e1 06 e5 3d ae 54 d2 3d ac 36 b2 3d
       0.06872555 0.11182953 0.102700576 0.08701834
0001b0 9f fa f3 3d e0 40 ce 3d 2c 1f fc 3d 01 9f 94 3d
       0.119130366 0.10070968 0.12310633 0.0725689
0001c0 ab e2 92 3d 4e 82 e1 3d 2c 75 d5 3d 7f 4e 79 3d
       0.0717214 0.11011182 0.104227394 0.060865875
0001d0 f3 2d c2 3d a8 e5 c1 3d 20 44 97 3d d1 3d b4 3d
       0.0948142 0.094676316 0.07386041 0.08800853

fc3.weight f4 [1, 120]
000000 00 fc 01 be 41 b0 0e be 77 54 15 be 08 08 0c be
       -0.12693787 -0.13934423 -0.14583002 -0.13674939
000010 6f d1 38 3e 43 7f 24 be 8e 04 cd bd 99 37 dd bd
       0.18048643 -0.16064171 -0.10010634 -0.1080162
000020 11 c2 26 3e c6 4f be 30 37 db 13 be 75 dd 5c 3e
       0.16284968 1.3846992e-09 -0.14439093 0.21568854
000030 a9 69 0d be 82 f6 fb bd 30 7f 0c be ae 34 75 3e
       -0.13809837 -0.12302877 -0.13720393 0.23945877
000040 42 19 61 3e 10 44 01 be 13 ef 09 be 88 79 2d 3e
       0.21982291 -0.1262362 -0.13470106 0.16940892
000050 50 6f bb bd 07 e3 c8 bd 4e a9 00 be 33 85 65 3e
       -0.091520905 -0.09808927 -0.12564585 0.22414093
000060 9f 48 ea bd a9 35 e2 bd 88 fa 25 be 18 59 b9 bd
       -0.114396326 -0.11045391 -0.16208851 -0.090501964
000070 17 95 0b be 07 27 51 bd c2 24 fd bd f6 9a 13 be
       -0.13631092 -0.05106261 -0.123605266 -0.14414582
000080 1e 3a 4b 3e e1 2c 8b 3e e7 b0 21 be 5f 86 78 3e
       0.19846389 0.27182677 -0.15790139 0.24270009
000090 82 2f bd bd 01 e4 4f 3e a2 98 0e be 65 8a d0 bd
       -0.09237577 0.2030182 -0.13925412 -0.10182647
0000a0 af 82 ff bd 63 c7 d3 bd 3b f2 20 be 55 0c 05 be
       -0.12476098 -0.103407644 -0.15717404 -0.12992986
0000b0 b4 72 c5 3d 7e b0 64 3e ee 13 13 be 35 07 1c be
       0.096410185 0.22332951 -0.14363071 -0.15237124
0000c0 4b 9b 3f 3e 53 2d 9b bd 95 d0 81 3e e2 95 42 3e
       0.18711583 -0.07577004 0.25354448 0.19002488
0000d0 4f c7 23 3e 06 f3 b8 bd f0 cb dc 38 c8 9e 36 be
       0.15993999 -0.09030728 0.00010528404 -0.17834008
0000e0 0d 43 4b 3e d9 24 05 be e5 40 58 3e 84 d5 1f 3e
       0.19849797 -0.13002338 0.21118505 0.15608793
0000f0 cd 3e e8 bd 57 eb 08 be 56 8f 15 be 01 93 54 3e
       -0.11340103 -0.13371025 -0.1460546 0.20759203
000100 e2 88 5f 3e cb b7 3d 3e 51 b4 56 3e b7 57 66 3e
       0.2182956 0.18527143 0.20967223 0.22494398
000110 3b f0 1b be 73 3b 62 bd 09 d4 01 be f6 67 33 3e
       -0.1522836 -0.055232476 -0.12678541 0.17520127
000120 01 3f 1c be dd cd ea bd 49 16 2e be 71 12 11 be
       -0.15258409 -0.114650466 -0.17000689 -0.14167191
000130 c4 c7 c3 bd 1a d1 0a be bd a3 4e 3e dd 4a fb bd
       -0.09559587 -0.13556328 0.20179649 -0.122701384
000140 1d 60 a0 bd c3 d0 d2 bd f2 df 60 3e 20 10 51 3e
       -0.07830832 -0.102937244 0.21960428 0.20416307
000150 00 3a 14 be 29 96 10 be c5 61 10 be 05 07 17 be
       -0.1447525 -0.14119782 -0.14099796 -0.14748771
000160 ac 95 13 be d3 f5 15 be 7c d2 d7 bd aa 72 e1 bd
       -0.14412564 -0.14644556 -0.105381936 -0.110081986
000170 3d 19 be bd af 3e 5a 3e c5 50 fb bd cb b1 22 be
       -0.092821576 0.21312974 -0.12271265 -0.15888135
000180 aa 91 1d be 4b d4 4c 3e 82 88 d8 bd e6 a1 40 3e
       -0.15387598 0.20002858 -0.10572912 0.1881176
000190 92 98 14 be 9f 75 ea bd 5a 7d 4c 3e cf 25 05 be
       -0.14511326 -0.11448216 0.19969693 -0.13002704
0001a0 6d 22 0c be 4c 41 5e 3e 94 6d 49 3e 60 77 0c be
       -0.13685007 0.21704596 0.19670707 -0.13717413
0001b0 c4 ad 55 3e 3f 9b 3d 3e 50 1f 05 be 0d 10 fe bd
       0.20867068 0.18516253 -0.13000226 -0.12405405
0001c0 72 d4 04 3e 7c 76 6a 3e c7 c6 09 be c8 bb 08 be
       0.12971666 0.2289676 -0.13454734 -0.13352883
0001d0 0d 0f 08 be b9 06 ec bd a0 1a e3 bd bf fe 58 3e
       -0.13286991 -0.1152472 -0.11089063 0.21190928
