k_fold_model_1/model9.pt (torch, 242935 bytes, 17 tensors)

conv1.weight f4 [10, 1, 15, 3]
00000000: 0ce6 ad3d 35a7 69be 7d8d 923d 1f30 b73c
00000010: 4c6e b3bd 172d 813e 4bb4 b4bd d439 ef3c
00000020: 0d62 fcbd 45aa f4bd 3ff8 6cbe 95ae 3fbc
00000030: b407 453b b595 01be 9890 23bc 531a 5a3e
00000040: 70e5 ba3d 6a63 8e3e 6d04 063c 2928 013e
00000050: 06a8 70be 7120 e1bd 7454 2c3c 2633 eabe
00000060: 6ecc 08be 00fa 183e ab8a 41be acf1 1dbe
00000070: c99f a43e e925 39be fae1 36bc cef3 283e
00000080: 4165 e2bd 9c14 543e d743 50bc 6647 2bbe
00000090: e3d0 003e 4b18 2c3d 29e3 d3bd d209 4dbe
000000a0: 4a0e 023e cd43 92be ea50 9cbd 4c97 153d
000000b0: e776 ebbc 34f1 343c eaea 4bbe 6723 893d
000000c0: 607f 9db8 e25e d83d 29f9 cabc b0be 6f3d
000000d0: dc96 11be a6cc e73d b873 b93d 599e adbe
000000e0: 9b26 463e d42b 10be 1921 3ebe 7921 fdbd
000000f0: eadd 1b3d 179d 633e 6c41 12be cbe6 40be
00000100: cd29 d83e a442 abbd a7e0 f0bd 7932 cf3d
00000110: 09a8 78bd b944 f5bd b9e4 303d 1ffc 04be
00000120: c6fe 16be b7da acbd 3934 163d e40d 893e
00000130: 276a b6bd 7a00 8f3e 2887 d13c a835 a1bd
00000140: 9f75 7dbc bb0c 74be 398c b7be a995 7f3e
00000150: bb45 953d f837 423e 6c3e 503c c5df e23e
00000160: 326e 5c3e b761 15be 9096 063e 404b 3fbe
00000170: 6232 8b3d f4d1 99bc 7620 763d 1403 213e
00000180: 7361 c7bd a97a 09bd 6d5f 04be 10f9 753d
00000190: 3075 233e 2e29 0bbc fd6a 313d 00dc 453d
000001a0: 4590 c3bd 303d 24bc df2e df3d 245e 5dbd
000001b0: f546 46be 64b4 ee3d a741 a0bd 6a40 973d
000001c0: 586f 9f3c 975b 303e 4ebe 26be edde 463d
000001d0: 4d53 f83c 415f 093e a933 a7bd 6090 1ebd
000001e0: f465 183e d594 0cbe 499f 59be e155 9fbe
000001f0: 22e4 1d3e 69e7 78be e0f3 af3e 73a4 ab3e
00000200: a778 82bd c486 133f ffc5 883e 0003 89bd
00000210: 6d37 12be 24be 8ebe b337 13be 6c7e 383e
00000220: b7a4 4f3d add7 ad3d 20ff d33c 3888 6fbd
00000230: 7c4b 9f3e 9e8d 793e 445b 483d c130 4e3e
00000240: b1a7 553e 906e f83d 105f 9a3e d359 cdbd
00000250: acd7 8f3d 6e5e c73b 041d be3a 2afc 90bd
00000260: 168b 4cbe 87f9 89be 3132 2fbe 41f9 39bc
00000270: 4dcd c2bd 1e1d 83bb 24c6 47bd e548 bc3c
00000280: a1d7 b53c 8183 7c3d 10b7 52be e7dd 54bd
00000290: 497b 27be 7a0b 463d a16a 3abd f778 e63d
000002a0: c6ed 61be f228 99bd e88b b8bc e244 3cbe
000002b0: 281e 8dbd dab8 9dbd 5633 00be 9bc6 2bbe
000002c0: 71ef e93d 0b7b c9bd c4d2 b5bd a914 e73c
000002d0: 8b3b 20bb a690 40bc 0f76 01be 7e34 db3d
000002e0: d210 27bd a797 963d ce2b 00bd 2fe4 ac3d
000002f0: 3127 003e 96b4 bcbd df1e 98bd cfde f33c
00000300: 7e3e ffbc 3558 e23b f645 80bd 8a5c 58be
00000310: 7cc9 723d 8a90 19bd 1c59 9b3d 126a 9a3d
00000320: a9a1 213e b7c7 443c 4019 77bd 252b d7bd
00000330: 2f83 f03b 45b2 03bd 4632 afba 1038 1bbe
00000340: ce00 5ebe c171 e6bd 534c ac3d 0873 c0bd
00000350: 2755 8d3d cd7c c63e 388a 3a3e 5604 d73e
00000360: 0b8d 033f d56a 303c 7b3a 973e 85f7 3e3e
00000370: 3ec7 2cbe ecb2 7bbe b589 c9bc 0690 0dbe
00000380: a860 42be 4e4c 08bd 6575 d13d b71d b0bc
00000390: 2a77 eebc b531 b73d d376 25bd a09b 49be
000003a0: 4ed1 0b3e c435 0e3e 1210 063d f884 afbd
000003b0: 4b90 e0bb 203f 7ebe d569 da3a d4a9 893e
000003c0: a622 48be a8da 0f3e 4a22 963d 708c 08be
000003d0: 99ac 87bd fdc3 2d3e 9c95 d1bd 55d3 3a3c
000003e0: 2975 833d acdf 18be 29fd 863d 93b8 043e
000003f0: fda8 c7bc 6b9a 303e ca39 3bbe 949c e03d
0.084911436 -0.2281769 0.07155893 0.022361813 -0.08761272 0.25229713 -0.08823451 0.02920238
-0.12323389 -0.11946539 -0.23141573 -0.011699338 0.0030064406 -0.12654765 -0.009983204 0.21299104
0.09125793 0.27810222 0.008179766 0.12612976 -0.23501596 -0.10992516 0.010518182 -0.45742148
-0.13359234 0.14939117 -0.18900554 -0.15424222 0.32153156 -0.18080868 -0.011162275 0.16499254
-0.11054469 0.20710987 -0.012711487 -0.16726455 0.12579684 0.042015355 -0.10346062 -0.20023277
0.12700763 -0.28567353 -0.07632621 0.03652124 -0.02874322 0.011043835 -0.19913831 0.066962056
-7.510069e-05 0.105649725 -0.024777012 0.058531463 -0.14217705 0.113183305 0.09055275 -0.33909872
0.19350664 -0.14079219 -0.18567313 -0.123599 0.03805343 0.22227894 -0.14282769 -0.1883804
0.4221939 -0.0836232 -0.11761599 0.10117049 -0.060707126 -0.119759984 0.043186877 -0.12986802
-0.14745626 -0.08440154 0.036670897 0.2676841 -0.08906966 0.2793005 0.025577143 -0.07871562
-0.015469938 -0.23832981 -0.3584917 0.24959435 0.07288691 0.18966663 0.012710195 0.44311348
0.21526411 -0.14588057 0.13143373 -0.1868105 0.06796719 -0.018776871 0.06008955 0.1572383
-0.09735384 -0.033564243 -0.12927027 0.060051978 0.15962672 -0.008493705 0.043314923 0.04830551
-0.095490016 -0.010024354 0.10897612 -0.054044858 -0.19363005 0.116555005 -0.07825022 0.07385333
0.019462273 0.17222439 -0.16283533 0.048552442 0.030313158 0.13415243 -0.0816415 -0.038711905
0.14882642 -0.1372865 -0.21252169 -0.31120208 0.15419057 -0.24307026 0.3436575 0.33523902
-0.06370669 0.5762751 0.2671356 -0.06690025 -0.14278956 -0.2787944 -0.14376716 0.18016976
0.050694194 0.084884025 0.025878489 -0.058479518 0.31112278 0.24370429 0.048915163 0.20135786
0.2086475 0.12130463 0.30150652 -0.10026898 0.07023558 0.006084255 0.0014504497 -0.070793465
-0.19974932 -0.26948187 -0.1710899 -0.011350931 -0.09511814 -0.004001274 -0.048772946 0.022983978
0.022197546 0.06164885 -0.20577645 -0.051969435 -0.16355623 0.04835079 -0.045511845 0.11253541
-0.2206336 -0.07478513 -0.02252765 -0.18385652 -0.068905175 -0.07701273 -0.12519583 -0.1677498
0.11422623 -0.09837922 -0.08878091 0.028208094 -0.0024449553 -0.011753237 -0.12642692 0.107033715
-0.040787525 0.07353144 -0.031291775 0.0844196 0.1251495 -0.092141315 -0.07427763 0.02976933
-0.031157728 0.0069074878 -0.06263344 -0.21129051 0.05927418 -0.03749136 0.07585356 0.075397626
0.15784325 0.012010506 -0.060326815 -0.10506276 0.007339857 -0.032152433 -0.0013366423 -0.15158105
-0.21679994 -0.112521656 0.08412995 -0.093969405 0.06901007 0.3876709 0.18216789 0.41995496
0.5138709 0.010767658 0.29536805 0.18649109 -0.1687288 -0.24579972 -0.024601797 -0.13824472
-0.18982184 -0.033275895 0.10227469 -0.021498544 -0.029109556 0.08945028 -0.040396523 -0.19688272
0.13654062 0.13887697 0.03273017 -0.08570284 -0.0068531386 -0.24828768 0.001666362 0.2688738
-0.19544467 0.14048254 0.07330759 -0.13334823 -0.06624717 0.16969295 -0.10233614 0.011402925
0.06418831 -0.14929074 0.06591255 0.12961034 -0.024372572 0.17246406 -0.18283764 0.10967365

conv1.bias f4 [10]
00000000: 1558 2fba 0039 25ba 0e10 03ba fdd7 45ba
00000010: 26bf e8b8 bfa0 31ba c0d6 4cb9 5ec9 e339
00000020: e25c dab9 edae 05ba
-0.00066888455 -0.0006302744 -0.0004999646 -0.00075471384 -0.00011098226 -0.0006775967 -0.00019534957 0.00043446844
-0.00041649403 -0.00050996133

bn1.weight f4 [10]
00000000: 446d 323f 1049 2b3f 05c3 0f3f 4033 223f
00000010: 3912 553f f001 253f 1051 2c3f 1019 2f3f
00000020: 889c 233f 43bc fb3e
0.69697976 0.6690836 0.5615695 0.6335945 0.8323093 0.6445608 0.6731119 0.6839762
0.6391072 0.4916707

bn1.bias f4 [10]
00000000: 9f2d 06be 943a 8cbe 47de 52be 9858 94be
00000010: c78f 21bf 834b 81be c369 56be 0231 12bf
00000020: e8d7 fcbd 11c5 013d
-0.1310334 -0.27388442 -0.20592605 -0.28973842 -0.6311001 -0.25252923 -0.20938782 -0.5710603
-0.12345868 0.031682078

bn1.running_mean f4 [10]
00000000: a8e0 22bf 1377 14bc 7503 6f3e 5f30 1cbe
00000010: e3f4 c23e 0bf9 753d 049f debe 38c2 3d3f
00000020: a7d6 00bf ab60 9d3d
-0.6362405 -0.009061593 0.23341163 -0.15252827 0.3807746 0.06005196 -0.43480694 0.7412448
-0.50327533 0.076844536

bn1.running_var f4 [10]
00000000: a752 383d d526 b53c 0039 063d ceee 1b3e
00000010: 872b c23d b067 e33c 642d a93d c0fd d33d
00000020: 26dd 8c3d 9be6 293d
0.0450007 0.022113243 0.032769203 0.15227816 0.094809584 0.027759403 0.08260611 0.10351133
0.06878118 0.04147969

conv2.weight f4 [20, 10, 3, 3]
00000000: 73c1 54be adb7 333e 3c91 103e 0d60 353c
00000010: fac6 f23d ea16 c73d 6e3f 053e e9b7 50be
00000020: ee9d 243e ebe6 1e3e cf3f 84bd ef81 57be
00000030: 2c13 5dbe 9241 943d f307 823e d022 4c3e
00000040: 2c9b e23d f34a df3d 5943 ab3d 2b9d 17bd
00000050: eda8 403e bf8f c8bc 291e f33d 43a0 683d
00000060: a91d 98bd b69a adbc 7b65 d6bd d12f df3c
00000070: bc57 353c 502a 0abe 36c0 25bd 3867 31bd
00000080: 5fda 85be 33f5 923d 03e8 55be cf44 99be
00000090: 8fd9 aa3d 6241 d5bd a92a 27bd a62f 993c
000000a0: eba3 05bc 7388 023d 6173 e2bb a71e 86bd
000000b0: 4a51 973c d6ea 48bd 332b c9bd 47ea 9c3d
000000c0: 7fed fc3b 38dd 8bbd 2480 4c3c 4563 5dbc
000000d0: f0a1 b13d f678 d63d a1a8 edbd 9b62 b63d
000000e0: 72f9 ecbd 38eb f73d c7a3 1c3c edfd 67bb
000000f0: a29a bebd a0bb eebd 6272 aabd b78d 943d
00000100: b0c3 4c3d 41c4 a6bb 3f52 4cbd 437c 29be
00000110: 3cee e5bd f18f c7bd 9db9 893c 3e84 e4bd
00000120: 966a 29be 5a72 a5bd 21ba 4d3d 0827 42bc
00000130: d904 73bd 7e52 df3b c378 6d3d d5ad 3fbc
00000140: e0db f9bd 30d6 6e3e 7ea7 7a3e 37dc 81bd
00000150: ede4 103e c04e 48be c0f2 4bbe 43ba 74bd
00000160: 01a7 4dbd 3d05 47bd 61a5 1a3d ebbf 313d
00000170: e6a6 743e 4e80 e53d 2118 8f3d ab25 8c3d
00000180: d691 5f3c 0dc5 e73d 6939 8e3c 70f3 39be
00000190: 2857 243e 3c7b 123c 99d5 643d 2b33 39bd
000001a0: 91c3 dfbd a2ca 773c 5e44 60bd 1097 4fbd
000001b0: 5cf3 e1bd 60a5 d0bd 4839 283e b8c2 5b3a
000001c0: 38c3 e7bd 54e4 733e df08 36bc c401 0c3e
000001d0: 12c2 923e d509 82bd a4c3 b63d 98fb 07bd
000001e0: f147 073e c7d2 90bc f4b9 44be 2b39 4e3e
000001f0: ddf3 2fbd 77cd 27be a3f7 393e 0326 c73d
00000200: dfac 363d 885d 02be ec6b 23be 81fa 0cbd
00000210: 0f64 c53d 9561 5ebd 62c6 34be 48d6 f8bd
00000220: c83f 12bc c647 b3bd ad49 95bd 4eca 803d
00000230: b1fd a13d f90b 5a3b b11d 83bd a1ef 2dbd
00000240: b8ba e63d 0f66 27bc e92b 0bbe a652 383e
00000250: b0a6 b93d 940f a3be 33b9 94bd dd16 213c
00000260: 6a79 bdbd a8dc 95bd c767 dabb b729 90be
00000270: 592c a3bd fa10 b23d 855d 58be 58e7 8e3d
00000280: a4b4 fcbc 35d4 75be 04a4 87bd 4b75 82bd
00000290: da63 46be 03cc 2c3e 6c79 78bc 37c4 62bd
000002a0: b7c2 e63d 9a09 273e 452f 1bbe a10e 063e
000002b0: b0a6 8ebc defd f1bd 7a71 34bd 200e 39bd
000002c0: 5e51 f6bd 2255 31bd 181c 573d a15b c0bd
000002d0: a270 b9bd 2c90 b8bd 0b85 03bd d803 9cbd
000002e0: 0acc e7bd f257 d6bd d577 bb3b 6a73 3c3d
000002f0: d85c b0bc 74df 89be bff1 8b3d f551 aabd
00000300: 2e3b 073e 8864 24bd 2802 a8be 2c40 b53c
00000310: efc2 cd3d 16ff b83d 229a 21be 1dec a9bd
00000320: 752f bf3d 2d71 60bd d826 173e f163 b23d
00000330: d327 163e 7ed9 a13d cd72 243e 995f 48be
00000340: ed7a b9bd ce78 343e b057 08bd 1098 a9bc
00000350: 8f4b 743d e657 703e 733c ca3d b5f9 05be
00000360: 2e1f b7bd 5e25 8a3d c2cd c4bd 986f babc
00000370: 11a7 c93d ba6e 9e3d 935e 953d c270 bdbd
00000380: eda6 b6bd 9c97 54bd ee87 59bd 6836 2b3d
00000390: 89b2 02be 2164 1bbc d197 c8bc 0872 9dbe
000003a0: 4f5f e7bd 731b 94be e384 da3c 4098 23bd
000003b0: 0a66 7bbe 9244 ac3d 8d31 8f3c 6853 37bb
000003c0: a1c4 4bbb 8d8d b1bc 9318 533d afd0 963d
000003d0: 9e51 763d 9a6d 153d e591 b8bd 1790 3a3d
000003e0: d777 b0bc a01d f83d f184 93bc bdc9 08be
000003f0: a974 3bbd e2aa 5fbd 93ce 20bd ad14 9e3e
-0.2077692 0.17550536 0.14117903 0.011070264 0.11854358 0.097211674 0.13012478 -0.20382656
0.1607587 0.15517776 -0.06457483 -0.2104566 -0.21589345 0.07239069 0.2539669 0.19935155
0.11064753 0.10902967 0.08362455 -0.03701512 0.1881444 -0.024482606 0.11870987 0.056793462
-0.07427532 -0.021191936 -0.104685746 0.02724448 0.011068281 -0.13492703 -0.04046651 -0.043311328
-0.26143166 0.07175674 -0.20889287 -0.2993531 0.08342277 -0.104128614 -0.04081217 0.018699478
-0.008156757 0.03186841 -0.006910727 -0.06548815 0.018471379 -0.049052082 -0.09822693 0.07661872
0.0077187414 -0.068293035 0.012481723 -0.013512437 0.08673465 0.1047229 -0.11604429 0.08905526
-0.115710154 0.12105411 0.009560532 -0.0035399154 -0.093068376 -0.116568804 -0.08322598 0.072535925
0.04999131 -0.0050893133 -0.049883123 -0.16551308 -0.1122708 -0.097442515 0.01681214 -0.11158036
-0.16544566 -0.080784515 0.050226334 -0.011850126 -0.059330795 0.0068152538 0.057976495 -0.01169916
-0.12200141 0.23323894 0.24477956 -0.06340831 0.14149828 -0.1956129 -0.1991682 -0.059747946
-0.050208095 -0.04858898 0.037755374 0.043395918 0.23891792 0.11206113 0.06987024 0.06843122
0.01364561 0.11316881 0.01736136 -0.1815927 0.16048872 0.008940514 0.055867765 -0.045214813
-0.10925973 0.015123995 -0.0547527 -0.050681174 -0.11032745 -0.10187793 0.16428101 0.00083832024
-0.11316532 0.23817569 -0.0111105135 0.13672549 0.2866369 -0.063495316 0.08924034 -0.033198923
0.13211037 -0.017678631 -0.1921156 0.20138995 -0.042957176 -0.16386972 0.18160872 0.09724047
0.044598456 -0.12730992 -0.15959138 -0.034418587 0.09638225 -0.05429228 -0.17653802 -0.12150246
-0.008926339 -0.08753924 -0.07289443 0.062885866 0.07909716 0.0033271296 -0.064021476 -0.042464856
0.112660825 -0.010217204 -0.13590969 0.18000278 0.09064996 -0.31847823 -0.072618864 0.009832111
-0.092516735 -0.073174775 -0.0066652033 -0.28156826 -0.07967443 0.08694644 -0.21129425 0.06977719
-0.030847855 -0.24006732 -0.066230804 -0.06370028 -0.19374028 0.168747 -0.015165668 -0.055362906
0.11267608 0.16312256 -0.1515475 0.13091518 -0.017413467 -0.118159994 -0.044053532 -0.045179486
-0.12027238 -0.04329408 0.052517027 -0.09392477 -0.09054686 -0.090118736 -0.0321093 -0.07617921
-0.11318214 -0.10465993 0.005721072 0.046008505 -0.021528646 -0.26928294 0.06833219 -0.08316413
0.13206169 -0.040134937 -0.32814145 0.022125326 0.10046946 0.09033029 -0.15781453 -0.08296988
0.093352236 -0.054795433 0.14760911 0.087104686 0.14663629 0.079028115 0.16059418 -0.19567718
-0.09056649 0.17624208 -0.03328675 -0.020702392 0.05964237 0.2347103 0.09874811 -0.13083537
-0.08941494 0.067454085 -0.09609558 -0.02275829 0.098463185 0.07735963 0.07293429 -0.092500225
-0.08918557 -0.0519024 -0.05310815 0.041799933 -0.12763418 -0.009484322 -0.024486454 -0.3075106
-0.112974755 -0.28927192 0.026674693 -0.03994012 -0.24550644 0.08411516 0.017479682 -0.0027973298
-0.0031092542 -0.021673942 0.051537108 0.07364022 0.06013643 0.036481477 -0.09012202 0.04554757
-0.02154152 0.121150255 -0.018007727 -0.13358207 -0.045765553 -0.054606326 -0.039259505 0.3087515

conv2.bias f4 [20]
00000000: b05e 9eb6 68fe cf37 7cb2 b437 8b17 d037
00000010: c154 25b9 90c6 cab7 38d5 7138 d053 08b7
00000020: fdb8 1438 bf92 fe37 e64f 19b9 f1f8 8938
00000030: 735a 83b8 8314 1839 b6ce f938 2c11 6db9
00000040: 4d7d d7b8 001d 4c35 eb4e 91b9 71a2 f437
-4.71979e-06 2.479479e-05 2.1540785e-05 2.4806495e-05 -0.000157672 -2.417274e-05 5.7657453e-05 -8.125746e-06
3.5458233e-05 3.0347494e-05 -0.00014620982 6.579038e-05 -6.263414e-05 0.00014503491 0.00011911748 -0.00022608478
-0.00010275338 7.603812e-07 -0.00027715354 2.916271e-05

bn2.weight f4 [20]
00000000: 8211 023f aac7 e83e f97c d93e afe5 013f
00000010: ff25 c13e 8b04 203f 8008 c03e 317d d43e
00000020: dfd0 043f b204 f13e a0fd d63e a08e e73e
00000030: a012 d33e 61e1 eb3e 04bb d93e b5c0 f33e
00000040: 1537 b53e 69a4 0b3f e9f1 cf3e 8129 d53e
0.50807965 0.45464832 0.4247816 0.50741094 0.377243 0.6250693 0.37506485 0.41501763
0.5188121 0.47073895 0.41990376 0.45226002 0.41225147 0.46070388 0.42525494 0.4760796
0.35393587 0.54547745 0.4061425 0.41633227

bn2.bias f4 [20]
00000000: 3e90 a4be 9b86 eabd dfa1 92be 56af 0bbe
00000010: e9a1 a5be 0b8f 60be c388 e1bd 7eff 09bf
00000020: 1ced c6be d4e4 4ebe a5f3 33be 969b f5bd
00000030: f37f 95be ee3a 3abe 4247 cbbe 85b2 edbe
00000040: d114 d0be 9990 c4be f011 32bf fbe3 cfbd
-0.32141298 -0.11451455 -0.28639123 -0.13641104 -0.3235009 -0.21929567 -0.11012413 -0.53905475
-0.38852775 -0.20204479 -0.17573412 -0.11992566 -0.2919918 -0.18186542 -0.39702803 -0.46425262
-0.40640882 -0.3839157 -0.6955862 -0.10150906

bn2.running_mean f4 [20]
00000000: 47ae 28be 96b7 3ebe dd8b 81be b412 44be
00000010: 4b11 b9be 47a4 b7be b94f 89bc 6b64 a3be
00000020: 3701 b4be 5e33 89be 4d8b ffbd fe99 8cbe
00000030: aac9 15be 82c7 82be 217a c8be bf95 efbe
00000040: cd8a c7be a1f6 69be 114f 13be 8b70 b0be
-0.16472732 -0.1862472 -0.2530202 -0.1914776 -0.36146006 -0.3586752 -0.016761648 -0.3191255
-0.35157177 -0.26797003 -0.124777414 -0.27461237 -0.1462771 -0.25542837 -0.39155677 -0.46793935
-0.38973084 -0.22847988 -0.1438563 -0.34460863

bn2.running_var f4 [20]
00000000: e107 0c3e c378 503e a6c9 303e 7bf5 713e
00000010: 2de3 343e 60d9 453e 627b 6f3e 5a68 cf3d
00000020: 06fa aa3e a0f8 893e 5a7a 303e 2ab7 473e
00000030: 76b7 273e 8fa4 1e3e abe2 c23d bca0 273e
00000040: ddca 863d 0850 8b3e 7b70 893d 933b 603e
0.1367488 0.20358567 0.17264423 0.236288 0.17664786 0.19321203 0.2338691 0.10127325
0.33393878 0.26947498 0.17234173 0.19503465 0.16378579 0.15492462 0.0951589 0.16369909
0.06581662 0.27209496 0.06710907 0.21897726

fc1.weight f4 [256, 100]
00000000: 01aa 90bd af5c d3b8 0542 7a3c 0423 b43c
00000010: b864 b33c c46e 98bb 2928 67bc 447d 11bd
00000020: ee57 b93c a8b8 533c 777e 313d 2b83 433d
00000030: 6856 133d c06e 0a3b d4d3 06bd e3e5 12bd
00000040: 29df bbbd 2213 3e3d 1a1f 6e3c 1a9c d73c
00000050: c778 8a3b b833 ee3d df58 3dbb 21fa a83d
00000060: 0fed 033b 5138 f4bc fe19 5b3d 99de a93d
00000070: a87d a93c 279c 443d cc23 523d 4241 ad3c
00000080: b668 9c3d b88d 98bb e896 7d3b 8806 293d
00000090: 9976 a23d d81b d93b b627 de3c 009c 063c
000000a0: 1cf1 993d 3507 043d f330 903d 10f4 833d
000000b0: 0a3c 8c3d fa76 ec3c 0482 2a3c 7fd2 33bd
000000c0: fee6 653d 08a8 cf3b 99ff 433c 76eb b5bc
000000d0: a241 24bd cb1b f6bc fb6b 5fbc e15a bfbc
000000e0: 0560 bf3c 2a61 2b3d 7126 63bc 1a98 2e3d
000000f0: 61c3 d03d 27ae 473d ae94 483d 8bfc 22bd
00000100: 04dc 2a3d a76b 6abd ad25 203a b87c a23c
00000110: 3feb dc3c 6c87 863c 9b45 833d 5923 853d
00000120: 94ff 07b9 8ed5 9c3c d12e 8b3c 3cf8 70bd
00000130: 505e 15bd 4192 ca3c b98e 553d fda0 833b
00000140: b58a fc3d b248 aa3c 3b49 c7bc 795b 09bd
00000150: 8cf9 293d b15c 423d 6aaa 7b3d 0b3c 263c
00000160: 9c44 1f3c f259 fa39 4a6d 9f3d dba7 343d
00000170: 20ac c0bc a5b9 833c e8bf 8c3d 938f f2bb
00000180: 4d4b 9b3d a499 b93c 9d27 5bbc 7a9b 9ebc
00000190: 40de e014 8a33 3299 b8df d8a3 55e9 180e
000001a0: 8899 ab8c 92b4 01a9 4c95 afac f65a 8493
000001b0: e680 d524 10a9 7997 bb64 65a2 6073 2b9f
000001c0: 257e 9620 0004 faa7 9fe4 65ab c518 85aa
000001d0: 1130 b597 a087 0580 723e 9b00 a5d4 0780
000001e0: 6725 909f 21e2 3b2b 7ecd 7e2f 7d25 1daf
000001f0: 9d53 a4aa 8295 779a 5edc 6e29 231e 4713
00000200: a2e4 b516 6c42 1a80 b74d 12ae 8fa5 46aa
00000210: adcb cd2f 1c9e b233 8bd3 93b3 1854 6bad
00000220: f57f 8a35 c6d5 07b3 015c d6aa 5cc7 f49d
00000230: 22f4 4e25 0896 35a1 fc64 dfa2 e5c1 3eaf
00000240: 4a9b 8331 f83e 212c 6141 1c26 753b 69a5
00000250: 81c5 e3af 17eb 60b1 67fa 07a8 e67e bf2f
00000260: 486f 082f bde6 d7b0 37fc 2030 1bc9 a496
00000270: 9dbc 81aa aa1c a022 1388 04b3 6726 dfb3
00000280: 8209 30ab be34 76a3 87cd 692c b76f 4faf
00000290: 785a 2837 bca7 b1a5 f48d cdab 8dd4 7d9c
000002a0: 0640 e8a4 f940 289c 4289 f41d 9229 7731
000002b0: 5a99 82ad 6398 ccac f595 38a6 d41a 9396
000002c0: 89ed 1c00 24ed be27 2a89 2213 c5db c61b
000002d0: 0b4b a49f 502e 0a2b 32cc fc2e eb5f 00ad
000002e0: f5d2 4f99 9785 e81e 92f8 3197 fe83 6ea3
000002f0: 8ea7 89aa 42df 8daf 9782 8eaa d4af d034
00000300: f381 e4b5 b3c6 8faa 2f46 2c98 d547 9eac
00000310: 4ba1 25a6 958f e829 8db8 a3a3 07cc 6b30
00000320: 421d 9abc f736 ebbc a473 053d fbd2 5cba
00000330: 7936 683c f8bd e7bc f38a a03b 4208 103b
00000340: 1c8d e53c 2886 d63c 9fd1 4e3b b6e5 c33b
00000350: 97db 263c 8f21 843d c261 aabc 2c4a 0fbb
00000360: 0eed 93bb 9f0f 343c 23d7 c83c e142 413c
00000370: 9372 303c 9d11 82bc 62f6 c63b 5f69 25bc
00000380: 5112 1dbd 45e7 6f3a 2326 0dbc fd65 033d
00000390: e615 1bbc 08dc 623c a5f2 0d3d 5e78 4cbc
000003a0: 9358 98bc f31c 9e3b 7731 0f3c 2784 a9bc
000003b0: 3095 4cbd d9ae 5939 ccc3 b1bc d5c4 12bd
000003c0: 88cd 433c 8b07 373b 2ba8 d33c 6502 bf3c
000003d0: 2665 16bc 7b6f dbbb 9698 8c3c 9818 743c
000003e0: 4874 e0ba 1bb5 b53c aa54 ec3c 7c5f 41bc
000003f0: 5f64 793c 18b1 ae3c c0eb f8bb 899b 033d
-0.07063676 -0.00010078528 0.015274529 0.021989353 0.021898612 -0.004651876 -0.014108696 -0.035519853
0.022624936 0.012922443 0.043333497 0.047732513 0.035971075 0.002112314 -0.03291686 -0.03586377
-0.09173424 0.046404965 0.014533782 0.026319552 0.0042258236 0.11630958 -0.0028892083 0.08250833
0.0020130312 -0.02981201 0.053491585 0.0829441 0.0206898 0.04800048 0.05130367 0.021149281
0.076371595 -0.004655566 0.0038694683 0.041265994 0.07932777 0.0066256337 0.027118545 0.008215904
0.07516691 0.032233436 0.07040586 0.064430356 0.06847389 0.028865326 0.010406975 -0.043901917
0.056128494 0.0063371696 0.011962795 -0.022207003 -0.040101655 -0.03004255 -0.013636584 -0.023358764
0.023361215 0.04184071 -0.013864146 0.042625524 0.101935156 0.04875007 0.048969917 -0.039791625
0.04171373 -0.05723157 0.000610913 0.019834861 0.026967643 0.016421996 0.064097606 0.06500883
-0.00012969814 0.0191448 0.016990097 -0.058830485 -0.036466897 0.024727942 0.052138064 0.004016994
0.12331144 0.020786617 -0.024326911 -0.0335345 0.041497752 0.04745168 0.061441816 0.010146151
0.009720948 0.0004775073 0.07784517 0.044105392 -0.023519576 0.016079733 0.06872541 -0.0074023693
0.07582722 0.02265627 -0.013376144 -0.019361246 2.2705882e-26 -9.2127925e-24 -2.3513516e-17 1.8847792e-30
-2.6439125e-31 -2.8800374e-14 -4.9903744e-12 -3.341118e-27 9.259239e-17 -8.0669626e-25 -3.1088613e-18 -3.6306094e-20
2.5494464e-19 -6.9393276e-15 -8.167442e-13 -2.3642733e-13 -1.1708985e-24 -5.0783e-40 1.4256903e-38 -7.19131e-40
-6.104825e-20 6.674956e-13 2.3174171e-10 -1.4292385e-10 -2.919027e-13 -5.1199174e-23 5.3037754e-14 2.513219e-27
2.9386415e-25 -2.41155e-39 -3.326558e-11 -1.7643372e-13 3.7434003e-10 8.317531e-08 -6.8837004e-08 -1.3376876e-11
1.0319042e-06 -3.1626563e-08 -3.8077877e-13 -6.4792395e-21 1.7950367e-16 -6.152375e-19 -6.0551192e-18 -1.7349285e-10
3.830256e-09 2.291443e-12 5.421198e-16 -2.0229673e-16 -4.1431394e-10 -3.2729923e-09 -7.548303e-15 3.4832864e-10
1.2408663e-10 -1.5708889e-09 5.856608e-10 -2.6622544e-25 -2.304588e-13 4.3398436e-18 -3.0857404e-08 -1.0391232e-07
-6.2540955e-13 -1.3346855e-17 3.3225382e-12 -1.886623e-10 1.0034644e-05 -3.0818267e-16 -1.4605526e-12 -8.3985393e-22
-1.0072242e-16 -5.567051e-22 6.4728183e-21 3.596686e-09 -1.484739e-11 -5.814947e-12 -6.4041054e-16 -2.3766062e-25
2.656605e-39 5.29927e-15 2.0514902e-27 3.2898375e-22 -6.958085e-20 4.909172e-13 1.14959056e-10 -7.297256e-12
-1.0744252e-23 2.4619207e-20 -5.7505524e-25 -1.2929956e-17 -2.4452353e-13 -2.5806385e-10 -2.5314882e-13 3.887095e-07
-1.7025144e-06 -2.5539778e-13 -2.2265913e-24 -4.498605e-12 -5.746447e-16 1.0327777e-13 -1.7750656e-17 8.578244e-10
-0.01881278 -0.028712733 0.032580987 -0.00084237725 0.014173144 -0.028288826 0.0048993765 0.0021977578
0.028021388 0.026187018 0.003155805 0.0059783114 0.01018419 0.06451713 -0.020798568 -0.0021864278
-0.004514343 0.0109900525 0.024516648 0.01179573 0.010769504 -0.01587754 0.0060718516 -0.010095923
-0.038347546 0.00091515883 -0.0086150495 0.032079685 -0.00946567 0.013846405 0.034655232 -0.01247987
-0.018596923 0.0048252284 0.008739821 -0.020692898 -0.049946964 0.00020759868 -0.021699809 -0.035832245
0.011950858 0.002792808 0.025837025 0.023316571 -0.009179389 -0.006696639 0.017162602 0.014898442
-0.0017124498 0.022181084 0.028848965 -0.01180255 0.015221684 0.02132468 -0.007596463 0.03213075

fc1.bias f4 [256]
00000000: 73be 78bd dda7 a1b9 52fd d4bb 8f69 a7bc
00000010: 6648 92bd 710c e1ba 4323 4cbc 40fc 29bd
00000020: 74ce c9bb 779e 4cbd b75f 813d c107 78bc
00000030: c25b eb9c a88f 9bb6 f96e 4ab3 e227 7e3d
00000040: 6667 2c3d 2283 c43c 8ab9 0fbb 8d25 933d
00000050: 8e3f 6fbd 9290 a03c 966b 98bc 2a6e 373c
00000060: d84f 74bd 5f96 323d 30df d8bb ef8a b5bc
00000070: bac1 b98b a9f1 71bb 89ed 84bc 65eb 943d
00000080: e78c cf97 8e88 e0bc a143 3cbd db24 23bd
00000090: 3602 913d cb33 113d bbfc 1199 bca9 0bbd
000000a0: 964a 2fbd e8a0 78bc e9e3 23ad 9ff1 5cbc
000000b0: c9d8 5fbd 73c1 ac3d 69ad e4aa e608 50bd
000000c0: 8929 38bc 3566 28bd 65f0 4ebd 6ac8 8c3d
000000d0: dcd9 433d 243e 7fbc c0f9 6cbc 0a95 6ebd
000000e0: ca2e 85bd a45b 169b 8d05 47bc 046e deb8
000000f0: 7e5e 7ebc b2b3 1895 1536 e73a 22f5 7fbd
00000100: 2b34 749d de81 873d 5f09 6cbc 56a2 7d3b
00000110: 63b9 ffbc 9a50 fcab d43e 6ebd 511b 4ab6
00000120: 65f2 5bbd d404 aabd 6f0c 83a6 4d39 2abd
00000130: 6a06 bebb 87b0 a7bc ea81 18bd 3209 c73d
00000140: 8e31 9c3d e34f 2abc abda 663d a3ee fa3c
00000150: c5ad fbbc d6c0 863d ccbd bc39 48f5 579b
00000160: 806d 1abd 6a7e 81bc ca58 cfbc 1c43 cc89
00000170: 343a b33d f25c 08bd 1b25 0b3d 7a08 9abb
00000180: 7703 98bb 66f4 cdba f821 c48e e162 e0bc
00000190: 37de 153e 6fb4 18b0 c0c0 1fbd df37 c23c
000001a0: fc4a 593d 8901 76bd a30d e5bc 6610 38bc
000001b0: 3e05 673d 068b a13a 0ea6 ccba 932e 7d3d
000001c0: a3d6 bab8 9670 74b7 df70 8bbc 815e 48bd
000001d0: cc18 943c 379f 503d e5ce 5ebc 9ccc bbbb
000001e0: 7765 73bb 55b9 adbc 65e4 7d3c c951 3f9e
000001f0: 3532 92a0 684a 2bbd e381 5a3c aca1 273d
00000200: edfa a4bd 1253 74bc 7ee3 85bb bac8 65b9
00000210: 4f39 763d 0263 04bd 8f2e 00bd 0fa1 cbbc
00000220: 5425 c8bc 392d 0dbd 9cdf 1ca8 a06d 803c
00000230: 9370 d7bb 6b33 debb 39d4 a4b7 9c82 56b3
00000240: 0691 0d98 68ab 89bd ea21 d13d e1de a9aa
00000250: 1aa9 2cb5 2efb ab3b 517f 17bc 03db b288
00000260: f341 a83c af06 afbc 215a b13c 2345 763c
00000270: 9649 3bbd 9c3c f0bc 8513 0ebc f019 04bb
00000280: 3ac1 713d bf4a 28b7 2d90 4bbb bfac f5bc
00000290: 0fe2 0fbc 6f32 85b2 2162 909a e3be 81b0
000002a0: b5f3 a2bc 3e7b 4bb1 b58b 7fbd d78e f33c
000002b0: 0234 5c3d 664c 883d a5dc 979f 82ac 1fbb
000002c0: 1d86 44bd 17ad e3ba aae4 093d 07bb 94bc
000002d0: f58f c73c c99f 79bb 1df2 9bbb 995b 3dbd
000002e0: eb74 d0ba c05c 16bb 5db8 3fbd daaf 983d
000002f0: c174 95bc 49ab af3c a8c9 6fa4 6dd6 31bd
00000300: 5b29 afb8 8c3a 5bb9 3b72 1dbb 51db 8bbb
00000310: 5fa6 a53d 3e41 21a6 7009 2cbb 7b2a 06b4
00000320: f74b 8c3d 21d5 a03c 07bf 89b9 443e 67bb
00000330: 8b8b a1bc df07 1fbd 2ff0 36bd c74b 3c3c
00000340: 3446 73bd 641f 04bd dc7a b33d ea62 1d3b
00000350: b39e 1dbd d9b2 48b1 0c7e 72bb 5b66 c23d
00000360: d547 68bd d252 55b8 7b6b 89bc 610c 02bd
00000370: 2fd6 85bc 2470 7f3d 2caa 6c3b bc30 8f3d
00000380: ee6b 603c 966f 843d 309e 2cae 46c0 68b5
00000390: bbd2 17af e811 45bd e174 353c a558 293b
000003a0: 1513 70bc 53b3 03bd 8ea6 15b5 3909 ce3c
000003b0: f995 29a9 5ec5 53bb e36c 519c 8787 163d
000003c0: 9c00 eabd 12c5 8b3d df2c f93c fa26 fdb4
000003d0: d783 f9bc 132e a192 f56b 1ba9 8cbe bea2
000003e0: 0d35 1ebd b828 a43c 16f9 49bb 0dc1 a7bd
000003f0: ca6a ec3c bc16 b83d 459c 963d a228 183c
-0.0607285 -0.0003083338 -0.0064999247 -0.020436076 -0.07142715 -0.0017169846 -0.012459579 -0.04150033
-0.0061586443 -0.04995581 0.06317084 -0.015138567 -1.5574714e-21 -4.6360838e-06 -4.713272e-08 0.062049754
0.042090796 0.02398831 -0.0021930658 0.071848966 -0.05841022 0.019600186 -0.018605988 0.011195699
-0.059646457 0.043600436 -0.006618403 -0.022160975 -7.1550895e-32 -0.0036917722 -0.016226547 0.072714604
-1.341263e-24 -0.027408864 -0.045962933 -0.03983007 0.070805 0.035449784 -7.547363e-24 -0.03409742
-0.04279574 -0.015175082 -9.3160835e-12 -0.013485341 -0.0546501 0.08435335 -4.0621263e-13 -0.050789736
-0.0112403715 -0.041113097 -0.050522227 0.068741634 0.04781519 -0.01557878 -0.014463842 -0.058247603
-0.06503065 -1.243732e-22 -0.0121473195 -0.00010606277 -0.015525458 -3.083791e-26 0.0017640019 -0.062489636
-3.2320101e-21 0.06616567 -0.014406531 0.0038701496 -0.031216329 -1.7928048e-12 -0.058165386 -3.0116246e-06
-0.053697962 -0.08301702 -9.093321e-16 -0.041558553 -0.0057991045 -0.020469917 -0.03723327 0.09718551
0.07626639 -0.010395023 0.05636088 0.030631369 -0.030722508 0.06579749 0.00035999564 -1.7863638e-22
-0.037702084 -0.01580735 -0.025310893 -4.9174323e-33 0.08751336 -0.033291765 0.033970933 -0.0047007175
-0.004639085 -0.0015713095 -4.835044e-30 -0.0273909 0.1463555 -5.555369e-10 -0.03900218 0.023708282
0.053050026 -0.060060058 -0.027960604 -0.011234378 0.056401484 0.0012324757 -0.0015613453 0.061811995
-8.90915e-05 -1.4569747e-05 -0.017021595 -0.04891825 0.01807823 0.05093309 -0.013599132 -0.0057311784
-0.0037139335 -0.021206537 0.015496348 -1.01283686e-20 -2.4766586e-19 -0.041819006 0.0133366315 0.040925667
-0.08055673 -0.014912384 -0.004085957 -0.00021913918 0.060113247 -0.032320984 -0.0312944 -0.024857072
-0.024431862 -0.034466956 -8.708227e-15 0.015677273 -0.006574699 -0.006781032 -1.9649147e-05 -4.9944546e-08
-1.8297041e-24 -0.06722146 0.10211547 -3.0175084e-13 -6.432107e-07 0.005248449 -0.009246663 -1.0764475e-33
0.02053926 -0.021365492 0.021649422 0.015031132 -0.045724474 -0.029325776 -0.008671646 -0.0020157062
0.059022166 -1.00309835e-05 -0.0031061277 -0.029989598 -0.008781924 -1.5506172e-08 -5.971554e-23 -9.440239e-10
-0.0198916 -2.9610443e-09 -0.062389094 0.029731197 0.053760536 0.06655197 -6.4316013e-20 -0.0024364297
-0.047979463 -0.001737031 0.033665337 -0.018155588 0.024360636 -0.0038089624 -0.0047590868 -0.046229932
-0.0015903985 -0.0022943467 -0.046806682 0.07455416 -0.01824415 0.02144398 -5.1995673e-17 -0.043417383
-8.352353e-05 -0.00020907278 -0.0024024385 -0.004268088 0.080883734 -5.5946516e-16 -0.0026250742 -1.2495177e-07
0.06850427 0.019632878 -0.00026273003 -0.0035284916 -0.01971986 -0.038825866 -0.04466265 0.011492676
-0.059393123 -0.0322565 0.08763668 0.0024015256 -0.038481425 -2.9205494e-09 -0.00370014 0.09492179
-0.05670913 -5.086029e-05 -0.016774883 -0.031750087 -0.016337482 0.062362805 0.0036112173 0.06991717
0.013697607 0.06466596 -3.924877e-11 -8.670653e-07 -1.3808236e-10 -0.04811278 0.011075229 0.002584019
-0.014652987 -0.03215344 -5.5749194e-07 0.025150882 -3.765562e-14 -0.0032313685 -6.929303e-22 0.036750343
-0.114258975 0.068246976 0.030416904 -4.7153281e-07 -0.030458374 -1.0171887e-27 -3.451055e-14 -5.1701353e-18
-0.038624812 0.020038947 -0.0030818633 -0.081911184 0.028859515 0.08988711 0.07354025 0.009287031

fc2.weight f4 [120, 256]
00000000: 3a51 933c ae9b f3a1 ecac 18bc decd 1039
00000010: 1941 3c3d 1162 643c 5806 ca3b 0945 7dbb
00000020: 5011 8d33 7bce 96bc d698 b3bc 21ce 0fb4
00000030: 1b7c 121b e4b7 430b 5059 1700 4433 1bbd
00000040: 01f3 bd3c 2341 a23b e286 e73c 6f23 c6bc
00000050: 97b4 343c 1f49 c3bb 492f 8cb4 36cb a5bc
00000060: 5949 813c 63ae 563c 37f1 46bd f048 5ebc
00000070: 9650 5e09 9e64 493b 943d 26b5 b6c3 2ebd
00000080: 43db 1500 070e 87bc 991d 623c c70e f43b
00000090: fb5f 15bd 267b 0abc 25f5 2d80 ec12 93bb
000000a0: 9d82 38bc 0fc5 42bc e72a 0d80 3611 9bb7
000000b0: 1ee1 60bd 8289 35bd e360 3600 d336 0e3c
000000c0: 4d0d 633c f085 83bb de5c 783c fcac 06bc
000000d0: f6fa 13bd f296 c73b 5902 953b 6f98 073b
000000e0: 6c74 7e3c ce46 1580 85f7 063d 84fe 6622
000000f0: 2e94 223d 673c 1e80 7c7b ea3b f0b9 513d
00000100: f5f1 4400 4ea5 43bd 7998 4dbc de24 413c
00000110: cab9 b8bc d823 0080 f368 bf3b dc5d 0900
00000120: 636c 693c b243 893c 0c48 1f80 9fc2 a93c
00000130: ab46 ed3c 661b 62bb 8f1d c43b cb2d 03bd
00000140: 647c 12bd a6c4 d7ba fb89 17bd 823d 423c
00000150: 2947 69bb a40f 0abd 0061 d93c a5ec 3380
00000160: 27ea aebb 7da5 8f3c 38b2 e33b 8c0e 0380
00000170: 4363 4dbd ec47 6f3b 9b3b cdbc 029b d330
00000180: 61e5 1c2c ccd2 1229 c0b2 9d0c d385 febb
00000190: 4f49 95bd b06b 2580 e5aa 30bd 9b39 9d3a
000001a0: 6b64 1ebd 618f 82bc 5806 103d b623 4bb8
000001b0: afb5 4abd 06be c73c e1df 8339 b995 15bc
000001c0: 06c4 1f01 9090 2880 cd06 f03b 768b f3bb
000001d0: 6725 3bbc daa0 08bd f871 0bbb c74d 1a36
000001e0: e640 613a 2846 a0b8 7d90 b5bc a472 1f00
000001f0: b073 1a80 f902 e53c 5be4 043d 0d46 debc
00000200: d760 6d3c 117b aa3c 05ce 2c2b bfa3 96aa
00000210: 43c2 46bd ebde ff3b 9322 1f3b e8c9 a8bb
00000220: 80ce 533c 1331 123c cf18 2d80 1169 b83b
00000230: 60bb 3935 4527 29bd 1283 b232 bdac 9a34
00000240: 52e1 1400 e72c fcbc 23f9 65bc 073e 1e00
00000250: 6dc8 1080 d049 be3c 6b5e 37bb c895 6108
00000260: ef19 283c 4f33 b4bc 95b8 3b3d 29c9 c23b
00000270: 0090 94bb 3b82 2d3c 56a0 9d2a 4a6d b4b9
00000280: 985e b0bc 6893 3595 698b 3c9b 7dc5 1ebc
00000290: 6ff2 5c3c c1d0 1d80 84c4 2280 1f95 1f80
000002a0: f8be 513d 9b69 1800 7b71 9abc 2aed ea3c
000002b0: 22d1 1cbd efee 7fbd 299e 2580 c6e3 c4ac
000002c0: 744d 953b d937 1f28 2ee2 f7bb 8213 ffbc
000002d0: 0c1b 27bc 2bf7 33b3 7c8e 4a39 fdc4 4b3c
000002e0: 8bec 64b2 ef55 5c33 372c 65bd 11d2 97bc
000002f0: 4f60 2f37 7862 60bd 67c5 4c00 bd24 303a
00000300: 49d7 1a0b d810 601e 489c 01bc 3479 2f3c
00000310: ac57 1ebd a90e 0900 7c51 45b4 bb56 1b80
00000320: b451 09bd be2d 83bb 22a3 bca3 8868 d32a
00000330: 3bc6 79bc 3bb6 cfb9 b75b 563b 5a33 853b
00000340: ff04 883c d902 ed3c 987a 84bd 82ea b9ba
00000350: 0d5a fa3c 9aaa 3c80 a125 182e 2af3 5bbd
00000360: b86b 293d 7adb 3800 9c34 27b7 cc6a f83a
00000370: 246c f3bb 4656 92bc 1090 36bc a801 c13c
00000380: 2320 923c dbfb 61bc c53f 2780 69ae 1680
00000390: 07d6 0200 a6bb f23b db1e d13b 43e5 c33c
000003a0: a2c9 2aba e9e3 f1ba 3b09 1600 617d 0d3d
000003b0: 771d 2780 4fd7 013d 9919 0680 8398 10bd
000003c0: d83d fcbb b09c dabc 0c18 2dbd 14c9 890a
000003d0: 463c 443c 331a 888e f105 1480 26f5 1f20
000003e0: 50f8 fd3b 11eb 333c 0969 862b d089 323c
000003f0: 0201 0cbc eb32 84bd b62f f5bc 62a9 28bd
0.017983068 -1.6507529e-18 -0.009318572 0.00013809602 0.04596052 0.0139393965 0.006165307 -0.0038645884
6.568973e-08 -0.018409004 -0.021923464 -1.3392902e-07 1.2116938e-22 3.7693978e-32 2.144256e-39 -0.037890688
0.023187162 0.0049516126 0.02826256 -0.024186818 0.011029384 -0.0059596444 -2.6111437e-07 -0.0202385
0.015782045 0.0131031005 -0.048569884 -0.013567194 2.676017e-33 0.0030730139 -6.1929427e-07 -0.042667113
2.007202e-39 -0.016486181 0.013801002 0.0074480507 -0.036468487 -0.008452212 -4.220539e-39 -0.0044883396
-0.011261609 -0.011887803 -1.209252e-39 -1.8485454e-05 -0.05490219 -0.04432059 4.993873e-39 0.008680063
0.013858152 -0.0040137693 0.01515886 -0.008219954 -0.036128007 0.006090992 0.004547399 0.0020690223
0.015530687 -1.953945e-39 0.032950897 3.1305552e-18 0.039692096 -2.776733e-39 0.0071558338 0.051202714
6.331612e-39 -0.04776507 -0.012548559 0.011788575 -0.022549529 -1.2858e-41 0.0058413683 8.6019e-40
0.014247033 0.016755912 -2.872746e-39 0.020722685 0.028964361 -0.0034501194 0.005984969 -0.032026093
-0.03576316 -0.0016461804 -0.036996823 0.011855485 -0.0035595393 -0.033706322 0.026535511 -4.768502e-39
-0.0053379717 0.017534966 0.0069487356 -2.80725e-40 -0.05014349 0.0036511375 -0.025052836 1.5396326e-09
2.2296264e-12 3.260135e-14 2.4297261e-31 -0.007767418 -0.07289373 -3.436544e-39 -0.043131728 0.0011995317
-0.038669985 -0.015937509 0.0351623 -4.843223e-05 -0.049489673 0.024382602 0.0002515307 -0.009129935
2.9344328e-38 -3.725279e-39 0.0073250295 -0.0074323965 -0.011422492 -0.033356525 -0.0021277647 2.299306e-06
0.00085927395 -7.642462e-05 -0.022163624 2.888026e-39 -2.429224e-39 0.027955519 0.03244434 -0.027133012
0.01448842 0.020810636 6.1392585e-13 -2.6758974e-13 -0.048525106 0.0078085563 0.0024282082 -0.005151022
0.012927651 0.008922833 -4.141497e-39 0.0056277593 6.9190537e-07 -0.041297216 2.0781531e-08 2.881042e-07
1.91754e-39 -0.03078313 -0.01403645 2.777316e-39 -1.541267e-39 0.023228556 -0.0027979861 6.788454e-34
0.010260089 -0.021997122 0.045830328 0.0059443903 -0.0045337677 0.010590131 2.8000058e-13 -0.00034413702
-0.02152948 -3.6668942e-26 -1.5596041e-22 -0.00969064 0.013485535 -2.738116e-39 -3.192903e-39 -2.900395e-39
0.051207513 2.241936e-39 -0.01885294 0.028677542 -0.038285382 -0.062483724 -3.45465e-39 -5.595943e-12
0.0045563523 8.838383e-15 -0.0075648045 -0.031137232 -0.01019932 -4.1901483e-08 0.00019317301 0.012437102
-1.332513e-08 5.1300898e-08 -0.05595037 -0.018532785 1.0453236e-05 -0.054781407 7.050312e-39 0.00067193416
2.9821284e-32 1.18619445e-20 -0.0079107955 0.010710049 -0.03865783 8.31779e-40 -1.8376699e-07 -2.510671e-39
-0.033525184 -0.0040032556 -2.045209e-17 3.7553662e-13 -0.015245016 -0.0003961789 0.0032708475 0.0040649595
0.016603945 0.028932022 -0.064686954 -0.0014184269 0.030560518 -5.57133e-39 3.459422e-11 -0.053698696
0.041362494 5.221521e-39 -9.966225e-06 0.0018952726 -0.007428663 -0.017863404 -0.011142746 0.02356036
0.01783759 -0.013792957 -3.60446e-39 -2.082947e-39 2.6045e-40 0.0074076233 0.006381852 0.023913031
-0.0006515031 -0.0018454763 2.023692e-39 0.0345434 -3.592154e-39 0.031699475 -5.60196e-40 -0.035301697
-0.007697802 -0.026686043 -0.04225926 1.3268257e-32 0.011977261 -3.3551817e-30 -1.838841e-39 1.3548937e-19
0.0077505484 0.010981337 9.550426e-13 0.010897115 -0.008545162 -0.06455024 -0.029929977 -0.04117716

fc2.bias f4 [120]
00000000: 6dc5 8c3d 68d8 a83d 08c8 bf3d 69cd cbb5
00000010: 67ba c13d d9de b23d 5b87 a83d e466 073e
00000020: 129a 503d b839 693d 19bc be3d 013f d23d
00000030: 0e4e e53d 0470 c13d beef bf3d 0e83 cb3d
00000040: 36f3 bb3c 9e53 fd3d ee91 c43d ea11 e33d
00000050: 639f c03d 1ea3 bbb9 c8e3 e43d 02b0 803d
00000060: ee33 d63d 59e4 0e3e 9829 b23d 4a4f e43d
00000070: 78aa 823d 1fc3 a63d 60bd c63d 2aa5 0ab9
00000080: 0701 c13d a309 9b3d a058 bd3d e508 793d
00000090: 0bfa 163e 1aff ac3d 70b3 e03d a51b 973d
000000a0: fad2 ba3d e8dd ae3d 41c1 ae3d 66af 843d
000000b0: bcd3 f43d 9d85 df3d 6b41 863d 76e5 b73d
000000c0: 07d5 e4b7 a4c3 9a3d c7c3 9e3d ce14 de3d
000000d0: 4612 903d a14b e53d b988 6c3d 3e19 813d
000000e0: c221 9a3d 6c31 c23d 8520 b63d 2bd8 b43d
000000f0: 29d6 6e3d f593 f33d 36c3 3d3d e39a b43d
00000100: 75e1 9d3d 759c e23d 6da4 d03d 8e0b f13d
00000110: 6e9a 1f3d 3647 9b3d 4789 e13d 941a ed3d
00000120: 1497 e73d b8be c73d 8761 b83d 5f85 ec3d
00000130: e281 db3d e90b 953d c16d b93d 21c8 9e3d
00000140: 4d1d 803d 6d08 a33d b334 123e 0450 d73d
00000150: 0fe4 c53d 5cae e63d 0d19 ac3d bfce ff3d
00000160: 5537 ff3d 7ef6 cf3d 0aa2 fd3d d824 063d
00000170: 8109 c03d e28d ab3d ccde 0b3e 6ac4 f73d
00000180: ddd9 a73d 90b2 ad3d 4399 af3d 225e a63d
00000190: 6900 fa3d f5dd c83d ef6e 803d b608 fe3d
000001a0: 3230 0d3e ab11 d03d 7093 df3d 9c31 9b3d
000001b0: c124 e43d da44 c63d bfa5 e93d 5471 e03d
000001c0: a6f1 843d a745 0c3e 1204 b73d 60d2 1e3d
000001d0: b00a a03d 850a 773d b6aa 7b3d 9417 963d
0.068735935 0.08244401 0.09364325 -1.5184461e-06 0.094593816 0.08733911 0.08228942 0.13222843
0.050928183 0.05693981 0.093132205 0.10265923 0.111965284 0.094451934 0.09371899 0.09937106
0.02294312 0.12369464 0.095981464 0.11087401 0.094054006 -0.0003578895 0.11176258 0.06283571
0.104591236 0.13954295 0.0869934 0.11147936 0.063801706 0.08142685 0.09704089 -0.00013222234
0.09424024 0.075701974 0.092454195 0.060799498 0.14743821 0.08447094 0.10971725 0.0737832
0.09122272 0.08538419 0.08532954 0.06478767 0.119544476 0.109141566 0.06555446 0.08979313
-2.7278917e-05 0.07556847 0.07752185 0.10843812 0.070347354 0.11196066 0.057747576 0.06303643
0.0752597 0.09482083 0.08892921 0.08830293 0.058309708 0.11893455 0.046328746 0.08818605
0.07709018 0.11064998 0.10187612 0.11769782 0.038965635 0.07581942 0.11012512 0.11577335
0.11308113 0.097531736 0.09002977 0.11548876 0.107181326 0.07277662 0.09054137 0.07753015
0.06255589 0.079605915 0.14277916 0.10513309 0.09662639 0.11263725 0.084032156 0.124906056
0.124617256 0.101544365 0.12384422 0.03274998 0.09376813 0.083766714 0.13659209 0.1209801
0.08195851 0.08481324 0.08574154 0.08123423 0.122071095 0.0980796 0.06271159 0.12404005
0.13787916 0.1015962 0.10916793 0.075778216 0.11139823 0.09681101 0.11408567 0.109591156
0.06491403 0.13698445 0.08936323 0.038774848 0.078145385 0.060312767 0.0614421 0.07328716

fc3.weight f4 [1, 120]
00000000: a1ef 03be fb58 2a3e 10ed 533e 514c 63ba
00000010: 53a9 303e 0575 15be 776b 373e d3e6 03be
00000020: 5dd2 2e3e 149f 3f3e 0676 1abe e4f9 24be
00000030: d7cf 2dbe a7b9 d9bd c624 25be 5485 643e
00000040: 4e05 f63d c07d 24be 8148 17be d945 2ebe
00000050: 6649 32be de32 663c bb5c 06be 882b 133e
00000060: 0169 2ebe 1e13 20be 0a70 1cbe 7313 11be
00000070: 98d1 253e 93ee 373e c028 bfbd 8c05 a6bb
00000080: 20e3 24be 8562 2d3e de77 3c3e 1efe 0abe
00000090: 248b 1abe a3c3 f6bd f56f 10be 69e7 a6bd
000000a0: e6d3 2abe d39f 17be 424c 653e c732 dfbd
000000b0: da98 1ebe ec15 31be e45f eb3d f83e 453e
000000c0: 829f b63b af66 0bbe 2a8d 4c3e 6d3a 493e
000000d0: 07ee 333e 9c64 4f3e ac98 283e fd70 143e
000000e0: f710 0dbe 6a6e f5bd bf84 383e 7f5c 0bbe
000000f0: 200b 2b3e 8361 1dbe fe15 0d3e 754d 41be
00000100: bccd 2c3e 7d0f f8bd 1fb2 13be 1530 2fbe
00000110: e8c8 ad3c b1bf 07be b590 19be 145f dfbd
00000120: 7e0d 30be 0eea 263e e49b 31be d0cf 13be
00000130: c45d 04be 8bed 3c3e 59db 573e 99aa 373e
00000140: fd49 393e df30 303e 5e55 3abe 9b09 263e
00000150: 730f 16be 1680 20be a132 1abe e87d 603e
00000160: 028b 0ebe 27c1 503e 6bb9 16be aff4 99bd
00000170: e424 f2bd 6443 f1bd 01bd 40be 7b3d 39be
00000180: fabb 0ebe e41f e6bd a335 433e 13cb 243e
00000190: 4fde 3abe ac48 fcbd aeae 3d3e 2fca 15be
000001a0: 4f10 27be b184 e4bd 30a5 e9bd ccb6 373e
000001b0: 811c 07be 9b23 39be 77f2 21be 90a5 efbd
000001c0: 4dec 153e 8cbe 21be 3eef 573e 1d6c 143e
000001d0: b312 09be 4b0e 293e 65d1 eebd aba9 acbd
-0.1288438 0.16635506 0.20695901 -0.0008670735 0.17252092 -0.1459542 0.17912088 -0.12881021
0.17072435 0.18713027 -0.15084085 -0.1611095 -0.16973816 -0.106311135 -0.16127309 0.22316486
0.120127305 -0.16063595 -0.14773752 -0.17018832 -0.17410812 0.014050214 -0.13121311 0.14372075
-0.17032243 -0.15632293 -0.15277115 -0.14167576 0.16193235 0.17962103 -0.09333944 -0.005066579
-0.16102266 0.16932113 0.184051 -0.135735 -0.1509214 -0.120490335 -0.14105208 -0.08149607
-0.16682395 -0.14807062 0.22392371 -0.10898357 -0.15487996 -0.17293519 0.11492899 0.19262302
0.005573214 -0.1361339 0.19975725 0.19651194 0.17571269 0.20253223 0.1646449 0.14496227
-0.13776003 -0.119839504 0.18019389 -0.13609503 0.16703463 -0.15369229 0.1377792 -0.18877204
0.16875356 -0.12112329 -0.14423417 -0.17108186 0.021213964 -0.13256718 -0.14996608 -0.109068066
-0.17192647 0.16300222 -0.17344624 -0.14434743 -0.12926394 0.1844999 0.21079768 0.17936172
0.1809463 0.17206143 -0.18196627 0.16214602 -0.14654331 -0.15673861 -0.15058376 0.2192303
-0.13920215 0.20386182 -0.14719169 -0.07517373 -0.118234426 -0.11780432 -0.188221 -0.18089859
-0.13938895 -0.112365514 0.1906343 0.16093092 -0.18248866 -0.123185486 0.18523666 -0.14627908
-0.16314815 -0.111581214 -0.1140846 0.17940825 -0.13194467 -0.18079989 -0.15815149 -0.117015004
0.14640923 -0.15795344 0.21087357 0.14494367 -0.1338604 0.16509359 -0.116610326 -0.08430799
