k_fold_model_1/model2.pt (torch, 242935 bytes, 17 tensors)

conv1.weight f4 [10, 1, 15, 3]
0	0x3ddc2bec	0.10750565
1	0xbeeeedaf	-0.46665713
2	0x3edd332a	0.43203098
3	0x3dc7efa6	0.09762506
4	0xbe3bfc22	-0.183579
5	0x3da75fc8	0.08172566
6	0xbe4126f6	-0.18862519
7	0x3ca6828a	0.020325918
8	0x3cd3c2f9	0.025849806
9	0x3e0643d7	0.13111816
10	0x3cfa6359	0.03056495
11	0x3e144197	0.14478146
12	0x3db79048	0.08963066
13	0x3df47d09	0.11937911
14	0x3e06c43f	0.131608
15	0xbda3f8e0	-0.080064535
16	0xbe39006b	-0.18066566
17	0x3c317607	0.010831363
18	0xbb52f03d	-0.003218665
19	0xbe1350de	-0.14386317
20	0x3d20df0a	0.039275207
21	0x3e17922f	0.14801858
22	0x3e5b75d7	0.21431671
23	0x3e0e5fbd	0.13903709
24	0xbc45127c	-0.012028333
25	0x3d2694d9	0.040669296
26	0x3c5ec00b	0.013595591
27	0xbe31d74e	-0.17367288
28	0x3d03e3b6	0.032199584
29	0xbdf218c8	-0.11821133
30	0xbd86e6e2	-0.06587006
31	0xbe4d1122	-0.20026067
32	0xbe0c2b1d	-0.13688321
33	0x3e35eca2	0.1776605
34	0x3d2fd8f7	0.042931523
35	0x3d413cbb	0.047177058
36	0x3e197ab3	0.14988212
37	0x3d608f10	0.054823935
38	0xbdd1da44	-0.10246709
39	0x3d46cfc5	0.04853799
40	0x3daf0059	0.08544988
41	0x3e1f43d1	0.15553214
42	0xbe498899	-0.19681014
43	0xbdff61e3	-0.12469842
44	0xbe1b1a82	-0.1514683
45	0xbdabbf95	-0.08386151
46	0xbc8d4e8f	-0.017249374
47	0xbd75bd87	-0.0599952
48	0xbc88a138	-0.016678438
49	0x3d6648a5	0.056221623
50	0xbce517a0	-0.027965367
51	0xbd88b9ad	-0.0667604
52	0xbd9208b1	-0.07130564
53	0xbdf4e563	-0.119578145
54	0xbcc3589b	-0.023845961
55	0x3dddf8e6	0.10838489
56	0x3e1493ac	0.14509457
57	0xbe88cd3f	-0.2671909
58	0xbd6c9332	-0.057757564
59	0x3e09313f	0.13397692
60	0x3a1b6250	0.00059274305
61	0x3d79d90d	0.06099801
62	0x3e0fdbef	0.14048742
63	0x3d88034a	0.06641252
64	0x3cac5e82	0.021041159
65	0xbdef7df8	-0.116939485
66	0x3e19a645	0.15004833
67	0xbc1fcff1	-0.009754167
68	0xbe057787	-0.13033877
69	0xbd8569aa	-0.065142944
70	0xbe78a4d0	-0.24281621
71	0x3e30d83a	0.17269984
72	0x3eabefc0	0.33581352
73	0x3e958f2d	0.29210797
74	0x3eb9d3ad	0.36294308
75	0x3e236533	0.15956573
76	0x3e64c510	0.22340798
77	0x3dbc217d	0.09186075
78	0x3d13306a	0.035934843
79	0xbd718c74	-0.058971837
80	0x3dfe4f65	0.12417487
81	0x3d477b75	0.048701722
82	0xbe64ba62	-0.22336724
83	0xbe9b8027	-0.3037121
84	0xbd6d3211	-0.057909075
85	0x3db90ffe	0.090362534
86	0xbe030786	-0.12795839
87	0xbd35c8a0	-0.044380784
88	0x3e67ecab	0.22648875
89	0x3e15ccd4	0.14628917
90	0xbe1a4cd3	-0.15068369
91	0x3e0731bd	0.13202567
92	0x3d0e0fa3	0.03468288
93	0xbe6896e6	-0.22713813
94	0x3da99951	0.08281196
95	0x3de69f78	0.11260885
96	0xbd1eb318	-0.038745016
97	0x3db4188f	0.08793747
98	0xbd8efbe1	-0.06981636
99	0xbe31875f	-0.17336796
100	0x3e88c75b	0.26714596
101	0xbcbe9703	-0.023265367
102	0xbe4d76e0	-0.20064878
103	0xbd563c3b	-0.052303534
104	0x3e5afd92	0.21385792
105	0x3d09c4ac	0.033634827
106	0x3e37eb9b	0.1796097
107	0xbe1c619c	-0.1527161
108	0x3e922374	0.28542674
109	0xbea2b4ed	-0.3177866
110	0xbd366ea3	-0.044539105
111	0xbd7f9a62	-0.06240309
112	0x3e24f565	0.16109236
113	0x3cbdce06	0.023169529
114	0xbdbbd7ba	-0.09172006
115	0xbcbd626d	-0.023118222
116	0x3c431b3e	0.0119083505
117	0xbe74cc27	-0.23906003
118	0xbacebfa9	-0.0015773672
119	0x3e569692	0.20955876
120	0xbecf79f8	-0.40522742
121	0x3e06ab3a	0.13151255
122	0x3edf8e60	0.4366331
123	0xbec0146b	-0.37515578
124	0x3e0f3c24	0.13987786
125	0x3e8eaf27	0.27868006
126	0xbe3d16d6	-0.18465742
127	0x3ce759f9	0.028241144
128	0x3debe33f	0.11517953
129	0xbd87da4e	-0.06633435
130	0xbd8ef89c	-0.06981012
131	0x3e0edf36	0.13952336
132	0xbb3a3969	-0.0028415567
133	0xbcf10ab7	-0.029424055
134	0x3d005521	0.031331185
135	0x3caac7ac	0.020847164
136	0xbe18ddfe	-0.14928433
137	0x3e6d1eca	0.23156276
138	0x3e66a30d	0.22523136
139	0xbe494a7f	-0.19657324
140	0x3dd0a866	0.101883695
141	0xbdac7653	-0.08421006
142	0xbe98553f	-0.29752538
143	0x3e02d8fd	0.12778087
144	0xbcf35dc2	-0.029707793
145	0xbd236c3a	-0.039898135
146	0x3d5b25e3	0.05350293
147	0x3e1cef6d	0.15325709
148	0x3d7534c1	0.059864763
149	0xbe9b8cb4	-0.30380785
150	0xbba1be24	-0.0049359966
151	0x3e90f9f2	0.28315693
152	0xbd289c16	-0.04116448
153	0xbdfac474	-0.12244502
154	0x3e3b6d8e	0.1830351
155	0x3dfc25dc	0.123119086
156	0xbe878a3d	-0.26472655
157	0x3d6efa9f	0.05834448
158	0xbd3b6174	-0.045747235
159	0xbdc2d481	-0.09513188
160	0xbde37193	-0.11105647
161	0xbda7fb40	-0.08202219
162	0x3e713fed	0.23559542
163	0x3da980a1	0.08276487
164	0x3e950309	0.29103878
165	0xbe69dc9b	-0.2283806
166	0xbe1bca6f	-0.15213941
167	0x3e28a554	0.16469318
168	0xbd664ace	-0.056223683
169	0xbe857047	-0.26062223
170	0xbda3eaf8	-0.08003801
171	0xbd53176f	-0.05153602
172	0x3decd631	0.11564291
173	0x3ced4be9	0.02896686
174	0x3f00c044	0.50293374
175	0x3d0f20a9	0.034943257
176	0x3d32cdaf	0.043653186
177	0x3e660a90	0.22464967
178	0xbe2c17d5	-0.16805966
179	0xbd31b6d2	-0.04338724
180	0x3ccd0794	0.025028028
181	0xbda922f9	-0.08258624
182	0x3c6fac68	0.014628507
183	0xbe0f5ba2	-0.13999799
184	0x3d9252b2	0.07144679
185	0xbe4fd19c	-0.20294803
186	0xbdfb06c9	-0.122571535
187	0xbd4fe061	-0.050751094
188	0xbdd17ae0	-0.10228515
189	0x3def6046	0.116882846
190	0x3e79a106	0.24377832
191	0x3e205f3e	0.15661332
192	0x3e0a765e	0.13521716
193	0x3df01bf1	0.117240794
194	0xbc10111e	-0.008793144
195	0xbd91e252	-0.07123245
196	0xbe167a11	-0.14695002
197	0xbed8d548	-0.4235022
198	0xbe467dce	-0.19383928
199	0x3c5d7304	0.013516191
200	0xbe33db18	-0.17564046
201	0xbda0f6c4	-0.07859567
202	0x3e521c15	0.20518525
203	0x3e85e32a	0.26149875
204	0xbe1a1da2	-0.15050367
205	0x3d2f4181	0.04278708
206	0x3eb1cf35	0.347284
207	0xbe32f35a	-0.17475644
208	0xbe634d6e	-0.22197506
209	0x3dda018d	0.10644827
210	0x3ca5ea93	0.020253455
211	0x3de9e861	0.11421276
212	0xbdb44cc4	-0.088037044
213	0xbe4eb3b7	-0.20185743
214	0xbe762f33	-0.24041443
215	0xbe52c0ad	-0.20581312
216	0x3ce557ca	0.027995963
217	0x3d3162ef	0.04330724
218	0x3e34c335	0.1765259
219	0x3d42d7e0	0.047569156
220	0xbd2df42e	-0.042469196
221	0x3e9076e8	0.28215718
222	0xbe006276	-0.1253756
223	0xbdc15dbe	-0.09441708
224	0x3d170c12	0.036876746
225	0x3ef04a65	0.4693176
226	0x3ddc6265	0.10760955
227	0x3ed1720f	0.40907332
228	0x3e5c10c7	0.21490775
229	0x3c85370c	0.0162616
230	0x3daa5b80	0.083182335
231	0xbcc8614e	-0.024460461
232	0x3c21361a	0.009839559
233	0x3e5a97f2	0.21347025
234	0xbb8a4ba5	-0.0042204433
235	0xbe447132	-0.19183806
236	0xbd192d05	-0.03739645
237	0xbd96a6bb	-0.0735602
238	0x3e0597ec	0.13046235
239	0xbde2ef9c	-0.11080858
240	0x3d0921ae	0.033479385
241	0x3d8608df	0.06544661
242	0xbe2ecfc7	-0.17071448
243	0x3d2e9e9e	0.042631738
244	0xbd48df02	-0.0490408
245	0xbce22eaf	-0.027610151
246	0xbe898e1a	-0.26866227
247	0xbdd1863d	-0.10230682
248	0x3e3677ae	0.17819092
249	0xbdafa4b3	-0.08576336
250	0xbc5d19e9	-0.013494947
251	0x3e51b7a3	0.20480208
252	0xbd6b0f22	-0.05738748
253	0xbe049283	-0.12946515
254	0xbd8a2ce4	-0.067468435
255	0xbdb17981	-0.08665753

conv1.bias f4 [10]
0	0x38d93864	0.0001035787
1	0xba120188	-0.0005569686
2	0xb8c7d6e4	-9.529086e-05
3	0x393671a4	0.00017399207
4	0x3a0fef72	0.0005490697
5	0x39466047	0.00018918618
6	0x3a174dcb	0.0005771785
7	0x39371950	0.0001746167
8	0x3933e62c	0.00017156516
9	0x38e69eb5	0.00010996816

bn1.weight f4 [10]
0	0x3ef1c39a	0.47219545
1	0x3f2984ff	0.6621856
2	0x3f391f01	0.72312933
3	0x3f0e390f	0.55555815
4	0x3f2c2405	0.6724246
5	0x3f2f573d	0.6849249
6	0x3f3ad1aa	0.7297617
7	0x3f24ea23	0.64419764
8	0x3f1cb0e3	0.6120741
9	0x3f4bb769	0.79576737

bn1.bias f4 [10]
0	0xbe7f1b38	-0.24912727
1	0xbec63dab	-0.38718924
2	0xbe9805da	-0.29691964
3	0xbe0f1b8a	-0.13975349
4	0xbe8d2499	-0.27566984
5	0xbe756eb7	-0.23968016
6	0xbeca9609	-0.39567593
7	0xbe9c61f7	-0.3054349
8	0xbe3897fc	-0.18026727
9	0xbe8497db	-0.25897107

bn1.running_mean f4 [10]
0	0x3e3e8be2	0.18608049
1	0x3f0e580d	0.55603105
2	0x3d5d1295	0.0539728
3	0x3e64df18	0.22350729
4	0xbee06778	-0.4382894
5	0x3e95b7b4	0.29241717
6	0xbc03c0c6	-0.008041566
7	0xbd2ed22b	-0.0426809
8	0x3e7b1c98	0.24522626
9	0x3de194bf	0.11014699

bn1.running_var f4 [10]
0	0x3c9dcefa	0.019263733
1	0x3dafface	0.08592759
2	0x3cd05211	0.025429757
3	0x3cc041fa	0.02346896
4	0x3cf4267f	0.029803513
5	0x3de993c9	0.11405141
6	0x3d5e8b6f	0.054332193
7	0x3c9bd86a	0.019024093
8	0x3dc07d1e	0.09398864
9	0x3ddef237	0.108860426

conv2.weight f4 [20, 10, 3, 3]
0	0xbda1ddd9	-0.07903642
1	0xbd8b92d1	-0.068151124
2	0xbc247b5e	-0.010039179
3	0xbcedf93d	-0.02904951
4	0x3c11cab1	0.008898423
5	0x3bcdf994	0.0062858555
6	0xbe000fd5	-0.1250604
7	0x3db3c02e	0.0877689
8	0x3e24797c	0.16061968
9	0xbe87eace	-0.2654633
10	0x3d474c3f	0.0486567
11	0x3dd6cc10	0.104881406
12	0x3e94eb5f	0.29085824
13	0x3dd809ec	0.105487674
14	0x3d494254	0.04913552
15	0xbd1944a2	-0.03741897
16	0xbd7c4ba8	-0.06159559
17	0x3d9306ee	0.07179056
18	0xbe62f919	-0.22165336
19	0xbe304713	-0.17214613
20	0xbe5ee6a6	-0.21767673
21	0xbe7fe0db	-0.2498812
22	0x3e194988	0.14969456
23	0x3dadaa56	0.084797546
24	0xbdbf5e72	-0.09344186
25	0xbe3e6186	-0.1859189
26	0xbe6c95aa	-0.23103967
27	0x3d722132	0.05911369
28	0x3cb4e080	0.022079706
29	0xbd82ebb5	-0.06392614
30	0xbc8ec771	-0.017429085
31	0x3dd361d9	0.10321397
32	0xbd97b8d3	-0.07408299
33	0x3c9027cc	0.017597102
34	0x3d406c4a	0.046978272
35	0x3d4ed360	0.05049455
36	0xbd5c0dd5	-0.05372413
37	0x3d4fdbec	0.050746843
38	0xbc52ddee	-0.012870295
39	0xbd4867fb	-0.04892729
40	0xbb51f9b2	-0.00320397
41	0x3ddbf74d	0.10740528
42	0xbe110790	-0.14163041
43	0xbe17d604	-0.14827734
44	0xbc4df3a7	-0.012570298
45	0x3d4223db	0.047397476
46	0x3da5724a	0.080784395
47	0x3d5cdb73	0.05392022
48	0xbd80a08e	-0.062806234
49	0xbcd56277	-0.026047928
50	0x3b422cdd	0.0029628791
51	0x3d861859	0.06547613
52	0xbb9839c3	-0.0046455576
53	0x3d7194bb	0.05897973
54	0xbecdd635	-0.4020249
55	0xbd8b09b9	-0.06788964
56	0x3cfd057b	0.030886402
57	0xbe2111ff	-0.15729521
58	0xbdb057a0	-0.08610463
59	0xbde54714	-0.11195198
60	0x3e630732	0.22170714
61	0x3e4bb0d1	0.19891669
62	0xbc8c9516	-0.017160933
63	0x3e17c390	0.14820695
64	0x3b5c14a7	0.0033581646
65	0x3d965802	0.07341005
66	0x3dd2d717	0.102949314
67	0xbdf5869c	-0.11988565
68	0x3a2d8bfb	0.0006620285
69	0xbe64e9a8	-0.22354758
70	0xbe3ddd15	-0.18541367
71	0xbd8e1753	-0.069380425
72	0xbd34a055	-0.044098217
73	0x3c15b7ca	0.009138057
74	0xbd58b4d5	-0.05290683
75	0x3d9eeb48	0.0775972
76	0xbcbb9d2c	-0.022902094
77	0x3d883644	0.06650975
78	0x3dbfcd85	0.093653716
79	0x3aea5064	0.0017876741
80	0x3dd2edd6	0.1029927
81	0xbd83fc06	-0.06444554
82	0xbd4bac38	-0.049724787
83	0xbd73a13b	-0.059479933
84	0x3d85540b	0.065101705
85	0x3dcb7990	0.099352956
86	0x3d8a000e	0.06738292
87	0x3e07f0ed	0.132755
88	0x3d03cf3e	0.032180063
89	0xbcaa49c0	-0.02078712
90	0x3e1ba95d	0.15201326
91	0x3d96cb28	0.07362968
92	0x3e286a28	0.16446745
93	0x3db24a6e	0.087056026
94	0x3cdaa38a	0.02668931
95	0xbd9c24e6	-0.07624225
96	0xbe88f257	-0.2674739
97	0x3cc76a96	0.024342816
98	0x3d8ad4ae	0.06778847
99	0x3dc9ada9	0.09847576
100	0xbdb947f3	-0.09046926
101	0xbe558a87	-0.20853625
102	0xbce38216	-0.02777199
103	0x3cff77f5	0.03118513
104	0x3b254e54	0.002522369
105	0x3d8533c8	0.06504017
106	0xbcf548e0	-0.029941976
107	0xbe87a38a	-0.26491958
108	0xbc578943	-0.013155284
109	0xbe2114a9	-0.15730537
110	0x3e186535	0.14882357
111	0x3d289b23	0.041163575
112	0x3dddf9cf	0.10838663
113	0xbdab4045	-0.08361868
114	0xbd0fee6f	-0.035139497
115	0x3cfeb4cf	0.031092076
116	0x3dbcf6a9	0.09226734
117	0xbdf3006e	-0.11865316
118	0x3cc41052	0.023933563
119	0x3e37651c	0.17909664
120	0x3daef957	0.085436516
121	0x3db319b8	0.0874514
122	0xbd09b273	-0.033617448
123	0x3dee6f25	0.11642293
124	0x3c119eb4	0.008887935
125	0x3c14026a	0.009033779
126	0xbddeb796	-0.1087486
127	0xbe11cc21	-0.14238025
128	0xbdb09256	-0.08621661
129	0xbc9a86ab	-0.018863043
130	0x3de205c3	0.11036255
131	0x3dcf0498	0.10108298
132	0xbd7f27f5	-0.062293965
133	0xbdd3a6ec	-0.10334572
134	0xbd940a2b	-0.07228502
135	0x3d41d484	0.04732181
136	0x3e393df2	0.18090037
137	0x3c615030	0.013752028
138	0x3d76869d	0.06018697
139	0x3ba21ea4	0.0049475003
140	0xbed54ace	-0.41658634
141	0x3bf125bf	0.007359236
142	0xbaf91680	-0.0019003898
143	0xbedeb056	-0.4349391
144	0xbd0fb50f	-0.03508478
145	0x3dd8f59c	0.10593721
146	0x3cb3fc13	0.021970784
147	0x3cbfb8c6	0.023403537
148	0xbe45a086	-0.19299516
149	0xbe501c9e	-0.20323417
150	0x3cd572ed	0.026055777
151	0xbc08553c	-0.008321103
152	0xbdbc74c3	-0.09201958
153	0x3e67da50	0.22641873
154	0xbc687a11	-0.014189259
155	0xbc64044e	-0.013917042
156	0xbd822c5f	-0.06356119
157	0xbd887a2b	-0.06663927
158	0x3dc28299	0.09497566
159	0x3e01e7f4	0.1268614
160	0x3d8a2a7b	0.06746384
161	0xbdc2d3a2	-0.09513022
162	0x3c384f43	0.011249366
163	0xbdbb0905	-0.0913258
164	0xbc970185	-0.018433342
165	0x3cfcb8b1	0.030849786
166	0xbe061329	-0.13093247
167	0xbe762300	-0.24036789
168	0x3e091517	0.13386951
169	0x3e08986c	0.13339394
170	0xbe823e38	-0.25438094
171	0xbdc99bf9	-0.098442025
172	0x3d646a4b	0.05576543
173	0xbd3296e2	-0.043600924
174	0xbd683135	-0.056687552
175	0x3e052a23	0.13004355
176	0xbe345a37	-0.17612539
177	0x3d056beb	0.03257362
178	0x3c71c254	0.014755804
179	0xbd3f04af	-0.046635326
180	0xbd462945	-0.0483792
181	0x3d12e177	0.03585955
182	0x3e021367	0.12702714
183	0xbdd9ee7f	-0.10641193
184	0x3dba7d8d	0.09105978
185	0xbe450486	-0.19240007
186	0xbcc92dc3	-0.024557954
187	0xbbc0e33c	-0.0058864634
188	0x3db7edaa	0.08980878
189	0xbb8b7426	-0.0042557893
190	0xbdb38093	-0.08764758
191	0xbd1b44a9	-0.037907276
192	0x3e5d286b	0.2159745
193	0x3e1429e2	0.14469102
194	0xbc1ed7dd	-0.0096950205
195	0x3e84eb27	0.25960657
196	0x3e5c98b5	0.21542628
197	0xbe1526e5	-0.14565618
198	0xbd812a4e	-0.06306897
199	0x3d3bff8d	0.04589801
200	0xbcf8b8a6	-0.030361485
201	0x3e1b47da	0.15164128
202	0x3cdcd120	0.026955187
203	0x3b8b2529	0.004246373
204	0xbdb53bb7	-0.0884928
205	0xbdc1a528	-0.09455329
206	0xbe255adc	-0.16147941
207	0x3bb23c31	0.0054393043
208	0xbce0f45f	-0.027460275
209	0xbd8d8337	-0.06909793
210	0xbd885851	-0.0665747
211	0xbe03d005	-0.12872322
212	0x3d9b5a4a	0.07585581
213	0x3e39ecda	0.18156758
214	0x3d430763	0.047614466
215	0xbe0111a5	-0.12604387
216	0x3df3a1a4	0.11896065
217	0xbd885503	-0.0665684
218	0xbd9be172	-0.0761136
219	0x3d30ffd5	0.04321273
220	0xbbaca75c	-0.005268974
221	0x3d271662	0.04079283
222	0x3ce2d588	0.02768971
223	0xbb209bdb	-0.002450696
224	0x3eb3021c	0.34962547
225	0x3e5edd28	0.21764052
226	0x3dcdedd3	0.10055127
227	0x3dc7fcc7	0.0976501
228	0x3c8b3fa9	0.016998129
229	0xbcaf7e40	-0.021422505
230	0xbdd69a70	-0.10478675
231	0x3e5364da	0.2064394
232	0x3dd38793	0.10328593
233	0xbe3e1fe9	-0.1856686
234	0xbdd6d0bd	-0.104890324
235	0xbd602fa0	-0.05473292
236	0x3d110cb9	0.035412524
237	0xbca8544d	-0.02054801
238	0x3c9259df	0.01786512
239	0xbbd3fb40	-0.0064691603
240	0xbe0fc43b	-0.140397
241	0x3e103e95	0.14086373
242	0x3d9d85c3	0.07691529
243	0x3d8d5305	0.069006
244	0x3de41045	0.11135916
245	0x3c27520d	0.0102124335
246	0xbcbde6c9	-0.023181336
247	0x3db90692	0.09034456
248	0xbd7f8d58	-0.062390655
249	0xbd851368	-0.06497842
250	0x3d00f676	0.031485043
251	0xbd0081a6	-0.031373642
252	0x3c6f0ba6	0.01459018
253	0x3c3b7012	0.011440294
254	0xbe2eb9fc	-0.17063135
255	0x3d999312	0.074987546

conv2.bias f4 [20]
0	0x3802a1a8	3.114497e-05
1	0xb7f9572d	-2.9723707e-05
2	0x37c33638	2.3271059e-05
3	0x390a2a85	0.00013176545
4	0x3814141a	3.530467e-05
5	0xb7ca9e02	-2.4153855e-05
6	0x388edf11	6.812637e-05
7	0xb83b155c	-4.4604167e-05
8	0xb8a6ccb2	-7.953624e-05
9	0x38582c3e	5.1539617e-05
10	0x37efedd0	2.860176e-05
11	0xb914551c	-0.00014146086
12	0xb8a36877	-7.791904e-05
13	0xb782df28	-1.5601123e-05
14	0xb894ecb6	-7.101281e-05
15	0x39531f65	0.00020134223
16	0xb9339b5e	-0.00017128649
17	0xb80160c8	-3.084613e-05
18	0x38e4fa66	0.000109185276
19	0x39b7b0f6	0.00035036326

bn2.weight f4 [20]
0	0x3ef6c952	0.4820047
1	0x3f0180ca	0.5058714
2	0x3ececbc2	0.4038983
3	0x3ee6dfc3	0.45092592
4	0x3eda43b1	0.4262977
5	0x3ee9d3d6	0.4566943
6	0x3ee7d755	0.45281473
7	0x3f053f35	0.5204957
8	0x3f057907	0.521378
9	0x3f1136e4	0.5672438
10	0x3ed0521f	0.40687653
11	0x3ec298d1	0.38007215
12	0x3f0593f4	0.52178884
13	0x3edcee15	0.43150392
14	0x3efc9f30	0.493402
15	0x3f16a172	0.58840096
16	0x3eeabf6a	0.45849162
17	0x3f0c4cb5	0.54804546
18	0x3ec2de53	0.38060245
19	0x3efcd652	0.49382263

bn2.bias f4 [20]
0	0xbe6d6865	-0.23184355
1	0xbef7d42d	-0.48404065
2	0xbd8dbcaa	-0.069207504
3	0xbe40467c	-0.18776888
4	0xbf0de408	-0.55426073
5	0xbe8efa51	-0.2792535
6	0xbec81482	-0.39078146
7	0xbeae885b	-0.34088406
8	0xbeab07e1	-0.3340445
9	0xbe83badf	-0.2572851
10	0xbecc4792	-0.39898354
11	0xbed79f1d	-0.4211358
12	0xbe8534ba	-0.2601679
13	0xbe41556e	-0.18880245
14	0xbe9ea3a7	-0.30984232
15	0xbe83ccf6	-0.2574231
16	0xbe7aa972	-0.24478701
17	0xbe82ae67	-0.25523683
18	0xbf13042a	-0.5742823
19	0xbe97189b	-0.2951096

bn2.running_mean f4 [20]
0	0xbe3e2829	-0.18570007
1	0xbed99041	-0.4249287
2	0xbc2e7b0e	-0.010649456
3	0xbe43fded	-0.19139834
4	0xbdbf1375	-0.09329883
5	0xbec9b779	-0.3939779
6	0xbf104832	-0.5636016
7	0xbec0ef02	-0.37682348
8	0xbe1c44b3	-0.15260582
9	0xbf0eab6b	-0.55730313
10	0xbeaaad22	-0.33335215
11	0xbda7c64f	-0.08192121
12	0xbd817336	-0.06320803
13	0xbe6c2f0a	-0.23064819
14	0x3d225007	0.0396271
15	0xbdd2b01d	-0.10287497
16	0xbece82ea	-0.40334255
17	0xbeb62189	-0.3557246
18	0xbe9c25c0	-0.3049755
19	0xbebec7fa	-0.37261945

bn2.running_var f4 [20]
0	0x3e97d268	0.29652715
1	0x3e0354e4	0.12825352
2	0x3dedec8a	0.11617382
3	0x3e69963e	0.22811219
4	0x3d9bc17c	0.076052636
5	0x3ecf4aeb	0.40486845
6	0x3e1b5079	0.15167417
7	0x3ec58ac3	0.3858243
8	0x3e71b971	0.23605897
9	0x3e7dc54f	0.24782299
10	0x3e3e0ae3	0.1855884
11	0x3e058a07	0.13040935
12	0x3e283836	0.16427693
13	0x3e564547	0.20924865
14	0x3e7bdc2c	0.24595708
15	0x3e6fe5b8	0.23427474
16	0x3e427714	0.18990737
17	0x3e40c927	0.18826734
18	0x3ddf6c34	0.1090931
19	0x3e46f0b4	0.19427758

fc1.weight f4 [256, 100]
0	0x3c6edbb6	0.01457875
1	0x3cc7f804	0.024410255
2	0xbb97f1e2	-0.004636989
3	0x3c6adb47	0.014334506
4	0x3c977883	0.018490082
5	0x3c581b93	0.013190168
6	0x3cfe0b28	0.03101118
7	0x3c17b380	0.009259105
8	0x3bf3469f	0.00742419
9	0x3c19e596	0.009393116
10	0xbc2d4572	-0.010575639
11	0xbcbb543a	-0.02286731
12	0xbc82aebe	-0.015952464
13	0x3c2f0cfa	0.010684246
14	0x3d918643	0.071056865
15	0x3c297eab	0.010345141
16	0x3cab41a8	0.02090533
17	0x3b75b901	0.0037494304
18	0x3cb88656	0.022524994
19	0x39ff7d46	0.00048730726
20	0x3d09d0e5	0.033646483
21	0x3cc43bb8	0.023954257
22	0x3b9f2a29	0.004857321
23	0xbcec6659	-0.028857397
24	0xbc6d0983	-0.0144676
25	0xbaa42836	-0.0012524191
26	0x3b8b96f4	0.0042599384
27	0x3bb51688	0.0055263676
28	0xbd279a83	-0.04091884
29	0xbc8713be	-0.016488906
30	0x3a58a2de	0.0008264015
31	0x3cad065b	0.021121195
32	0xbcf75356	-0.030191105
33	0xbbf2660e	-0.00739742
34	0xb9fbaa73	-0.00048001445
35	0x3ca6b5a0	0.020350277
36	0x3c7cf3c6	0.0154389795
37	0xbbf73053	-0.0075436025
38	0x3c7c6bd8	0.015406571
39	0xbb4feb09	-0.0031725785
40	0x3d0316d6	0.0320042
41	0xbc0cb9fc	-0.008589264
42	0xbcb6c88a	-0.022312421
43	0xbbc2fd70	-0.0059506223
44	0xbcaad424	-0.02085311
45	0xbc8f3481	-0.01748109
46	0xbd130be7	-0.035900023
47	0xbc0f9684	-0.008763913
48	0xbc61db1b	-0.013785149
49	0x3cf19883	0.029491669
50	0xbc58a7ac	-0.01322357
51	0xbb99eac6	-0.0046971766
52	0xbd0a58fa	-0.03377626
53	0xbbee2b62	-0.007268355
54	0x3bb01a33	0.005374217
55	0xbbe57fe4	-0.007003771
56	0xbcbb1da4	-0.022841282
57	0x3a529069	0.0008032383
58	0x3b57d024	0.0032930458
59	0x3c90dfd5	0.017684856
60	0x3d7055e5	0.058675665
61	0x3c04feed	0.00811742
62	0x3c845825	0.016155312
63	0xbd316a2a	-0.043314137
64	0x3c23e7c5	0.010003989
65	0x3d3395b6	0.043843947
66	0x3d27d739	0.040976737
67	0xb98abcac	-0.00026461983
68	0x3bb373f3	0.0054764687
69	0xbc51870c	-0.012788545
70	0x3cc65261	0.024209203
71	0x3cc31691	0.023814471
72	0xbc39c286	-0.011337882
73	0xbafeeca3	-0.0019449185
74	0x3c85eb89	0.016347663
75	0x3d106095	0.035248358
76	0x3c94030e	0.018067863
77	0x3cd22c4f	0.025655894
78	0xbbaf30f2	-0.005346411
79	0x3d50422f	0.050844368
80	0xbc9183d6	-0.01776306
81	0xbd263fd8	-0.04058823
82	0xbc1816a1	-0.009282739
83	0x3cf0a215	0.029374162
84	0x3cede502	0.029039863
85	0x3d23ac37	0.03995916
86	0xbc5c6c67	-0.0134535795
87	0x3b189e12	0.0023287577
88	0x3bda98c3	0.0066710426
89	0xbc6de92d	-0.0145209255
90	0xbb43f80b	-0.0029902484
91	0x3cf52eff	0.029929636
92	0xbd00c315	-0.031436045
93	0xbc507b52	-0.012724714
94	0xbc7378e8	-0.014860369
95	0xbd0ff771	-0.035148088
96	0x3d185580	0.037190914
97	0x3c3097e3	0.0107784
98	0x3d43b0e2	0.04777611
99	0xbabded73	-0.0014490321
100	0xbd14e6bd	-0.03635286
101	0xbda1c23a	-0.07898374
102	0xbd88a311	-0.066717274
103	0xbd2ee092	-0.042694636
104	0x3cfe3ab8	0.031033859
105	0x3d4628bd	0.048378695
106	0x39ee9ff2	0.00045514066
107	0xbd8a9631	-0.06766928
108	0xbd8af85e	-0.067856535
109	0xbd26d152	-0.040726967
110	0xbc0d0ada	-0.008608544
111	0xbd675839	-0.05648062
112	0xbd8fb302	-0.07016565
113	0xbd875909	-0.06608779
114	0xbd6fd549	-0.058553014
115	0xbd9e1dc5	-0.07720522
116	0xbdcb66be	-0.09931706
117	0xbd59b7dd	-0.05315386
118	0x3b66f35b	0.0035240266
119	0xbc1f86ab	-0.009736697
120	0xbd9c6aa6	-0.07637529
121	0xbd9cb193	-0.07651057
122	0x3bbb186a	0.0057096975
123	0x3cb700e3	0.02233929
124	0xbd300b55	-0.042979557
125	0xbd4540b3	-0.048157405
126	0xbd045f7f	-0.032317635
127	0xbd83f850	-0.06443846
128	0xbcc7a6af	-0.024371473
129	0xbccc9c4f	-0.024976877
130	0x3d8f2ba1	0.069907434
131	0xbcd62fc0	-0.026145816
132	0x3c3ae94e	0.011408163
133	0xbdcf8999	-0.101336665
134	0xbd0c67ec	-0.034278795
135	0xbc8bfd33	-0.017088508
136	0xbc343533	-0.010999012
137	0x3c28a7b6	0.010293892
138	0x3d640e21	0.055677537
139	0x3d456cad	0.048199344
140	0xbddd7d0a	-0.10814865
141	0xbde9988b	-0.114060484
142	0xbdce061a	-0.100597575
143	0x3d6d73af	0.057971653
144	0x3d40c34c	0.04706125
145	0x3d21cc96	0.03950175
146	0x3d587352	0.052844353
147	0x3cf0ba5e	0.029385742
148	0xbd5349a2	-0.051583894
149	0x3c9751bc	0.018471591
150	0x3d8dc7a0	0.06922841
151	0x3d820f03	0.063505195
152	0x3d8dc0a6	0.069215104
153	0xbdad51ba	-0.08462854
154	0xbcaa610c	-0.020798229
155	0xbdbd4d21	-0.09243227
156	0xbdc97c66	-0.0983818
157	0x3c13a41e	0.009011297
158	0x3d8f1bbd	0.069877125
159	0x3c5b307f	0.013378262
160	0xbd376b90	-0.044780314
161	0xbd73ba96	-0.059504114
162	0xbca80bff	-0.020513533
163	0x3cc50877	0.024051888
164	0x3cdab168	0.026695922
165	0xbd4c6ec4	-0.04991032
166	0xbd51b900	-0.05120182
167	0xbdf28e9a	-0.11843605
168	0xbc1021fd	-0.008797166
169	0x3d2abb8c	0.041682765
170	0xbd8d19ae	-0.06889664
171	0x3c65ae25	0.01401857
172	0xbcc6b8da	-0.024258066
173	0xbcbca886	-0.023029577
174	0x3cdc7c7d	0.02691483
175	0xbd0c7d89	-0.034299407
176	0xbcbdb75b	-0.02315872
177	0xbc7b200d	-0.015327466
178	0xbd1cbcdb	-0.038266044
179	0x3d8b8dbb	0.06814142
180	0x3c8edf67	0.01744051
181	0xbc3ef247	-0.011654443
182	0xbce1e8f6	-0.027576905
183	0xbd3a9ed3	-0.045561623
184	0x3c518947	0.012789077
185	0x3d1ee9d4	0.038797215
186	0x3ce31fa9	0.027725058
187	0xbd001af1	-0.031275693
188	0xbd4cd2d0	-0.050005734
189	0xbd1a5b3c	-0.037684664
190	0xbd6f92cb	-0.058489602
191	0xbd416435	-0.047214705
192	0xbba8a0a4	-0.005146103
193	0x3d653ae0	0.05596435
194	0x3da73ccd	0.08165894
195	0xbd81c839	-0.063370176
196	0xbd646710	-0.05576235
197	0xbd881907	-0.066453986
198	0xbd15cab3	-0.036570262
199	0xbc0183a0	-0.007904917
200	0x3da1e772	0.07905473
201	0x3c9738f0	0.018459767
202	0xbdbea240	-0.093082905
203	0xbd9b0e45	-0.07571081
204	0xbddb6f67	-0.10714608
205	0x3d1a3145	0.037644643
206	0x3c5034ab	0.0127078695
207	0x3ccd7cb4	0.025083877
208	0x3ae64694	0.0017568641
209	0xbd648112	-0.055787154
210	0x3d0aac87	0.03385594
211	0x3d27657a	0.04086826
212	0x3d8e2f23	0.06942584
213	0xbc8defc1	-0.017326238
214	0xbc2aa829	-0.010416069
215	0x3d8d096a	0.06886561
216	0x3d91f53a	0.071268514
217	0xbdb326ab	-0.0874761
218	0xbe0b214c	-0.1358692
219	0xbe081c20	-0.13291979
220	0xbd31dd5f	-0.043424007
221	0xbca42862	-0.020038787
222	0xbd5c4e6a	-0.05378572
223	0xbd01536b	-0.031573694
224	0x3e210481	0.15724374
225	0x3dc1e03b	0.09466597
226	0x3e13c1f6	0.14429459
227	0xbd55d054	-0.05220063
228	0xbde555c9	-0.11198003
229	0xbe00eb9d	-0.1258988
230	0x3ca40fb6	0.020027023
231	0x3d5c39b9	0.053765986
232	0x3d05048d	0.032475043
233	0xbc7ac125	-0.015304838
234	0xbdbf4cbe	-0.09340809
235	0x3d03ba69	0.032160196
236	0xbcb13d55	-0.02163569
237	0xbe115001	-0.14190675
238	0xbe15708f	-0.14593719
239	0xbddc6a54	-0.10762468
240	0x3e01c84f	0.12674068
241	0x3e05cb4d	0.13065834
242	0xbd0d1b09	-0.03444961
243	0xbdc42bde	-0.095786795
244	0xbda9df5d	-0.08294556
245	0x3cfbf8c3	0.030758267
246	0x3cb7d81f	0.022441922
247	0x3d639916	0.055565916
248	0xbde4439a	-0.111457065
249	0xbdddc7bd	-0.10829113
250	0xbac112f2	-0.0014730378
251	0x3c1c577b	0.009542341
252	0x3de0d318	0.10977763
253	0x3bd2815d	0.0064241127
254	0xbdca7514	-0.09885612
255	0xbd7decd0	-0.06199342

fc1.bias f4 [256]
0	0xbda8cd13	-0.0824224
1	0x3da2f129	0.07956154
2	0x3cb2a314	0.021806277
3	0xb49e079c	-2.943533e-07
4	0xbc54a27b	-0.0129781915
5	0x3d581cd5	0.05276187
6	0xa77e1a72	-3.5263917e-15
7	0xbcf888f1	-0.030338736
8	0x3da421de	0.08014272
9	0xb14f577f	-3.01722e-09
10	0xbd88817e	-0.06665324
11	0xbc87251e	-0.016497191
12	0x3d86c3ed	0.065803386
13	0xbd729677	-0.059225526
14	0xbd31d7b7	-0.043418612
15	0xbc5a8fdf	-0.013339966
16	0xbb3d6be7	-0.0028903426
17	0x3d72ba9c	0.059259996
18	0xbc1a2e7c	-0.009410497
19	0xbaec152f	-0.0018011684
20	0xbc030065	-0.0079956995
21	0xb7d35cc0	-2.519635e-05
22	0xbb929374	-0.004473144
23	0xbd1b6704	-0.03794004
24	0xbd3bc616	-0.045843206
25	0xbd07207e	-0.03298997
26	0x3dc24278	0.09485334
27	0xbd01acdc	-0.031658992
28	0xb768d093	-1.387684e-05
29	0xbb3d1ca2	-0.0028856178
30	0x3bcb3e4e	0.0062024957
31	0x3974c1aa	0.00023341799
32	0xbd0c6da7	-0.03428426
33	0xbd5a7d4a	-0.05334214
34	0xb7ca76e5	-2.4135641e-05
35	0xbc8fdd69	-0.017561631
36	0xb2dfc764	-2.605129e-08
37	0x3aa3fdb2	0.001251152
38	0x3d1939a1	0.037408475
39	0xbd3341d6	-0.043763958
40	0xa725143d	-2.2909321e-15
41	0x3b5a5702	0.003331602
42	0xbc0db7c4	-0.00864977
43	0x3b295795	0.0025839556
44	0xbacf27ba	-0.0015804686
45	0xbc8a85e3	-0.016909545
46	0xa1963410	-1.0178176e-18
47	0xbcfd8fe1	-0.030952396
48	0xbcd46984	-0.02592922
49	0x3c68a41a	0.014199281
50	0xbb51ae89	-0.00319949
51	0x959e7845	-6.4005444e-26
52	0x3d9407f5	0.0722808
53	0x3db1125a	0.086460784
54	0xbd85e8da	-0.065385535
55	0xbd7d7210	-0.061876357
56	0xbd2ae540	-0.041722536
57	0xbd2171c2	-0.03941513
58	0x3c12b74f	0.008954837
59	0x3d117d03	0.03551961
60	0xa9819d34	-5.756021e-14
61	0xa81283cd	-8.133208e-15
62	0xbbd98771	-0.0066384603
63	0xbb1fb32a	-0.0024368265
64	0xb6fc9b85	-7.52829e-06
65	0x3d0f0473	0.034916352
66	0xb755c990	-1.2742719e-05
67	0xbce12d1f	-0.027487336
68	0x3cd2e02b	0.025741657
69	0xbd86a03a	-0.065735295
70	0x3d690c52	0.056896515
71	0x3d902e3a	0.07040067
72	0x3b42a005	0.002969743
73	0xbcb5b8ad	-0.022182787
74	0xb76c4603	-1.4082997e-05
75	0x3d362c2f	0.04447573
76	0xbbc2fa13	-0.0059502213
77	0xbd2451c8	-0.040117055
78	0xbba29564	-0.0049616564
79	0x3c96ca44	0.018406995
80	0x9eb2e195	-1.8939782e-20
81	0x9b0d8e89	-1.1709302e-22
82	0xbcfe4702	-0.031039719
83	0xbc0ed1be	-0.008716999
84	0x3d997242	0.07492496
85	0x3cdcaaf7	0.026936991
86	0xbc5f0a4b	-0.013613294
87	0xbc326fbd	-0.010890898
88	0xbc2ae0e9	-0.010429599
89	0x99944152	-1.5329224e-23
90	0x3d7f3ffb	0.062316876
91	0xbd2ad006	-0.041702293
92	0x3d8ba0c8	0.06817776
93	0xb4ad5840	-3.228797e-07
94	0xaea582ba	-7.526553e-11
95	0xbae817f4	-0.0017707334
96	0xbcdf7050	-0.027275234
97	0xba660935	-0.00087751757
98	0xbd953471	-0.07285393
99	0xb283ee18	-1.535868e-08
100	0x3c273d84	0.010207538
101	0xbd01188c	-0.03151755
102	0xbcfb0409	-0.030641573
103	0xbd3cc1c8	-0.04608324
104	0xbc92dbb8	-0.017927036
105	0xbc1e1c85	-0.009650354
106	0xbce319d4	-0.027722277
107	0xb26b4675	-1.369482e-08
108	0xbbbdd0a9	-0.0057926965
109	0xbd3f70a8	-0.046738297
110	0xbbd84b21	-0.006600753
111	0xbd19478b	-0.037421744
112	0xbcd84fe1	-0.026405277
113	0xb98c5f82	-0.0002677404
114	0x3cfebfdc	0.031097345
115	0x3cabe39a	0.020982552
116	0xbb675db6	-0.0035303659
117	0xbd6e482c	-0.058174297
118	0xbcc15aba	-0.023602832
119	0x3d74cd56	0.059766136
120	0xbcc61182	-0.02417827
121	0xbb81c759	-0.0039605317
122	0xbdc1b15a	-0.09457655
123	0xba3690be	-0.0006964317
124	0xbd1be192	-0.038056917
125	0x3cb0b531	0.021570774
126	0xbd21ec89	-0.039532218
127	0x93935ef6	-3.7201656e-27
128	0xbbd82e34	-0.0065973047
129	0xbb8ea06a	-0.004352619
130	0xbd81e658	-0.06342763
131	0x3c0cf431	0.008603142
132	0xbb434412	-0.0029795212
133	0xbcd103ff	-0.0255146
134	0xbc8c6a19	-0.017140435
135	0xbc4ceb1f	-0.012507229
136	0x3bfc4f10	0.0076998547
137	0xbd10c5a8	-0.03534475
138	0xbd1c4faf	-0.03816193
139	0xa9ec3441	-1.048957e-13
140	0xa8649572	-1.2688948e-14
141	0xa087a3cc	-2.297828e-19
142	0xbb41e947	-0.0029588507
143	0xbc68bd4b	-0.014205287
144	0xbd02863f	-0.03186631
145	0xbb9b4154	-0.0047380123
146	0xbc985537	-0.018595321
147	0xbb8435c4	-0.0040347297
148	0xb9015cc0	-0.00012336951
149	0xa6f390f7	-1.6900805e-15
150	0xac0203d9	-1.8476247e-12
151	0xbd123503	-0.035695087
152	0x3c7bdafe	0.015372036
153	0x3c05b3b5	0.008160521
154	0xbc65cc4e	-0.014025761
155	0x3d797c64	0.060909644
156	0xbc1d08ba	-0.0095846
157	0xbd078e70	-0.033094823
158	0xb2015d50	-7.530005e-09
159	0xbcc78729	-0.024356442
160	0x8c1f1139	-1.2254097e-31
161	0xbd21adc5	-0.03947236
162	0x3d03400e	0.03204351
163	0x3c173b5d	0.009230462
164	0xb9c3c31e	-0.00037338672
165	0xa0b81e85	-3.1191009e-19
166	0x3dc3cbc1	0.09560347
167	0xbbcdb4fd	-0.006277679
168	0xabdafe9f	-1.5560503e-12
169	0xb022cf65	-5.922998e-10
170	0xb531da5f	-6.625541e-07
171	0xb532aaff	-6.6559e-07
172	0xbd393e82	-0.045225628
173	0xae52c0f5	-4.7919852e-11
174	0x3cbd9eb0	0.023146957
175	0xbbfdb87e	-0.0077429404
176	0xbda6a1c7	-0.08136325
177	0x8860b879	-6.7624395e-34
178	0xbca659a4	-0.020306416
179	0xa8cc62e2	-2.2691433e-14
180	0xbd0f84ea	-0.035038866
181	0x3985079d	0.0002537341
182	0xbcf4dcbb	-0.029890409
183	0xbd607c39	-0.054805968
184	0xbcc72e15	-0.024313966
185	0xb99b159e	-0.0002958001
186	0xbbe02b3f	-0.006841093
187	0xbd502360	-0.050814986
188	0x92053416	-4.20316e-28
189	0xaab8ab08	-3.2803643e-13
190	0xb89639b3	-7.163305e-05
191	0x3ca2a673	0.01985476
192	0x3dae3039	0.085052915
193	0x3d84757f	0.06467723
194	0x3d961322	0.07327868
195	0xb788ffa5	-1.6331507e-05
196	0x9b372fb6	-1.5152821e-22
197	0xbc9a466e	-0.018832412
198	0xbbc2cbf5	-0.0059447237
199	0xbc18212e	-0.009285254
200	0x9a02ddf7	-2.7062672e-23
201	0xbd7862cb	-0.06064109
202	0x263a4bba	6.463434e-16
203	0xbce27edc	-0.027648382
204	0x3b054e0a	0.0020340704
205	0x90a22921	-6.39611e-29
206	0xbb93ce8d	-0.0045107068
207	0x9b4e70ac	-1.7076327e-22
208	0x3db8c45e	0.09021829
209	0xbcc92a4f	-0.024556307
210	0x3d6fb199	0.05851898
211	0xa8ae9abf	-1.9384991e-14
212	0x3dc61a5b	0.09672996
213	0xae3a45f9	-4.2353652e-11
214	0xbc70a9a5	-0.014688884
215	0xbcb6ed12	-0.02232984
216	0xbb6c851a	-0.0036090077
217	0xbc67665d	-0.014123526
218	0xbdbddb2d	-0.0927032
219	0xbc12ccb8	-0.008959942
220	0xbb89451c	-0.0041891467
221	0xbc7514fe	-0.014958618
222	0xbcfdb4d2	-0.03097001
223	0x3d85a0a0	0.065247774
224	0x3d789d85	0.060697097
225	0x3d83b8ee	0.06431757
226	0x3d91bac1	0.071156986
227	0x3d926ce8	0.071496785
228	0xbd12db19	-0.03585348
229	0xb3886365	-6.351073e-08
230	0xbcc40f63	-0.023933118
231	0x3d67f408	0.05662921
232	0x3c0f6a06	0.008753305
233	0x3c83218a	0.016007204
234	0x8e1024b5	-1.7767044e-30
235	0xbccec8ab	-0.02524217
236	0x3b28a670	0.002573397
237	0x3d874308	0.06604582
238	0xb6eb1fe9	-7.0072606e-06
239	0xbcd8310d	-0.026390577
240	0xbc9e065f	-0.019290147
241	0x8f0c64d6	-6.921953e-30
242	0xbcaf4740	-0.02139628
243	0xbad60066	-0.0016327023
244	0x3d836138	0.064150274
245	0x3d96729b	0.07346078
246	0x3d394da6	0.045240067
247	0xbc84de02	-0.016219143
248	0x3af259c5	0.0018489888
249	0xbca762ab	-0.02043279
250	0xbcc50b06	-0.024053108
251	0xbd2a3e1d	-0.041563142
252	0xbb179322	-0.002312847
253	0xbc82160d	-0.015879655
254	0x8d8fec76	-8.869981e-31
255	0xbb9a9374	-0.004717285

fc2.weight f4 [120, 256]
0	0xbcc13e2a	-0.023589212
1	0xbc907ecd	-0.017638588
2	0xbdd2eafa	-0.102987245
3	0x00129f82	1.71026e-39
4	0xb813f1e5	-3.5272813e-05
5	0xbbc1dae9	-0.0059159887
6	0x00129bc7	1.708921e-39
7	0xbb3f4f57	-0.0029191577
8	0xbc9a6776	-0.018848162
9	0x801bdd47	-2.558938e-39
10	0x3ca08b2a	0.019597609
11	0xbc307a9a	-0.010771418
12	0xbd10df95	-0.035369474
13	0x3c3c7f26	0.011504924
14	0xbc266c0a	-0.010157594
15	0xbc1e7288	-0.009670861
16	0x33a941bb	7.881632e-08
17	0xbcfd98bd	-0.03095662
18	0xb7b94509	-2.2085866e-05
19	0x3c3ec438	0.011643462
20	0x35c075d9	1.4339413e-06
21	0x1d33e33f	2.3807936e-21
22	0x3cf738fd	0.030178541
23	0x3cd6b814	0.026210822
24	0x3cac38be	0.02102315
25	0x3b7595e2	0.003747337
26	0xbd22fc4f	-0.0397914
27	0x3b8dfa88	0.004332844
28	0x0b2041e5	3.0864453e-32
29	0xaee23c91	-1.0288049e-10
30	0x3c6ec8b2	0.014574217
31	0x3c1cbe63	0.009566876
32	0xbc942f12	-0.018088851
33	0x3a972bfb	0.0011533493
34	0x87b5f6ae	-2.7378838e-34
35	0x3d6d067c	0.057867512
36	0x80101d5b	-1.479899e-39
37	0x3bed6a13	0.007245311
38	0xbd92f9d6	-0.07176559
39	0x3c0cdc1c	0.0085974
40	0x8011b6cc	-1.626779e-39
41	0x3bcce9ee	0.0062534725
42	0xb4bcaa04	-3.5141431e-07
43	0x3c7c3d56	0.015395483
44	0xaf1ee2e9	-1.4450631e-10
45	0x37cb9e8c	2.4273315e-05
46	0xa03640b2	-1.5437406e-19
47	0xbc34dd2f	-0.011039062
48	0x3cbcb2bd	0.023034448
49	0xbb8a8734	-0.0042275432
50	0xad0b1d63	-7.90776e-12
51	0x0017c373	2.18233e-39
52	0xbd4568ec	-0.048195764
53	0xbd50d445	-0.050983686
54	0xbc3cb71c	-0.011518266
55	0xbb8bb724	-0.0042637754
56	0x3d45b905	0.04827215
57	0xbb8a70eb	-0.0042248867
58	0x3d1176f0	0.03551382
59	0xbdd40bb0	-0.10353792
60	0x002d84a2	4.180177e-39
61	0x0015aaed	1.989862e-39
62	0x3ba09991	0.004901119
63	0x2d8cfe2b	1.602903e-11
64	0x8020fa11	-3.028443e-39
65	0x39333ec4	0.00017094152
66	0x989a3d45	-3.9869933e-24
67	0xbc3a8641	-0.011384548
68	0x3d115431	0.03548068
69	0xbb87e8e1	-0.0041476344
70	0xbc0a91da	-0.008457625
71	0xbd5970d9	-0.053086136
72	0x3c898a3b	0.016789546
73	0x3c76fa42	0.015074315
74	0x34fff30e	4.7674297e-07
75	0x3c6be03d	0.014396724
76	0x3c5c6203	0.013451102
77	0x38cb500b	9.6947035e-05
78	0x338d674e	6.584615e-08
79	0x3c838095	0.016052524
80	0x00154c1c	1.955848e-39
81	0x802b3c91	-3.970653e-39
82	0x3d058cea	0.03260509
83	0x3d3955db	0.045247894
84	0xbc9e7445	-0.019342551
85	0x3ce00a6a	0.027348716
86	0x3bda62ae	0.0066645956
87	0xb045d485	-7.197019e-10
88	0xbb5d2ec8	-0.0033749808
89	0x00241811	3.314711e-39
90	0xbc38f156	-0.011288008
91	0x3c73efac	0.014888685
92	0xbc94f1bf	-0.01818168
93	0x802bad6d	-4.01114e-39
94	0x00489c93	6.668324e-39
95	0xba1eac8b	-0.00060529326
96	0xbc6e8d94	-0.014560122
97	0x3bb1cd1c	0.0054260623
98	0x3ccf2e65	0.025290677
99	0x000bc023	1.079116e-39
100	0x3d4f59b1	0.050622646
101	0xbb083454	-0.0020783143
102	0xbd64b0be	-0.055832617
103	0xbcec82d5	-0.02887098
104	0x3d059390	0.03261143
105	0x3cc7a247	0.024369372
106	0xb4ed52c9	-4.4204924e-07
107	0x800bf2f4	-1.097346e-39
108	0xbc86a4b7	-0.016435964
109	0xbc37c886	-0.011217242
110	0xbabeff15	-0.001457187
111	0x3cedb18d	0.029015327
112	0x3c32fb73	0.010924208
113	0x208f0a52	2.4231972e-19
114	0x3c200bc8	0.009768434
115	0x3c9a60c0	0.018844962
116	0x24c478b9	8.520596e-17
117	0x3d22b1a1	0.03972018
118	0x3a142634	0.00056514447
119	0xbbd088fb	-0.0063639856
120	0xb68f09b1	-4.2628603e-06
121	0x3c77635a	0.015099371
122	0x3d52f005	0.05149843
123	0x000a3a85	9.39348e-40
124	0xbc1ae7e9	-0.009454706
125	0x3b522a7a	0.0032068775
126	0x3d3d11c6	0.04615953
127	0x91116e1c	-1.1472413e-28
128	0xb14fff91	-3.0267737e-09
129	0xaf66ede2	-2.1002891e-10
130	0x3d12c79c	0.035834894
131	0x3c9320d7	0.017959995
132	0x22458d2d	2.6773216e-18
133	0xbd0109ad	-0.03150337
134	0xb20f7c2c	-8.351929e-09
135	0x39e82d59	0.00044284275
136	0xbaaf7f11	-0.0013389309
137	0x3b920a6a	0.004456808
138	0xbca23505	-0.019800672
139	0x80166048	-2.05492e-39
140	0x0014b830	1.902784e-39
141	0x000d4535	1.218688e-39
142	0xbce7ac22	-0.028280322
143	0xbd06a7bd	-0.03287481
144	0xbad4e49a	-0.0016242445
145	0xb33bce02	-4.3726693e-08
146	0x3c861a0d	0.016369844
147	0x33598a7f	5.065021e-08
148	0x29a898ff	7.487239e-14
149	0x003d7839	5.645093e-39
150	0x0f175bbe	7.462544e-30
151	0x3c5b0fc8	0.013370462
152	0x3c9c7832	0.019100282
153	0x3bac8537	0.005264904
154	0xba0e70b1	-0.00054336624
155	0xbdde5fa3	-0.10858085
156	0x3cc45503	0.023966318
157	0x39842269	0.0002520264
158	0x800db085	-1.257185e-39
159	0xbb965321	-0.0045875465
160	0x80157fe2	-1.974421e-39
161	0x3c2d9203	0.010593894
162	0x3bcdcc15	0.006280432
163	0x3d0635f3	0.032766294
164	0x2ac71310	3.5362728e-13
165	0x00134252	1.768666e-39
166	0xbd1a8673	-0.037725877
167	0xbc10880e	-0.0088215
168	0x0018ee84	2.289615e-39
169	0x802a365a	-3.876589e-39
170	0x801242ec	-1.677046e-39
171	0xb2c6f2e1	-2.3160682e-08
172	0xbb13d96c	-0.0022560013
173	0x800f2418	-1.39048e-39
174	0x3cd6ea71	0.026234837
175	0xbb9c1491	-0.004763194
176	0x3b5fd677	0.003415493
177	0x002ada58	3.935418e-39
178	0x37d25ad7	2.5076251e-05
179	0x00293143	3.782927e-39
180	0x3b0ef780	0.0021815002
181	0x3d225ed7	0.039641228
182	0x3ac68c37	0.0015147988
183	0xbc1b64b2	-0.009484457
184	0x3d1154d3	0.035481285
185	0xad8460f2	-1.5049715e-11
186	0xbd006d90	-0.031354487
187	0x3b209d44	0.00245078
188	0x8005cedb	-5.33383e-40
189	0x8035c203	-4.93688e-39
190	0x1aa116e8	6.6625046e-23
191	0xbd143f7b	-0.036193352
192	0xbd19fb8f	-0.03759342
193	0xbc4c1960	-0.012457222
194	0xbcc21900	-0.023693562
195	0x810498de	-2.4354248e-38
196	0x19a85ba5	1.7407808e-23
197	0xbb002b8c	-0.0019557206
198	0x32fd8da0	2.951748e-08
199	0x33ab24a1	7.969471e-08
200	0x801661c9	-2.05546e-39
201	0x3d0e3532	0.0347187
202	0x25b771d7	3.182258e-16
203	0x39d4f85b	0.0004062083
204	0x3c0ef77e	0.008725999
205	0x80336e91	-4.723274e-39
206	0xb415f59f	-1.3966063e-07
207	0x96508b7c	-1.684612e-25
208	0xbc3e14cc	-0.011601638
209	0xbabd19ba	-0.0014427223
210	0xbcb84d10	-0.022497684
211	0x8048cca7	-6.685571e-39
212	0xbc9fd656	-0.019511383
213	0x97cbe327	-1.3175909e-24
214	0x3cb2b932	0.021816824
215	0x3b02da79	0.0019966646
216	0x32cd7b91	2.3921332e-08
217	0x384948af	4.7989826e-05
218	0x3d083c55	0.033260662
219	0x350acc15	5.1705985e-07
220	0x35a0a88d	1.1969984e-06
221	0x3c6a53b7	0.014302186
222	0x3c832898	0.016010568
223	0xbc87f91c	-0.016598277
224	0xbce542c9	-0.027985947
225	0xbc6cf212	-0.014462011
226	0xbd37760b	-0.04479031
227	0xbc7af8f2	-0.015318142
228	0x3adcd9a7	0.0016849533
229	0x0039de40	5.314352e-39
230	0xbc5d0830	-0.013490722
231	0xbc8399ab	-0.016064486
232	0x3cb9f4c8	0.022699729
233	0x3d0d61fb	0.03451727
234	0x8a141901	-7.1306435e-33
235	0xbb21214b	-0.0024586495
236	0x3c0cae14	0.008586425
237	0xbd2aa36a	-0.04165975
238	0x8000d3cb	-7.5977e-41
239	0x3cbf1577	0.023325665
240	0x39c9f7f2	0.0003852244
241	0x0018e6f9	2.286909e-39
242	0xb9008e6a	-0.00012260085
243	0x28a84dec	1.868554e-14
244	0xbd5d5cfa	-0.054043747
245	0xbd201ff6	-0.03909298
246	0xbd8128e5	-0.06306628
247	0x372bbf5e	1.023695e-05
248	0x3ca2902a	0.019844133
249	0x3d0cd726	0.03438487
250	0x3ceaef6c	0.028678618
251	0xbc554cda	-0.013018811
252	0xaa87bba2	-2.4111014e-13
253	0xbca1ac0a	-0.019735355
254	0x90189bee	-3.0096838e-29
255	0x3c18a399	0.0093163485

fc2.bias f4 [120]
0	0x3d7492ea	0.05971042
1	0xb69cf3e5	-4.6775554e-06
2	0x3d193192	0.03740079
3	0x3dac3746	0.0840898
4	0xae0f95f3	-3.2647617e-11
5	0x3d8516d9	0.064984985
6	0x3d828fa3	0.06375053
7	0x9e569d3c	-1.1361581e-20
8	0x3d93a088	0.07208353
9	0x3e01fc88	0.1269399
10	0x3d963179	0.07333655
11	0x3db639a9	0.088977166
12	0x3da635ab	0.08115705
13	0x3df51a70	0.11967933
14	0x3df1e7e2	0.11811806
15	0x3d9d6637	0.076855116
16	0x3daf1be1	0.08550239
17	0x3debe91d	0.11519072
18	0x3deadfe6	0.114684865
19	0x3d8175b0	0.06321275
20	0x3d8a5822	0.06755091
21	0x3e03da17	0.12876163
22	0x3de16c4d	0.11006985
23	0x3dac5660	0.08414912
24	0x3d91123c	0.07083556
25	0x3ddfc1b1	0.109256156
26	0x3da76fb5	0.08175603
27	0x88179fe0	-4.562784e-34
28	0x3dfe337d	0.12412164
29	0x3de93835	0.11387674
30	0x3dbe372c	0.09287867
31	0x3d913344	0.07089856
32	0x3d9177ce	0.07102929
33	0x3dfdcd3c	0.12392661
34	0x3d561b33	0.052272033
35	0x3d6b8bfd	0.05750655
36	0x3dca552f	0.09879529
37	0x3dc923ab	0.09821256
38	0x3dc51b68	0.09624368
39	0x3d2eeb18	0.04270467
40	0x3e0da631	0.13832928
41	0x3dbd910c	0.09256181
42	0x3da6b065	0.08139113
43	0x3d995977	0.07487767
44	0x3dcec01c	0.10095236
45	0x3deedd18	0.11663264
46	0x3da36d62	0.079798475
47	0x3d989d85	0.074519195
48	0x3d6eb786	0.05828049
49	0x3d941355	0.0723025
50	0x3d4d57bf	0.05013251
51	0x3d5d7738	0.054068774
52	0xab0b4ba2	-4.948768e-13
53	0x3d8e2164	0.069399625
54	0x3d7ca151	0.06167728
55	0x3dc094d6	0.09403388
56	0x3d549c1e	0.051906697
57	0x3d5a0a81	0.053232674
58	0x3da8a17c	0.08233926
59	0x3d8bbe1a	0.06823368
60	0x3db2ad63	0.08724477
61	0x3dbfb8f8	0.09361452
62	0x3dabe620	0.08393502
63	0x3db9a29d	0.09064219
64	0x3db8f426	0.090309426
65	0x3d9a37ec	0.075301975
66	0x3dabc278	0.08386701
67	0x3de5b7e4	0.11216715
68	0x3dd89fb4	0.10577336
69	0x3daaa249	0.08331735
70	0x3dce8d43	0.10085537
71	0x3dcc70d3	0.09982457
72	0x3dc0aeec	0.09408364
73	0x3d8ec936	0.06971972
74	0x3d870717	0.06593149
75	0x3cbd6663	0.02312011
76	0x3db07766	0.086165234
77	0x3dc45892	0.09587206
78	0x3dbf6336	0.09345095
79	0x3d7b6ad0	0.06138116
80	0x3da2a1ac	0.07940993
81	0x3daa630f	0.08319675
82	0x3d8b52af	0.0680288
83	0x3d9d062f	0.07667195
84	0x3d8859bf	0.06657743
85	0x3de8b8c5	0.11363367
86	0x3d9e30e2	0.077241674
87	0x3e12bdfb	0.14330284
88	0x3d3c32d0	0.045946896
89	0xb759f42e	-1.299106e-05
90	0x3df54b76	0.11977284
91	0x3d6345ff	0.055486675
92	0x3df9cd4f	0.12197363
93	0x3dcc628a	0.09979732
94	0x3dde7083	0.10861304
95	0x3df8b7b3	0.12144413
96	0x3e0da4c5	0.13832386
97	0x3dbc0f81	0.09182645
98	0x3d343df5	0.0440044
99	0x3da747de	0.081680045
100	0x3dd829d9	0.10554857
101	0x3d978eaa	0.07400258
102	0x3de1447b	0.1099939
103	0x3d6e3ceb	0.058163565
104	0x3dd132d0	0.1021477
105	0x3dbf6041	0.09344531
106	0x9b824406	-2.1550655e-22
107	0x3db81889	0.08989055
108	0x3e038924	0.12845284
109	0x3d9d257b	0.076731645
110	0x3dd85848	0.10563713
111	0x3dcd9172	0.10037507
112	0x3db53543	0.088480495
113	0x3dda85ff	0.10670089
114	0x3def55d5	0.11686293
115	0x3db0cda1	0.086329706
116	0x3d9470fa	0.07248111
117	0x3dbcd951	0.09221137
118	0x3da62126	0.08111791
119	0x3d8ac588	0.06775957

fc3.weight f4 [1, 120]
0	0xbe115ad9	-0.14194812
1	0x3bb958dd	0.0056563453
2	0xbda89ab1	-0.0823263
3	0xbe20eb11	-0.1571467
4	0xb97fbcf7	-0.0002438909
5	0x3e4ef567	0.20210801
6	0xbdaf95fb	-0.085735284
7	0xadc9c577	-2.2938746e-11
8	0xbde338c5	-0.11094812
9	0x3e81ab4a	0.25325996
10	0xbe0cf514	-0.13765365
11	0xbe00f1ac	-0.1259219
12	0xbd9524e9	-0.07282431
13	0x3e65f674	0.22457296
14	0x3e682f8e	0.2267439
15	0xbdeb9700	-0.1150341
16	0xbe0ae02b	-0.13562076
17	0x3e7791eb	0.24176757
18	0x3e4b2552	0.19838455
19	0xbe025f90	-0.12731767
20	0xbdf46d27	-0.11934882
21	0x3e55ea11	0.2089007
22	0x3e69e02a	0.22839418
23	0x3e5fdd6b	0.21861808
24	0xbe14c8de	-0.1452975
25	0xbe0bd06b	-0.13653724
26	0xbe0a83fa	-0.13526908
27	0x326e2570	1.3861936e-08
28	0x3e62d138	0.22150123
29	0x3e8710ca	0.26379997
30	0xbe19482b	-0.14968936
31	0xbdf3fea4	-0.11913803
32	0xbe004283	-0.12525372
33	0xbe23d9ee	-0.16001102
34	0xbe356771	-0.17715241
35	0xbdf6f88f	-0.120591275
36	0xbe2f3eba	-0.17113772
37	0x3e316478	0.17323482
38	0xbe01a351	-0.12659957
39	0xbde50fe1	-0.11184669
40	0x3e79c124	0.24390084
41	0xbe26fdb7	-0.16307722
42	0x3e626719	0.22109641
43	0xbe225941	-0.1585436
44	0xbe0bbb60	-0.13645697
45	0x3e98d8a2	0.29852778
46	0xbddae487	-0.106881194
47	0xbe107567	-0.14107285
48	0xbddc73a1	-0.10764242
49	0xbdd5c89f	-0.10438656
50	0xbe02555a	-0.12727872
51	0xbde79d0f	-0.113092534
52	0x36addb23	5.1813126e-06
53	0xbe16b263	-0.14716487
54	0xbdd7c8c3	-0.10536339
55	0xbe02d06f	-0.12774824
56	0xbe1bc634	-0.15212327
57	0xbe144b58	-0.14481866
58	0xbdd7e998	-0.10542601
59	0xbe18ce8b	-0.1492254
60	0xbdedb7ec	-0.11607346
61	0xbe189b89	-0.14903082
62	0xbe0b3644	-0.1359492
63	0xbe13d794	-0.14437705
64	0xbde65fd7	-0.11248749
65	0xbe1004aa	-0.14064279
66	0x3e2de970	0.1698358
67	0xbe184a3d	-0.1487207
68	0x3e5e85ec	0.21730775
69	0xbe168ac9	-0.1470138
70	0x3e4f308a	0.2023336
71	0xbe23c593	-0.15993337
72	0xbe0d2b5a	-0.13786069
73	0xbdab512a	-0.0836509
74	0x3e3bc011	0.18334986
75	0xbd581939	-0.05275843
76	0xbddaa405	-0.106758155
77	0x3e64f6f7	0.22359835
78	0x3e677676	0.22603783
79	0xbdbbe941	-0.09175349
80	0xbe20928a	-0.156809
81	0xbe0f9b16	-0.14024004
82	0xbe199401	-0.14997865
83	0xbde4e665	-0.11176757
84	0xbe0484da	-0.12941304
85	0x3e619717	0.22030292
86	0xbe185412	-0.1487582
87	0x3e88fe7f	0.26756665
88	0xbe0fc73f	-0.1404085
89	0x392402f7	0.00015641363
90	0xbe1868f1	-0.14883782
91	0xbe08d6c6	-0.1336318
92	0x3e70409c	0.23462147
93	0xbdf4bd3a	-0.119501546
94	0x3e4e923b	0.2017297
95	0x3e710a7e	0.23539159
96	0x3e82a7a9	0.2551854
97	0xbe243221	-0.16034748
98	0xbdc3a858	-0.095535934
99	0xbe057909	-0.13034452
100	0x3e7da1d2	0.24768761
101	0x3e2046bd	0.15651985
102	0x3e80e8bb	0.2517756
103	0xbdcdf23b	-0.100559674
104	0x3e6a6885	0.22891434
105	0xbe25c35e	-0.16187808
106	0x3707559b	8.066559e-06
107	0x3e5b27bb	0.21401875
108	0x3e835f94	0.25658858
109	0xbe18e96b	-0.14932792
110	0xbe01d8af	-0.12680314
111	0x3e7c7576	0.24654183
112	0x3e3f8a98	0.18705213
113	0x3e725aaf	0.23667406
114	0xbe02378c	-0.12716502
115	0x3e695311	0.22785594
116	0xbdc6e058	-0.09710759
117	0xbe0d75c1	-0.13814451
118	0xbe11a3c4	-0.14222628
119	0xbe2f0578	-0.1709193
