k_fold_model_1/model8.pt (torch, 242935 bytes, 17 tensors)

conv1.weight f4 [10, 1, 15, 3]
0.06336046 -0.07395239 -0.34079975 0.09328149 -0.03201647 -0.04938883 0.05008532 0.037290595
-0.033430845 0.0028659613 -0.0965131 -0.10468321 -0.043248102 -0.07419406 0.04588443 -0.28625578
-0.026601711 0.14098474 -0.03800762 0.05232831 -0.1178466 -0.18924437 0.025861895 0.040743213
0.20302092 0.40550938 0.35979924 -0.015438654 0.05407757 0.09402749 0.26193243 -0.036461797
-0.14318669 -0.030716682 -0.12338103 -0.2613861 0.3404912 0.05002595 -0.043125276 -0.013943816
-0.019203335 0.04955033 0.032077007 -0.075002335 0.20109741 0.31805977 -0.16848311 -0.1020743
0.29542267 -0.066061586 -0.027600272 -0.14847472 -0.083979115 0.06463792 -0.008781346 0.11536539
-0.08734283 -0.17729503 0.14487773 -0.0752442 0.072023526 0.19641443 0.14431761 -0.37180755
-0.15157443 0.1766978 0.0019677267 -0.19857273 -0.038345907 0.3394797 -0.10684705 -0.038865235
-0.1536771 0.06403258 0.019644145 0.25025138 -0.07000348 0.23059018 0.08173227 -0.04446002
-0.14828297 -0.21411383 -0.053419016 0.17810239 0.07140119 -0.14495462 0.22209899 0.40865424
-0.19338052 -0.0836969 -0.15699962 -0.16227707 -0.031083204 -0.26211396 0.08836132 -0.17811558
-0.09392547 0.21614097 -0.05111903 -0.15644315 0.18292682 -0.10060176 -0.08948047 -0.07057284
0.02750606 -0.1254727 -0.035758425 0.039793998 -0.007987199 -0.1767541 -0.009618239 0.007928666
-0.06432848 0.10893322 -0.16105115 -0.024021896 0.07403811 0.04955954 0.09236466 0.0994247
-0.10873592 0.15129818 -0.08773002 -0.028432328 -0.10536879 0.20286338 -0.3018925 0.0212719
0.038114686 -0.13033834 -0.0644897 -0.058488958 0.1466632 -0.1877051 -0.21970613 0.16110852
-0.0077586644 -0.08584805 -0.004360638 0.01799442 0.03153515 -0.1104462 0.055154335 -0.24354705
0.07380071 0.13878286 0.054243162 0.023178224 -0.020626087 -0.059552338 -0.027989523 0.042898465
-0.014612538 0.18556514 0.0046743844 -0.13352776 0.17489421 -0.09200741 -0.15387094 -0.12587816
-0.117261656 -0.16804191 -0.036018692 -0.06793995 0.029619064 0.2978886 0.14048316 0.1813202
0.5742713 -0.14001669 -0.13768592 0.3992811 -0.13574217 -0.107186124 0.0423135 -0.18293199
-0.15217985 -0.10064993 -0.21512379 0.11363937 -0.121331304 0.03423057 0.21141894 -0.12439132
0.00037381987 -0.14496437 0.10969074 0.14026125 -0.045221224 -0.28506458 -0.11032416 -0.19072604
0.1439253 0.025083473 0.10287681 -0.04017592 0.029002849 0.29647684 -0.0679366 -0.17040619
0.16167861 -0.31085393 -0.11978231 -0.08205359 -0.052405633 0.16772664 -0.16959055 0.052485205
0.019080523 -0.14334394 0.11128371 -0.18612343 -0.0065368144 0.13795294 -0.25788817 0.0572753
0.47615027 0.13945192 0.0746977 -0.15524437 -0.019283697 -0.12689574 0.36078957 -0.08220905
0.13223551 0.21949188 -0.009359099 0.014673041 -0.1143516 -0.070867844 0.07514745 -0.060487285
0.19803193 -0.3640299 -0.014258927 0.019111438 0.01364192 0.05796001 0.14292935 0.053231154
-0.031489246 0.12961327 -0.07776044 -0.26640132 0.1652872 -0.117526904 -0.10240649 0.09029216
-0.09319173 0.24342321 -0.2258415 -0.09154034 0.32236508 -0.025216449 0.02152781 -0.096291825
00000000: 21c3 813d 5a74 97bd 4e7d aebe 5e0a bf3d
00000010: b423 03bd f14b 4abd 4426 4d3d 06be 183d
00000020: c8ee 08bd dad2 3b3b a9a8 c5bd 2764 d6bd
00000030: ec24 31bd 0ef3 97bd 50f1 3b3d 1e90 92be
00000040: d5eb d9bc 4e5e 103e e1ad 1bbd 3656 563d
00000050: 8f59 f1bd 47c9 41be 53dc d33c 5be2 263d
00000060: b7e4 4f3e ed9e cf3e 9b37 b83e 69f2 7cbc
00000070: 7180 5d3d 7c91 c03d 021c 863e f758 15bd
00000080: 889f 12be 8da1 fbbc 32af fcbd 66d4 85be
00000090: dd54 ae3e 03e8 4c3d 21a4 30bd 9a74 64bc
000000a0: 5050 9dbc 49f5 4a3d 2e63 033d d39a 99bd
000000b0: 7bec 4d3e bbd8 a23e d686 2cbe 550c d1bd
000000c0: a441 973e 4c4b 87bd f719 e2bc c209 18be
000000d0: 3efd abbd e360 843d a2df 0fbc b144 ec3d
000000e0: cce0 b2bd d48c 35be d45a 143e a219 9abd
000000f0: 1281 933d dd20 493e ffc7 133e 8f5d bebe
00000100: 5436 1bbe 45f0 343e faf4 003b a656 4bbe
00000110: 9910 1dbd 49d0 ad3e a0d2 dabd 2731 1fbd
00000120: 885d 1dbe 8323 833d c2ec a03c f320 803e
00000130: fc5d 8fbd d51f 6c3e 4063 a73d b61b 36bd
00000140: 7ed7 17be a840 5bbe e6cd 5abd 7960 363e
00000150: c93a 923d fc6e 14be eb6d 633e 213b d13e
00000160: 8b05 46be 4869 abbd 82c4 20be f62b 26be
00000170: 34a2 febc cd33 86be c8f6 b43d ee63 36be
00000180: ff5b c0bd 0f54 5d3e 3062 51bd a232 20be
00000190: 2b51 3b3e 4c08 cebd 8941 b7bd 7e88 90bd
000001a0: 6454 e13c ea7b 00be 6d77 12bd 08ff 223d
000001b0: bedc 02bc 07ff 34be d195 1dbc 3ce7 013c
000001c0: a6be 83bd 6118 df3d 98ea 24be 91c9 c4bc
000001d0: 4ba1 973d f2fe 4a3d af29 bd3d 2d9f cb3d
000001e0: f0b0 debd e9ed 1a3e ccab b3bd eaea e8bc
000001f0: 98cb d7bd 6bbb 4f3e a791 9abe 6842 ae3c
00000200: 251e 1c3d 6a77 05be 2d13 84bd 1e92 6fbd
00000210: e12e 163e c435 40be a5fa 60be a2f9 243e
00000220: 653c febb 1ad1 afbd afe3 8ebb 0969 933c
00000230: 002b 013d 9e31 e2bd 83e9 613d 6664 79be
00000240: d424 973d 181d 0e3e 142e 5e3d 42e0 bd3c
00000250: 0af8 a8bc 27ed 73bd 494a e5bc 4db6 2f3d
00000260: 6d69 6fbc ca04 3e3e 942b 993b 80bb 08be
00000270: 7817 333e 626e bcbd 5890 1dbe 34e6 00be
00000280: e126 f0bd 2e13 2cbe 5688 13bd 1a24 8bbd
00000290: aea3 f23c db84 983e d1da 0f3e 01ac 393e
000002a0: 7203 133f 8960 0fbe 8afd 0cbe 936e cc3e
000002b0: ffff 0abe 6684 dbbd ec50 2d3d 8652 3bbe
000002c0: 09d5 1bbe 8d21 cebd 6949 5cbe c2bb e83d
000002d0: 8c7c f8bd 5b35 0c3d 357e 583e e0c0 febd
000002e0: 41fd c339 8a71 14be 8aa5 e03d a5a0 0f3e
000002f0: e439 39bd fcf3 91be a2f1 e1bd b04d 43be
00000300: 2761 133e db7b cd3c 14b1 d23d 818f 24bd
00000310: 6297 ed3c d0cb 973e 5822 8bbd f67e 2ebe
00000320: 148f 253e 3f28 9fbe 6e50 f5bd b60b a8bd
00000330: 4aa7 56bd 88c0 2b3e 25a9 2dbe bafa 563d
00000340: c24e 9c3c c1c8 12be b7e8 e33d 2497 3ebe
00000350: c632 d6bb 8943 0d3e eb09 84be 8199 6a3d
00000360: f8c9 f33e 7ccc 0e3e 1cfb 983d 61f8 1ebe
00000370: d8f8 9dbc f5f0 01be 69b9 b83e 385d a8bd
00000380: bf68 073e 7bc2 603e e856 19bc 3267 703c
00000390: 2c31 eabd 2923 91bd e8e6 993d 84c1 77bd
000003a0: e2c8 4a3e 2162 babe 469e 69bc 978f 9c3c
000003b0: 5c82 5f3c 7a67 6d3d 125c 123e e908 5a3d
000003c0: defa 00bd 57b9 043e de40 9fbd c165 88be
000003d0: 0c41 293e f2b1 f0bd 7eba d1bd 19eb b83d
000003e0: 4edb bebd ef43 793e ff42 67be 8079 bbbd
000003f0: 090d a53e ba92 cebc 175b b03c a634 c5bd

conv1.bias f4 [10]
6.3745596e-05 0.00015155495 0.00084585446 -0.00036568934 -0.0003339569 0.00029007698 -0.0002280573 7.2050505e-05
0.0008821622 -6.0136954e-05
00000000: 28af 8538 b9ea 1e39 55bc 5d3a feb9 bfb9
00000010: f016 afb9 7915 9839 aa22 6fb9 d219 9738
00000020: e740 673a 903b 7cb8

bn1.weight f4 [10]
0.7323726 0.56544787 0.56712157 0.6289616 0.60641044 0.5950413 0.5575926 0.6727828
0.6687125 0.8375778
00000000: c57c 3b3f 31c1 103f e12e 113f a103 213f
00000010: b73d 1b3f a054 183f 63be 0e3f 7e3b 2c3f
00000020: be30 2b3f 806b 563f

bn1.bias f4 [10]
-0.5712787 -0.16672793 -0.20434795 -0.120197095 -0.25615263 -0.036542613 0.033922564 -0.1927472
-0.35368967 -0.58923686
00000000: 523f 12bf baba 2abe 9740 51be e529 f6bd
00000010: 7026 83be b5ad 15bd 63f2 0a3d 865f 45be
00000020: d016 b5be 3ad8 16bf

bn1.running_mean f4 [10]
0.20762692 0.23170114 -0.9250713 0.04230249 -0.06038995 -0.31095558 -0.073717 0.22867104
-0.008757932 0.9772449
00000000: 279c 543e 1043 6d3e 79d1 6cbf 6045 2d3d
00000010: 745b 77bd 9235 9fbe f0f8 96bd be28 6a3e
00000020: 6e7d 0fbc b92c 7a3f

bn1.running_var f4 [10]
0.05999503 0.017975995 0.08193969 0.044750717 0.036657136 0.02302579 0.05523249 0.108177066
0.02230902 0.1838112
00000000: 59bd 753d 6542 933c ffcf a73d 874c 373d
00000010: cb25 163d 95a0 bc3c 773b 623d f08b dd3d
00000020: 68c1 b63c 0139 3c3e

conv2.weight f4 [20, 10, 3, 3]
0.035278726 0.02828761 0.001828606 -0.040513296 -0.0027621952 0.014516013 0.09433417 -0.010329181
-0.046519957 0.1712402 -0.09363788 -0.0036883699 0.13118413 -0.2079275 0.031707115 0.09793868
-0.056271296 0.03105237 0.040423356 0.02403253 -0.081334986 -0.037923884 -0.08723791 0.029447842
0.061030272 -0.076716036 -0.10927991 -0.040389832 -0.06937865 -0.105034515 -0.045050547 0.04802259
-0.044095714 -0.15142204 -0.0015310866 0.088513575 0.25909635 -0.0024420957 -0.043415904 0.071781695
0.040679995 -0.057214767 0.39938968 0.1511157 0.078454986 -0.22441892 -0.055537183 0.061296444
-0.18331411 -0.014236888 0.105954565 -0.14002456 -0.008221371 0.0903919 -0.11115432 0.010678837
0.09935842 0.09684968 -0.013342202 -0.12091047 0.10184502 0.11860839 0.08603887 0.11553168
0.031550016 0.0991733 0.0057500284 -0.03620555 -0.015497976 -0.10572376 -0.0849352 -0.13997619
-0.19526072 -0.12147524 -0.19838238 -0.18897003 -0.17810233 0.08982456 -0.29792434 -0.12934138
-0.12433126 0.07004481 0.010869274 0.007425968 0.040824093 -0.03261226 0.018884696 -0.030407138
0.01883242 -0.05628331 -0.14414617 -0.117616534 0.16797622 0.13312 -0.10458985 -0.00085533137
-0.33002204 -0.11247205 -0.2621801 -0.209011 -0.009853078 0.031849574 -0.012957831 -0.041648213
0.12169011 -0.0025919303 0.07941832 0.07661622 0.09393025 0.08532992 0.0070348624 -0.18882439
0.016262626 -0.18398044 0.13471198 0.0054608034 -0.17600298 0.079502456 0.11171181 0.086617105
-0.046936486 -0.10853786 0.015293637 0.14554697 0.19255933 -0.039334107 0.08540101 -0.12539825
0.12760077 0.06712371 0.17551015 0.08397082 -0.06597194 -0.042707436 -0.008173278 -0.14354536
-0.14346445 0.021813715 -0.026317013 -0.07269658 0.28783628 -0.0043697665 0.13452058 0.078966014
0.16203482 -0.0881558 -0.04044369 -0.009329358 -0.052437417 0.012863042 0.102651626 -0.09152284
-0.21991879 0.16815186 0.024046196 -0.11771124 0.20523457 0.048706573 -0.2473246 -0.14774688
-0.153336 -0.17919491 -0.09387552 -0.032781906 0.05873753 0.012404541 0.0630857 0.12899196
0.031509705 0.014227564 0.06961938 -0.13283756 -0.10074451 0.026678378 0.08264806 -0.036714915
-0.13080399 -0.10609902 -0.22380006 -0.21902885 -0.19409467 -0.17903437 -0.24849229 0.04646334
-0.0983654 -0.17239083 0.24226765 0.105671875 -0.041785643 -0.10374497 0.049982563 -0.06398498
0.021145862 0.02555041 -0.014566878 0.22272623 0.10660915 -0.010614626 0.04626135 0.12214339
0.10672489 0.014076802 -0.011874063 0.00036489952 0.18928097 -0.013407494 0.024637531 0.037232727
-0.1347869 -0.13389967 0.109110065 0.026863318 0.028707234 -0.19887313 -0.17880073 0.13128012
0.23009284 0.007876437 -0.20336102 0.12699735 0.12879802 0.019323163 0.028916758 -0.1816114
-0.03816382 0.15221195 -0.029461129 -0.05667156 -0.061671544 -0.037189722 -0.15084599 -0.007131595
-0.053481575 0.17401953 -0.06278693 -0.027008351 0.049238082 0.24132898 0.050197523 0.07000117
-0.0010369418 0.13983141 0.04570633 0.027542345 -0.08691132 -0.12838446 0.033834737 0.034191385
-0.013978241 0.103299394 -0.15485604 -0.29349887 -0.08498928 -0.057801582 -0.06600424 -0.079023615
00000000: 6d80 103d 6bbb e73c d6ad ef3a 45f1 25bd
00000010: f205 35bb 92d4 6d3c 4632 c13d ba3b 29bc
00000020: b68b 3ebd 9759 2f3e 38c5 bfbd 94b8 71bb
00000030: 2255 063e f2ea 54be 52df 013d 1394 c83d
00000040: bb7c 66bd 8a61 fe3c f692 253d dedf c43c
00000050: f592 a6bd 1356 1bbd caa9 b2bd 9a3c f13c
00000060: e1fa 793d 4c1d 9dbd 25ce dfbd cf6f 25bd
00000070: 6516 8ebd 561c d7bd ec86 38bd 56b3 443d
00000080: b59d 34bd 610e 1bbe beae c8ba 9b46 b53d
00000090: 47a8 843e 910b 20bb e0d4 31bd 4802 933d
000000a0: 11a0 263d 085a 6abd ce7c cc3e 13be 1a3e
000000b0: 02ad a03d 13ce 65be f57a 63bd fb11 7b3d
000000c0: b2b6 3bbe d641 69bc b5fe d83d 9962 0fbe
000000d0: eeb2 06bc 631f b93d e0a4 e3bd 4af6 2e3c
000000e0: 6d7c cb3d 2059 c63d 4099 5abc e99f f7bd
000000f0: 1f94 d03d f5e8 f23d 2635 b03d e09b ec3d
00000100: 973a 013d 5f1b cb3d bc6a bc3b 454c 14bd
00000110: 39eb 7dbc b385 d8bd 82f2 adbd eb55 0fbe
00000120: 6df2 47be 03c8 f8bd c024 4bbe 5c81 41be
00000130: 7560 36be f0f5 b73d 8a89 98be 1172 04be
00000140: 63a1 febd a773 8f3d 0a15 323c 8955 f33b
00000150: 2a37 273d 6f94 05bd 14b4 9a3c 6418 f9bc
00000160: 7346 9a3c 5489 66bd 0e9b 13be f0e0 f0bd
00000170: f501 2c3e 9c50 083e 3433 d6bd 5138 60ba
00000180: a6f8 a8be bf57 e6bd 783c 86be fb06 56be
00000190: ce6e 21bc b374 023d 154d 54bc 5197 2abd
000001a0: aa38 f93d 60dd 29bb 12a6 a23d f7e8 9c3d
000001b0: 815e c03d 74c1 ae3d b484 e63b 2e5b 41be
000001c0: 3339 853c 5e65 3cbe f0f1 093e 8af0 b23b
000001d0: 203a 34be 2fd2 a23d 29c9 e43d 4f64 b13d
000001e0: 7940 40bd 1949 debd 2a92 7a3c 440a 153e
000001f0: 462e 453e cd1c 21bd bae6 ae3d 6668 00be
00000200: c7a9 023e 2878 893d efb8 333e e5f8 ab3d
00000210: 4c1c 87bd feed 2ebd 36e9 05bc 8efd 12be
00000220: 58e8 12be adb2 b23c c796 d7bc f2e1 94bd
00000230: 475f 933e 4230 8fbb c3bf 093e efb8 a13d
00000240: 75ec 253e 078b b4bd 48a8 25bd 2ada 18bc
00000250: 9ec8 56bd 82bf 523c 043b d23d 5470 bbbd
00000260: 6432 61be 0030 2c3e 87fc c43c 9712 f1bd
00000270: 0329 523e 8b80 473d a942 7dbe f54a 17be
00000280: 1d04 1dbe df7e 37be cf41 c0bd 5246 06bd
00000290: c496 703d 6a3c 4b3c 1333 813d 7816 043e
000002a0: 5210 013d bb1a 693c 9b94 8e3d 9206 08be
000002b0: 2353 cebd 9d8c da3c 6343 a93d 6162 16bd
000002c0: 7bf1 05be 714a d9bd d82b 65be 1949 60be
000002d0: c1c0 46be c954 37be c374 7ebe 5850 3e3d
000002e0: cd73 c9bd 3987 30be 0315 783e 7f6a d83d
000002f0: 6c27 2bbd 3e78 d4bd 84ba 4c3d 8f0a 83bd
00000300: 163a ad3c 184f d13c eaa9 6ebc 5812 643e
00000310: e655 da3d f8e8 2dbc 8b7c 3d3d 5026 fa3d
00000320: 9492 da3d 63a2 663c 6e8b 42bc fc4f bf39
00000330: dfd2 413e 1bab 5bbc a6d4 c93c 5881 183d
00000340: 9405 0abe ff1c 09be 1975 df3d 7610 dc3c
00000350: 6f2b eb3c 66a5 4bbe 8a17 37be 4c6e 063e
00000360: 759d 6b3e 2c0c 013c df3d 50be 980b 023e
00000370: a1e3 033e 9c4b 9e3c d6e2 ec3c 57f8 39be
00000380: aa51 1cbd 73dd 1b3e 7758 f1bc 7020 68bd
00000390: 4d9b 7cbd 4054 18bd 5f77 1abe 28b0 e9bb
000003a0: 7f0f 5bbd 2d32 323e 6f96 80bd 9e40 ddbc
000003b0: dfad 493d f21e 773e eb9b 4d3d c65c 8f3d
000003c0: fee9 87ba f72f 0f3e 9036 3b3d 7ca0 e13c
000003d0: 90fe b1bd 3777 03be 4b96 0a3d 440c 0c3d
000003e0: fe04 65bc a28e d33d 9592 1ebe 7c45 96be
000003f0: dc0e aebd 5ac1 6cbd 3b2d 87bd 22d7 a1bd

conv2.bias f4 [20]
-0.000113874055 0.00015601901 0.00014618589 -4.620854e-05 -0.00014254256 0.00017843122 0.00022750729 2.1280895e-05
5.263197e-05 9.6388176e-05 -2.47368e-06 0.00010043364 4.6507907e-05 -0.0001459079 7.181532e-05 -0.00016292628
-3.915306e-05 -1.408167e-06 -9.959789e-05 0.00012579717
00000000: abcf eeb8 0999 2339 7a49 1939 0bd0 41b8
00000010: 7a77 15b9 4419 3b39 068f 6e39 6084 b237
00000020: 26c1 5c38 0224 ca38 8001 26b6 e69f d238
00000030: 7c11 4338 dbfe 18b9 8e9b 9638 31d7 2ab9
00000040: 4738 24b8 4000 bdb5 36df d0b8 6ce8 0339

bn2.weight f4 [20]
0.41517407 0.39868996 0.40891102 0.43059474 0.38041124 0.57366395 0.4702528 0.57047963
0.431319 0.5289864 0.4274707 0.35401368 0.51168156 0.46973553 0.47653717 0.46709752
0.39166942 0.61972594 0.39060116 0.43034828
00000000: b291 d43e 1721 cc3e c95c d13e ea76 dc3e
00000010: 43c5 c23e a4db 123f fac4 f03e f40a 123f
00000020: d8d5 dc3e a76b 073f 71dd da3e 4841 b53e
00000030: 90fd 023f 2d81 f03e aefc f33e 6827 ef3e
00000040: e588 c83e 5ca6 1e3f e0fc c73e 9c56 dc3e

bn2.bias f4 [20]
-0.17949133 -0.290478 -0.167489 -0.7721124 -0.385019 -0.36486796 -0.24138679 -0.25228772
-0.28469 -0.37426394 -0.5779193 -0.12643659 -0.21706165 -0.31419495 -0.25994828 -0.2415276
-0.5586042 -0.43130186 -0.14851733 -0.18163681
00000000: 93cc 37be 88b9 94be 3d82 2bbe 29a9 45bf
00000010: 3621 c5be f9cf babe 192e 77be db2b 81be
00000020: e3c2 91be 869f bfbe 85f2 13bf 9878 01be
00000030: 6945 5ebe 29de a0be f117 85be 0353 77be
00000040: af00 0fbf 99d3 dcbe ed14 18be 00ff 39be

bn2.running_mean f4 [20]
-0.17217559 -0.21320754 -0.3232678 -0.56710815 -0.35349426 -0.19622257 -0.07393478 0.08817215
-0.27205518 -0.24795638 -0.36687744 0.0063058687 -0.4041266 -0.31833622 0.07676935 -0.13596664
-0.43702307 -0.10177762 -0.103471756 -0.5460923
00000000: cc4e 30be 1453 5abe 5b83 a5be 002e 11bf
00000010: 33fd b4be 92ee 48be 1e6b 97bd 9a93 b43d
00000020: d14a 8bbe 47e8 7dbe 5cd7 bbbe 76a1 ce3b
00000030: afe9 cebe f7fc a2be 4039 9d3d d73a 0bbe
00000040: 7dc1 dfbe c970 d0bd 00e9 d3bd b4cc 0bbf

bn2.running_var f4 [20]
0.27638254 0.15625617 0.22033074 0.12500185 0.13153543 0.13953972 0.17984356 0.21533191
0.13617948 0.4063398 0.09642644 0.25629023 0.18261254 0.21098919 0.29590154 0.28534818
0.09887586 0.22086409 0.1714632 0.14228605
00000000: 0382 8d3e 9e01 203e 629e 613e 7c00 003e
00000010: 39b1 063e 80e3 0e3e e928 383e f87f 5c3e
00000020: a272 0b3e c50b d03e 3a7b c53d 7938 833e
00000030: c8fe 3a3e 8d0d 583e 6880 973e 2819 923e
00000040: 6d7f ca3d 322a 623e 0d94 2f3e 6fb3 113e

fc1.weight f4 [256, 100]
0.05853225 0.031628974 0.020007137 0.036442168 -0.020765146 -0.06068357 -0.05059208 -0.020754969
-0.03197056 0.046640024 0.03338231 -0.016509134 -0.0038473483 -0.029697651 -0.0017667249 0.08251744
0.011346767 0.004705408 0.037638977 -0.022175502 -0.052936837 -0.04129219 -0.035892207 -0.023377698
0.0050365995 -0.037299436 -0.04107687 -0.025647955 0.0044768257 0.031961706 -0.056884862 0.030969102
0.079137824 0.010225523 0.056079056 -0.01972209 -0.051606562 0.02107327 -0.0062764846 -0.044713773
0.078244716 0.057650123 0.040496986 0.06613614 0.02854146 -0.0020594283 0.031599037 0.026618201
0.030588781 0.016264148 0.10696906 -0.032156974 0.018098017 0.020992087 0.041897982 0.010089857
0.028024882 -0.0055448804 0.021953769 1.4587196e-05 -0.0414596 -0.054518472 -0.059086543 -0.0031444472
-0.0103873685 0.035744544 0.012337231 -0.016264314 -0.03353236 0.0315222 -0.014445014 0.011892318
0.00964495 0.055925265 0.016416518 -0.03849349 0.00093669316 0.0547316 0.026928762 0.02377812
0.08461776 0.079135165 0.022774147 0.06184038 0.048927624 -0.051747207 -0.0073918304 0.034266934
0.024220672 -0.034444086 -0.01737833 0.091110185 0.04065844 0.008052903 0.00065633375 -0.06257531
-0.0442875 -0.011019293 -0.019849837 0.03228542 0.0009029624 0.063216 -0.0074310564 0.024410047
0.018937534 -0.07636721 -0.028711088 -0.005642956 -0.043646015 0.043325227 -0.0073586293 -0.01122527
0.04638675 0.004714449 0.0108360415 0.100708306 0.015694616 -0.06230985 -0.05373553 0.0172747
-0.02666378 -0.021566613 -0.061195973 -0.022432955 0.022188036 -0.0460329 -0.019434772 0.0015634764
0.011522677 0.011957919 -0.022937575 0.025398096 0.011214867 0.03851186 0.011379051 -0.053386204
-0.021797517 0.053587385 0.028422542 -0.052236464 0.092427604 0.05729991 0.045592394 0.006756457
0.024614519 0.053396445 0.049335558 0.10527083 0.005840476 0.030395726 0.06267012 0.019424362
-0.036375277 0.03271555 0.0075390576 0.0013217884 0.0421255 0.06793401 -0.021918835 -0.0013347513
-0.09328001 -0.04229779 -0.01423822 0.027375644 -0.0382301 0.042617235 0.06946475 0.04887062
0.057376254 0.018920196 0.02496635 0.0477898 0.0658232 0.031946592 0.018888915 0.030890126
0.032734495 0.051060624 0.07379161 0.047472388 0.092806906 0.070923135 0.040438954 0.008830317
-0.022404937 -0.027349157 -0.0061461474 -0.018336827 0.012793484 -0.006249089 -0.008278737 0.11787632
0.009406911 0.054114394 -0.003985464 -0.012057296 -0.038194355 -0.032036338 0.019714499 -0.019770317
0.041270416 0.05675517 0.02633964 0.03818897 -0.011180193 -0.083567575 -0.02634362 0.05066418
0.07491319 0.07416926 -0.0113313105 0.042054143 0.07974357 0.065356255 0.033170067 0.10309049
-0.017558964 -0.038424827 -0.011474446 -0.035780653 -0.051025815 -0.033756938 0.039077863 0.114834234
0.097456954 0.009269477 -0.047192767 0.0032561012 -0.014486741 0.03867397 0.028875448 0.031016627
-0.018204983 0.10285855 0.048275683 0.0109890485 -0.00535436 0.030054798 0.07503684 0.00795249
0.066735625 0.043994244 0.025698172 -0.020511474 -0.009184007 -0.0027847437 0.02781362 0.074340954
0.016079538 0.024856465 0.12312793 0.030082855 -0.046581913 -0.036645755 -0.025503028 0.006080838
00000000: 83bf 6f3d 628d 013d 02e6 a33c 6244 153d
00000010: ab1b aabc 568f 78bd a439 4fbd 5306 aabc
00000020: 90f3 02bd 9c09 3f3d e4bb 083d 2a3e 87bc
00000030: cb23 7cbb 7d48 f3bc 7391 e7ba e7fe a83d
00000040: cae7 393c d32f 9a3b 542b 1a3d 66a9 b5bc
00000050: 4cd4 58bd 0022 29bd b503 13bd 9682 bfbc
00000060: 0f0a a53b 4bc7 18bd 3840 28bd a91b d2bc
00000070: 56b2 923b 47ea 023d 1a00 69bd eab2 fd3c
00000080: 0313 a23d f488 273c 27b3 653d 3890 a1bc
00000090: 6761 53bd daa1 ac3c f8aa cdbb ca25 37bd
000000a0: c43e a03d 8922 6c3d 2be0 253d 6272 873d
000000b0: c8cf e93c 79f7 06bb fe6d 013d 6a0e da3c
000000c0: 5395 fa3c 643c 853c 9812 db3d 08b7 03bd
000000d0: 4b42 943c 99f7 ab3c 389d 2b3d ed4f 253c
000000e0: 7094 e53c d4b1 b5bb 64d8 b33c 88bb 7437
000000f0: 8bd1 29bd c34e 5fbd bb04 72bd 1213 4ebb
00000100: c82f 2abc df68 123d 1922 4a3c bd3c 85bc
00000110: 3a59 09bd 6c1d 013d c8aa 6cbc ffd7 423c
00000120: da05 1e3c e411 653d ef7b 863c 5aab 1dbd
00000130: 6a8c 753a 3e2e 603d b599 dc3c 55ca c23c
00000140: 134c ad3d 9e11 a23d d990 ba3c 574c 7d3d
00000150: 5568 483d e1f4 53bd 2b37 f2bb 7c5b 0c3d
00000160: 6e6a c63c 3e15 0dbd 005d 8ebc fa97 ba3d
00000170: 7789 263d 53f0 033c d00d 2c3a 7c27 80bd
00000180: cf66 35bd 448a 34bc 209c a2bc b73d 043d
00000190: c8b4 6c3a 6477 813d 3880 f3bb 94f7 c73c
000001a0: e322 9b3c 6966 9cbd 8433 ebbc 8ce8 b8bb
000001b0: 2ac6 32bd cb75 313d a820 f1bb 32ea 37bc
000001c0: 0800 3e3d aa7b 9a3b a789 313c 2840 ce3d
000001d0: ff91 803c 9d38 7fbd c919 5cbd ac83 8d3c
000001e0: 006e dabc 77ac b0bc a1a8 7abd 51c5 b7bc
000001f0: afc3 b53c ff8c 3cbd ac35 9fbc 90ed cc3a
00000200: 9cc9 3c3c 26eb 433c 95e7 bbbc ab0f d03c
00000210: 90be 373c 9dbe 1d3d 336f 3a3c 7eab 5abd
00000220: b590 b2bc 727e 5b3d 64d6 e83c e7f5 55bd
00000230: af4a bd3d 4fb3 6a3d 17bf 3a3d 4565 dd3b
00000240: 63a4 c93c 3bb6 5a3d 1514 4a3d 3c98 d73d
00000250: 7761 bf3b 7500 f93c 3159 803d d71f 9f3c
00000260: 3efe 14bd be00 063d 330a f73b dc3f ad3a
00000270: ca8b 2c3d fc20 8b3d 218f b3bc d2f2 aeba
00000280: 9709 bfbd 7340 2dbd 6c47 69bc e342 e03c
00000290: 2a97 1cbd 698f 2e3d 8943 8e3d 8f2c 483d
000002a0: 5d03 6b3d 87fe 9a3c 3b86 cc3c 3dbf 433d
000002b0: 50ce 863d 6eda 023d edbc 9a3c 4a0d fd3c
000002c0: 9b14 063d f224 513d 0e20 973d 6872 423d
000002d0: 8c11 be3d 2640 913d 51a3 253d 09ad 103c
000002e0: 8f8a b7bc 570b e0bc 9f65 c9bb 1d37 96bc
000002f0: c39b 513c 28c5 ccbb 8aa3 07bc 2469 f13d
00000300: 721f 1a3c 0ea7 5d3d 7f98 82bb f78b 45bc
00000310: af71 1cbd 8938 03bd 4d80 a13c 5cf5 a1bc
00000320: 2b0b 293d 1c78 683d 3bc6 d73c 0a6c 1c3d
00000330: 212d 37bc 7a25 abbd 93ce d7bc 3e85 4f3d
00000340: 166c 993d 0ee6 973d f6a6 39bc f740 2c3d
00000350: 9950 a33d 80d9 853d 56dd 073d 1b21 d33d
00000360: d1d7 8fbc 5a63 1dbd 51ff 3bbc bc8e 12bd
00000370: 7200 51bd b744 0abd 1c10 203d 362e eb3d
00000380: 8397 c73d 01df 173c 344d 41bd 5064 553b
00000390: cc59 6dbc 9968 1e3d 348c ec3c 9516 fe3c
000003a0: 9e22 95bc 81a7 d23d b9bc 453d 690b 343c
000003b0: a173 afbb 7b35 f63c eaac 993d 294b 023c
000003c0: b0ac 883d 4f33 343d f984 d23c ae07 a8bc
000003d0: 8478 16bc 3f80 36bb 64d9 e33c 1240 983d
000003e0: 3cb9 833c c99f cb3c 7f2a fc3d 5270 f63c
000003f0: adcc 3ebd dc19 16bd baeb d0bc c441 c73b

fc1.bias f4 [256]
-0.0037298833 0.014791712 -0.0055691535 -0.04403554 -0.0018198306 -1.6656538e-16 0.015583341 -0.00029332435
-8.224236e-20 -0.008920556 0.04634363 -2.8063994e-18 -1.41822e-14 0.06406817 -0.061036807 0.01689909
0.022252131 -0.011366677 -0.05170917 -3.537248e-22 0.015103996 -0.0024057406 -0.08595332 -5.8476626e-28
0.07038002 -5.1583804e-16 -0.0052676117 -0.00067032274 0.08801372 0.061970115 0.05909515 -3.0486336e-22
0.010338995 0.041926626 -0.04734052 -0.019565374 0.0060022296 0.02737968 0.008137467 -0.004812499
0.07224148 -0.04755896 -0.08419576 -0.0012950775 0.0634364 -0.039609395 -0.08525336 0.06939481
-0.0033078727 -0.058210157 -1.9922975e-08 -5.8217706e-19 0.02448136 -6.494008e-11 -3.733508e-08 0.044975877
-0.012227626 0.058377527 -0.0100812465 -0.04117774 -0.028054103 -6.583226e-20 -0.0032236772 -0.0069697425
-0.0146593945 0.07123226 0.0513108 -0.0290321 0.008490841 -0.012910045 0.002332238 -1.4933113e-29
-0.004160956 -0.0051483545 -0.046676267 -0.0043859105 -0.01689335 -0.01946479 -0.0005708793 -0.055937234
-0.035906065 -4.609048e-09 -0.003965645 0.04562058 -2.645376e-16 0.077372015 -0.018655661 -6.2825696e-09
-0.04921922 0.0811584 -5.0774995e-10 0.0037103503 -9.458988e-15 -0.028114436 -8.1024896e-30 -0.05157685
-6.838686e-07 0.045685586 0.05448042 -0.141488 -0.024734214 -0.06333276 -0.00013898553 -0.040667698
-1.5966547e-06 -0.0507817 -6.2331624e-12 -0.0061715143 -4.2248063e-05 0.03452808 -0.048127186 -0.02480314
0.00032370858 -1.8682678e-25 -0.054076638 0.033943 -1.6310844e-16 0.027334996 -0.031221807 -0.0024937836
-7.047691e-20 0.015754614 -0.0354738 -0.008741867 0.024710292 -0.055302728 0.011423535 -0.1014149
-0.00037401108 -0.049842004 -0.06359341 0.0112848105 0.049554616 -0.0048848363 -0.066199556 0.033264473
0.08996853 0.031435564 -0.025916783 -0.0645833 -1.3001383e-06 -0.020266885 0.05713723 -9.078176e-32
0.045831077 -0.030165683 -3.7459706e-21 -0.0001709475 -0.00077139644 0.0874761 0.033484954 -1.0063248e-21
-0.0001243693 -0.0005588993 -0.076190755 -0.051960323 -0.016359048 -0.005728841 0.047496475 -1.2552407e-21
-0.028164623 -0.046279173 -0.02935571 -0.046992753 -0.026741829 -3.0961128e-05 0.025572238 -0.009792937
-9.89915e-27 -0.013265035 -0.010493271 -0.05561555 -8.7550834e-27 -0.00060078496 0.025810009 -0.00011783394
0.0259192 0.053850405 -8.255523e-20 0.07453899 -0.04637397 -0.05711578 -0.013231898 -2.0071281e-14
-0.012518538 -7.57499e-10 -0.028063837 -0.020954777 -0.06925893 -6.865106e-06 -0.07060273 0.045428116
0.020232413 0.035342816 -0.009688818 0.038890384 0.017673194 0.052028466 -0.0435548 -0.06769153
-1.2631511e-07 -7.471056e-10 -0.0126498435 -0.00756751 -5.9892398e-05 0.049673818 0.0015331525 -0.009803567
0.03512993 -0.03927431 -0.0414279 0.018722408 -0.11470284 0.09261708 -0.04297037 -0.056265913
-0.07211398 -0.015140911 -0.010413151 0.07070647 -0.019919988 -0.027278699 0.08148749 -0.070196204
0.028959299 -0.017266298 -0.0042551756 -0.00010092124 -0.020601392 0.029893048 -0.037807725 0.010117612
-0.0018488902 -6.9883424e-07 -0.011427054 -8.3510164e-11 -0.04337837 -0.0032402934 -0.042013943 0.063838474
-2.5433554e-27 -0.027540084 -0.06774521 -1.5891585e-32 0.06751763 0.01030653 -2.5888867e-21 -0.013273655
-0.06588733 -9.528908e-05 -1.908199e-05 -0.0005904176 -0.008471895 -0.057308376 0.055423263 -5.4200925e-31
00000000: 0f71 74bb f058 723c 727d b6bb 9c5e 34bd
00000010: 6287 eeba 6c09 40a5 4551 7f3c 54c9 99b9
00000020: 7530 c29f 8627 12bc d1d2 3d3d 6313 4fa2
00000030: da7b 7fa8 2c36 833d bb01 7abd f66f 8a3c
00000040: 1a4a b63c 4c3b 3abc ffcc 53bd 43d0 d59b
00000050: c076 773c a1a9 1dbb 4b08 b0bd e051 3992
00000060: 6623 903d 21ae 14a6 ee9b acbb 99b8 2fba
00000070: 8a40 b43d 60d4 7d3d c20d 723d 5247 b89b
00000080: e364 293c 41bb 2b3d 22e8 41bd 9047 a0bc
00000090: 5aae c43b 5a4b e03c 0353 053c 2bb2 9dbb
000000a0: 57f3 933d 2fcd 42bd d46e acbd 97bf a9ba
000000b0: f1ea 813d 763d 22bd 5099 aebd de1e 8e3d
000000c0: e5c8 58bb c66d 6ebd 1623 abb2 0ed4 2ba1
000000d0: 228d c83c 04ce 8eae 5b5a 20b3 a038 383d
000000e0: 6156 48bc 461d 6f3d d02b 25bc fda9 28bd
000000f0: b8d1 e5bc 2971 9b9f 5444 53bb 7062 e4bb
00000100: f52d 70bc 38e2 913d 462b 523d bad4 edbc
00000110: 2b1d 0b3c a784 53bc 76d8 183b 9470 978f
00000120: a158 88bb 87b3 a8bb 9d2f 3fbd afb7 8fbb
00000130: ec63 8abc a074 9fbc 10a7 15ba 711e 65bd
00000140: 3d12 13bd 9d5d 9eb1 3ef2 81bb a5dc 3a3d
00000150: dc7e 98a5 3875 9e3d c2d3 98bc 11de d7b1
00000160: 189a 49bd 6036 a63d ba91 0bb0 5929 733b
00000170: e265 2aa8 3f50 e6bc 8856 248f 3f42 53bd
00000180: 1893 37b5 cf20 3b3d dc26 5f3d 3be2 10be
00000190: 689f cabc 9bb4 81bd a5bc 11b9 2c93 26bd
000001a0: a34c d6b5 7900 50bd 564f dbac 6a3a cabb
000001b0: 8333 31b8 516d 0d3d 0321 45bd f42f cbbc
000001c0: 6eb7 a939 c547 6796 777f 5dbd d107 0b3d
000001d0: 1d0d 3ca5 a4ed df3c e0c4 ffbc bf6e 23bb
000001e0: ae68 a69f d20f 813c fa4c 11bd 0c3a 0fbc
000001f0: 3d6d ca3c 1d85 62bd c729 3b3c 9db2 cfbd
00000200: eb16 c4b9 2127 4cbd 433d 82bd ede3 383c
00000210: c8f9 4a3d fa10 a0bb a293 87bd 5440 083d
00000220: 6c41 b83d 94c2 003d 6f4f d4bc 4044 84bd
00000230: 6980 aeb5 bd06 a6bc ba08 6a3d d4ae eb8b
00000240: 5eb9 3b3d 061e f7bc ce84 8d9d 5f40 33b9
00000250: 8a37 4aba ab26 b33d 8527 093d 4e12 989c
00000260: 2169 02b9 1983 12ba e609 9cbd 59d4 54bd
00000270: 6903 86bc 00b9 bbbb aa8b 423d c6af bd9c
00000280: 7fb9 e6bc 3b8f 3dbd 637b f0bc 797b 40bd
00000290: ae11 dbbc 42dc 01b8 df7c d13c 8e72 20bc
000002a0: a712 4494 9755 59bc f8eb 2bbc 22cd 63bd
000002b0: 8c69 2d94 ff7d 1dba 836f d33c 9d1d f7b8
000002c0: 8154 d43c 3e92 5c3d 93ed c29f e6a7 983d
000002d0: a2f2 3dbd 3cf2 69bd 9aca 58bc 39c9 b4a8
000002e0: 8e1a 4dbc 4138 50b0 22e6 e5bc 5aa9 abbc
000002f0: a0d7 8dbd d05a e6b6 2a98 90bd d512 3a3d
00000300: 72be a53c a1c3 103d d9bd 1ebc 864b 1f3d
00000310: 60c7 903c cd1b 553d 8566 32bd dba1 8abd
00000320: 3ca1 07b4 e25c 4db0 4a41 4fbc e0f8 f7bb
00000330: f934 7bb8 c676 4b3d 10f4 c83a 249f 20bc
00000340: 67e4 0f3d 19de 20bd 4db0 29bd bc5f 993c
00000350: 53e9 eabd 06ae bd3d b301 30bd 1677 66bd
00000360: 7fb0 93bd 9511 78bc ec9b 2abc 8ece 903d
00000370: 3e2f a3bc 9477 dfbc eae2 a63d 07c3 8fbd
00000380: 0d3c ed3c 0d72 8dbc 006f 8bbb aea5 d3b8
00000390: 40c4 a8bc 44e2 f43c 46dc 1abd 57c4 253c
000003a0: 7656 f2ba 8697 3bb5 8a38 3bbc 0ba4 b7ae
000003b0: 85ad 31bd 1a5b 54bb d016 2cbd bfbd 823d
000003c0: 6081 4993 be9b e1bc 00be 8abd 1407 a58a
000003d0: af46 8a3d b8dc 283c 5a9c 439d bf79 59bc
000003e0: f0ef 86bd efd5 c7b8 4312 a0b7 41c6 1aba
000003f0: b4cd 0abc 30bc 6abd 8103 633d 5ee4 2f8d

fc2.weight f4 [120, 256]
-0.033960693 -0.028190156 -0.025953768 -0.026161756 -0.023039132 -4.8796e-40 -0.00011936313 -0.045710325
-1.674416e-39 -1.5929492e-10 0.03867356 3.4111776e-19 2.0476e-40 0.030630315 0.014800569 0.017460281
0.010133899 -2.218408e-12 0.0054714167 2.79325e-40 -0.013092825 -1.5872698e-26 -0.01054701 -3.182736e-39
0.07899748 1.333956e-39 -5.0949186e-30 2.3685675e-15 0.0303145 0.06617695 0.04148112 3.512697e-39
0.0032124505 0.026538756 -0.020185113 -0.010527928 -0.033390038 0.01447924 0.0038739303 -9.735597e-16
0.03545691 0.0016683028 -0.0051621743 -3.6946182e-24 0.015167193 -0.005657147 -0.0035559523 0.049646057
3.791466e-16 0.00462847 1.542831e-39 4.00312e-40 -0.02099719 -2.72674e-39 -2.914604e-39 0.039967358
0.0040877396 -0.007266671 -0.024047857 -0.013389818 -0.002815649 2.2304e-41 0.019062405 1.687155e-05
3.3651716e-12 0.03887497 0.040524796 6.9531416e-05 -0.012347654 8.77985e-07 0.017153693 -1.738008e-39
0.0062182928 -0.010123039 -0.028417123 -0.06224942 -0.0041472074 -5.7940806e-06 -2.0526933e-21 -0.013066935
-0.014698115 5.19232e-40 2.5964816e-08 0.047961805 4.12698e-40 -0.0074048922 0.0022581161 1.03767e-39
-0.0007095919 0.038527306 -6.442058e-39 -0.037314378 -1.380925e-39 -0.015553864 -1.521922e-39 -0.014753641
1.280498e-39 0.033231065 0.036211025 -0.0055249305 0.058330216 -0.04775701 -5.08778e-40 -0.00016086843
1.6062624e-07 -0.0029262672 6.0202894e-14 -0.051571216 6.683891e-39 0.01838729 -0.029073274 -0.008072444
-0.05456707 -4.96951e-40 -0.018580094 -0.013538644 9.60449e-40 -0.018597709 -0.017698271 -4.3966052e-16
6.412856e-39 -0.042342115 0.009842287 -0.022509076 0.028432421 -0.020377532 -0.027371777 0.01687812
-1.891714e-39 -0.019599812 -0.00010350295 -0.0106871715 0.061587427 3.1390903e-09 -0.010073259 -0.012999244
0.053495787 -0.0023930208 0.0001109786 -0.0015909538 -2.811212e-39 -0.0021751923 0.046275754 -7.7873677e-35
0.020027444 0.017218677 6.788944e-39 4.4697333e-18 4.86705e-40 0.032748535 -0.0152899185 5.207332e-39
2.429568e-36 -1.6300391e-27 -0.027395833 -8.4761194e-07 -0.037172146 -0.02145159 0.017372318 4.53844e-39
-0.0010720699 -0.0009925104 -0.00073722174 -0.0034927512 -0.010079223 -2.8849905e-23 -0.035134315 -0.023119606
-5.741909e-39 1.3424281e-05 0.005309458 -0.0054407986 1.25713e-39 -1.5285172e-25 0.010566026 3.0117722e-22
0.014491019 -0.006965612 -1.846058e-39 0.04285013 0.008162907 -0.00015938247 -0.0049360693 -6.487748e-39
-0.018852774 -1.135832e-39 0.0075570843 -2.5669243e-08 -0.0077181533 2.388781e-39 0.0015083089 0.008271066
-0.037308738 0.053174023 -0.0002872449 0.024712639 -0.035943322 0.012312082 0.0023362325 0.04515915
1.2070351e-34 -3.387779e-39 5.476264e-06 -0.010149195 9.56151e-40 0.044456616 -0.0242889 6.0805776e-15
0.01633857 -0.0012969301 -7.289024e-05 -0.010103297 0.001692825 0.033831876 -0.024845028 -0.015210036
-0.014400721 0.0071580713 -1.4324842e-12 0.024069812 -0.0154624125 -0.020501876 -0.0008379452 0.015542668
0.05228055 1.8950028e-09 -9.684924e-11 -3.74507e-40 -8.9525423e-07 -0.014690985 -0.015297829 -0.009747588
-3.8542227e-09 -3.01926e-39 -0.028934695 7.0092e-41 0.0037281145 1.149231e-09 0.00915394 0.045909543
-2.9109844e-29 -0.0008791102 0.016467296 1.119192e-39 0.03532933 -0.011151938 3.987854e-39 -0.029546231
-0.018336702 5.5664257e-10 2.806504e-39 -1.9182544e-18 -5.8350645e-07 -0.017042767 0.0116233425 9.15866e-40
00000000: 5e1a 0bbd 0bef e6bc ff9c d4bc 2e51 d6bc
00000010: 90bc bcbc 3c50 0580 9852 fab8 c03a 3bbd
00000020: 973b 1280 8925 2faf 2b68 1e3d 425c c920
00000030: ca3a 0200 6dec fa3c 167e 723c dd08 8f3c
00000040: a708 263c 491b 1cac 9249 b33b a50a 0300
00000050: 4a83 56bc 1232 9d94 5ecd 2cbc 2ca8 2280
00000060: 6ec9 a13d 8786 0e00 a9ac ce8e 5cac 2a27
00000070: 1d56 f83c c887 873d 1be8 293d f83f 2600
00000080: fa87 523b ce67 d93c 405b a5bc 557d 2cbc
00000090: fec3 08bd 563a 6d3c c4e1 7d3b 034e 8ca6
000000a0: 443b 113d f4aa da3a 7527 a9bb baed 8e98
000000b0: d17f 783c 975f b9bb fb0a 69bb aa59 4b3d
000000c0: 2a90 da25 6caa 973b c9cc 1000 e85b 0400
000000d0: 4d02 acbc 0bb1 1d80 bbbc 1f80 d0b4 233d
000000e0: 72f2 853b 411d eebb 0300 c5bc f860 5bbc
000000f0: c086 38bb 2d3e 0000 c328 9c3c 6187 8d37
00000100: 8bcd 6c2c 5c3b 1f3d 54fd 253d 65d1 9138
00000110: d14d 4abc abae 6b35 e785 8c3c dcec 1280
00000120: d2c2 cb3b 1adb 25bc 07cb e8bc 3ff9 7ebd
00000130: 4ce5 87bb c66a c2b6 dd18 1b9d b316 56bc
00000140: 5dd0 70bc 68a7 0500 3c09 df32 9973 443d
00000150: 6f7e 0400 bda4 f2bb e7fc 133b 9a4c 0b00
00000160: e803 3aba cfce 1d3d d625 4680 f6d6 18bd
00000170: 7509 0f80 a2d5 7ebc 8092 1080 41b9 71bc
00000180: 82f1 0d00 4c1d 083d 0352 143d 7a0a b5bb
00000190: aaeb 6e3d db9c 43bd 448a 0580 caae 28b9
000001a0: 9b78 2c34 9ec6 3fbb 9b90 8729 573c 53bd
000001b0: f8c7 4800 f1a0 963c 132b eebc 4942 04bc
000001c0: b881 5fbd 4c69 0580 4835 98bc 30d1 5dbc
000001d0: 5775 0a00 395a 98bc f7fb 90bc 7172 fda5
000001e0: 6fd4 4500 ed6e 2dbd 8b41 213c f464 b8bc
000001f0: 1ceb e83c c8ee a6bc c73a e0bc fc43 8a3c
00000200: 5499 1480 c98f a0bc b90f d9b8 3f19 2fbc
00000210: 1943 7c3d 76b7 5731 4f0a 25bc c8fa 54bc
00000220: 661e 5b3d 3ad4 1cbb 2fbd e838 8d87 d0ba
00000230: 849c 1e80 ac8d 0ebb a58b 3d3d 1406 cf86
00000240: 9810 a43c 2f0e 8d3c d0ec 4900 70e7 a422
00000250: bc4c 0500 5423 063d 9182 7abc ecb3 3800
00000260: 4eaf 4e04 1f25 0193 3a6d e0bc 7387 63b5
00000270: d241 18bd 3fbb afbc 6450 8e3c 536b 3100
00000280: b284 8cba 1f17 82ba 1d42 41ba a4e6 64bb
00000290: 5323 25bc 7482 0b9a 00e9 0fbd 5465 bdbc
000002a0: 1b86 3e80 d938 6137 f6fa ad3b ba48 b2bb
000002b0: 5eb0 0d00 a538 3d96 201d 2d3c eb0c b61b
000002c0: bd6b 6d3c ca3f e4bb 0f1a 1480 9e83 2f3d
000002d0: b7bd 053c e81f 27b9 c0be a1bb 34a5 4680
000002e0: 2271 9abc 3d5e 0c80 6ba1 f73b 437f dcb2
000002f0: 90e8 fcbb f302 1a00 73b2 c53a 5d83 073c
00000300: 0cd1 18bd 01cd 593d 5c99 96b9 2972 ca3c
00000310: 4e39 13bd 9db8 493c 7a1b 193b cdf8 383d
00000320: 4771 2007 c0e3 2480 c0c0 b736 cf48 26bc
00000330: 5c69 0a00 2418 363d 84f9 c6bc 6e13 db27
00000340: 77d8 853c c1fd a9ba a6dc 98b8 4d88 25bc
00000350: c8e1 dd3a 4b93 0a3d cd87 cbbc 8433 79bc
00000360: 00f1 6bbc 418e ea3b af9a c9ab 0e2e c53c
00000370: 0f56 7dbc 8df3 a7bc 8da9 5bba ada6 7e3c
00000380: 2124 563d 3e39 0231 46f9 d4ae f913 0480
00000390: 6751 70b5 75b2 70bc bfa3 7abc 59b4 1fbc
000003a0: 1a6e 84b1 78e0 2080 7408 edbc 63c3 0000
000003b0: 6253 743b f9f2 9d30 68fa 153c a50b 3c3d
000003c0: bd9a 1390 1674 66ba 6ce6 863c da2f 0c00
000003d0: 7db5 103d 9eb6 36bc 846c 2b00 f00a f2bc
000003e0: da36 96bc 3d02 1930 648f 1e00 cd8a 0da2
000003f0: 42a2 1cb5 469d 8bbc d56f 3e3c 10f9 0900

fc2.bias f4 [120]
0.084434666 0.10749308 0.09616096 0.08857473 0.09135161 0.08103464 0.053957034 0.113447025
0.10746379 0.06571688 0.107211374 0.08931215 0.095986225 0.116077706 0.060564432 0.10294183
0.1253218 0.07725942 0.10703555 0.052244805 0.059999414 0.1378018 0.06811223 0.095846966
0.0989395 0.04679616 0.09013449 0.10730428 0.094895154 0.10624942 0.10083992 0.115462884
0.087802134 0.09502466 0.117352985 0.080523536 0.09835184 0.09831719 0.09591288 0.11387926
0.08510798 0.08493637 0.10760716 0.118155286 0.08309544 0.073716044 -0.00015200944 0.09806124
-0.0012436413 0.07474229 0.060789287 0.09004267 0.0766461 0.09432741 0.030386839 0.09700765
0.10466562 0.10526108 0.10377458 0.08009486 0.15720765 0.08523704 0.10821194 0.093292326
0.12736177 0.10933312 0.09992124 0.10765571 0.11020712 0.09503875 0.081059046 0.074270256
0.11967327 0.13646163 0.10511928 0.10746824 0.112839304 0.07683598 0.08176571 0.110430405
0.08294077 0.120746724 0.078932896 0.11979621 0.06791778 0.11341532 0.10168515 0.09666788
0.06612548 0.10983547 0.1025023 -4.0497424e-25 0.118497185 0.078462206 0.084179536 0.097819135
0.087140635 0.0493368 0.099160306 0.120594054 0.11004896 0.114625305 0.08565822 0.123862654
0.081489034 0.10713997 0.13000306 0.08738496 0.09965326 0.13328703 0.08994592 0.12459524
0.09834731 0.10989285 0.072520114 0.09343015 0.073788576 0.08963753 0.06002433 0.114604354
00000000: 15ec ac3d 5525 dc3d 0af0 c43d ab66 b53d
00000010: 8e16 bb3d 7df5 a53d 0d02 5d3d ea56 e83d
00000020: fa15 dc3d 9296 863d a391 db3d 4ae9 b63d
00000030: 6d94 c43d 26ba ed3d 6912 783d 2bd3 d23d
00000040: 5c54 003e 303a 9e3d 7435 db3d a6fe 553d
00000050: f2c1 753d ea1b 0d3e 6d7e 8b3d 6a4b c43d
00000060: cba0 ca3d 55ad 3f3d 6e98 b83d 59c2 db3d
00000070: 6458 c23d 4c99 d93d 2985 ce3d ce77 ec3d
00000080: 9bd1 b33d 4a9c c23d c356 f03d 86e9 a43d
00000090: b16c c93d 865a c93d f96d c43d 8839 e93d
000000a0: 184d ae3d 1ff3 ad3d 2561 dc3d 66fb f13d
000000b0: f12d aa3d 70f8 963d b964 1fb9 55d4 c83d
000000c0: ad01 a3ba 7c12 993d 30fe 783d 4b68 b83d
000000d0: a1f8 9c3d bb2e c13d d2ed f83c f2ab c63d
000000e0: ee5a d63d 1f93 d73d c487 d43d c608 a43d
000000f0: 0bfb 203e c290 ae3d 399e dd3d 0c10 bf3d
00000100: 206b 023e 0bea df3d 82a3 cc3d 997a dc3d
00000110: 45b4 e13d ada3 c23d 4902 a63d 011b 983d
00000120: 4217 f53d 99bc 0b3e c748 d73d 4f18 dc3d
00000130: 4b18 e73d 2f5c 9d3d c874 a73d 5629 e23d
00000140: dadc a93d 0f4a f73d 92a7 a13d b757 f53d
00000150: 7a18 8b3d 4b46 e83d 4e40 d03d cff9 c53d
00000160: cc6c 873d 6bf1 e03d baec d13d bbaa fa96
00000170: a7ae f23d cbb0 a03d 5266 ac3d 6655 c83d
00000180: ca76 b23d 6215 4a3d 8f14 cb3d 04fa f63d
00000190: 5961 e13d acc0 ea3d 946d af3d b4ab fd3d
000001a0: b9e3 a63d 336c db3d 861f 053e e3f6 b23d
000001b0: 0217 cc3d 657c 083e 9135 b83d ca2b ff3d
000001c0: 516a c93d 810f e13d 6d85 943d 4e58 bf3d
000001d0: 771e 973d e293 b73d 12dc 753d b0b5 ea3d

fc3.weight f4 [1, 120]
0.18445027 -0.14391601 0.19714528 0.2224812 -0.09076802 0.20403041 -0.12007444 -0.16261174
-0.13594764 -0.10138154 -0.15633598 0.22407164 -0.11387637 0.21146107 0.19119419 0.20147973
0.23368011 -0.15879782 -0.123753496 0.18122685 -0.088717684 -0.17007527 -0.12903404 -0.14433171
-0.1369499 -0.09917756 0.20386316 -0.15410529 -0.14628826 -0.13994938 -0.16400312 -0.14554442
0.19890803 -0.13776186 -0.15071167 -0.15072879 -0.121427365 -0.15094781 -0.1211343 -0.14439458
-0.13197114 -0.14729586 -0.15755354 -0.17788263 0.18732175 0.17119719 -0.0043571107 -0.14331543
-0.0013299333 0.18613198 0.1945675 0.20501313 0.21657039 -0.11637342 0.16281225 -0.12238577
-0.14821357 -0.14907183 -0.14551361 -0.14115295 -0.19300514 0.19593342 -0.15321149 -0.1575326
-0.17346492 -0.13702448 0.23282944 0.22268113 -0.14925441 -0.1368784 0.1953801 0.19870357
-0.1350517 -0.1746211 -0.14038491 -0.14316297 -0.16691722 -0.08955746 -0.14026329 -0.14930698
-0.14714639 0.22456598 0.18447 -0.14308508 -0.12852451 -0.16688557 0.18282671 -0.10816433
-0.10865117 -0.15411283 -0.13955657 -9.953275e-08 -0.1951827 -0.12659384 -0.1611332 -0.1726488
-0.12514733 -0.05831923 0.21425527 0.27944767 -0.1526477 -0.15999146 0.21483465 -0.13832901
0.19597638 -0.14751244 -0.15152073 -0.10804229 0.16622876 -0.16760197 0.1973285 0.2264722
0.22151487 0.22444987 -0.12518102 0.2012546 0.19021498 -0.12406974 0.17085412 -0.15266848
00000000: 88e0 3c3e b85e 13be 74e0 493e 1dd2 633e
00000010: 95e4 b9bd 59ed 503e 97e9 f5bd b183 26be
00000020: dc35 0bbe 20a1 cfbd 8a16 20be 0973 653e
00000030: 0438 e9bd 4089 583e 69c8 433e b450 4e3e
00000040: d749 6f3e e59b 22be 7972 fdbd 8893 393e
00000050: 9eb1 b5bd 3628 2ebe 8021 04be b1cb 13be
00000060: 983c 0cbe 9b1d cbbd 81c1 503e c7cd 1dbe
00000070: 97cc 15be e44e 0fbe 6ff0 27be 9909 15be
00000080: 8cae 4b3e 7211 0dbe 2954 1abe a658 1abe
00000090: e9ae f8bd 1092 1abe 4315 f8bd 2cdc 13be
000000a0: 7123 07be bad4 16be b755 21be dd26 36be
000000b0: 46d1 3f3e 514e 2f3e 18c6 8ebb 48c1 12be
000000c0: 2851 aeba 6299 3e3e b43c 473e f6ee 513e
000000d0: a1c4 5d3e 3055 eebd 41b8 263e 64a5 fabd
000000e0: 4cc5 17be 49a6 18be 8501 15be 668a 10be
000000f0: 24a3 45be c5a2 483e 79e3 1cbe 3a50 21be
00000100: caa0 31be 2550 0cbe d76a 6e3e 8606 643e
00000110: 26d6 18be da29 0cbe b911 483e f378 4b3e
00000120: fe4a 0abe e0cf 32be 10c1 0fbe 5099 12be
00000130: 59ec 2abe e769 b7bd 2ea1 0fbe eee3 18be
00000140: 8bad 16be a0f4 653e b4e5 3c3e e584 12be
00000150: ee9b 03be 0de4 2abe ed36 3b3e 4385 ddbd
00000160: 8184 debd c1cf 1dbe ebe7 0ebe b5be d5b3
00000170: f9dd 47be d1a1 01be 1a00 25be d9ca 30be
00000180: 9f26 00be 25e0 6ebd bc65 5b3e c413 8f3e
00000190: ae4f 1cbe cdd4 23be 9dfd 5b3e 1fa6 0dbe
000001a0: 08ae 483e 800d 17be 4028 1bbe 4745 ddbd
000001b0: df37 2a3e da9f 2bbe 7b10 4a3e 54e8 673e
000001c0: cbd4 623e 30d6 653e 742f 00be b015 4e3e
000001d0: b7c7 423e 4718 febd 62f4 2e3e 2055 1cbe
